<?xml version="1.0" ?>
<net name="automatic-tensorrt" version="10">
	<layers>
		<layer id="0" name="r1i" type="Parameter" version="opset1">
			<data element_type="f16" shape="1, 16, 45, 80"/>
			<output>
				<port id="0" names="r1i" precision="FP16">
					<dim>1</dim>
					<dim>16</dim>
					<dim>45</dim>
					<dim>80</dim>
				</port>
			</output>
		</layer>
		<layer id="1" name="r2i" type="Parameter" version="opset1">
			<data element_type="f16" shape="1, 20, 23, 40"/>
			<output>
				<port id="0" names="r2i" precision="FP16">
					<dim>1</dim>
					<dim>20</dim>
					<dim>23</dim>
					<dim>40</dim>
				</port>
			</output>
		</layer>
		<layer id="2" name="r3i" type="Parameter" version="opset1">
			<data element_type="f16" shape="1, 40, 12, 20"/>
			<output>
				<port id="0" names="r3i" precision="FP16">
					<dim>1</dim>
					<dim>40</dim>
					<dim>12</dim>
					<dim>20</dim>
				</port>
			</output>
		</layer>
		<layer id="3" name="r4i" type="Parameter" version="opset1">
			<data element_type="f16" shape="1, 64, 6, 10"/>
			<output>
				<port id="0" names="r4i" precision="FP16">
					<dim>1</dim>
					<dim>64</dim>
					<dim>6</dim>
					<dim>10</dim>
				</port>
			</output>
		</layer>
		<layer id="4" name="src" type="Parameter" version="opset1">
			<data element_type="f16" shape="1, 3, 180, 320"/>
			<output>
				<port id="0" names="src" precision="FP16">
					<dim>1</dim>
					<dim>3</dim>
					<dim>180</dim>
					<dim>320</dim>
				</port>
			</output>
		</layer>
		<layer id="5" name="Resize_1/ShapeOf" type="ShapeOf" version="opset3">
			<data output_type="i64"/>
			<input>
				<port id="0" precision="FP16">
					<dim>1</dim>
					<dim>3</dim>
					<dim>180</dim>
					<dim>320</dim>
				</port>
			</input>
			<output>
				<port id="1" precision="I64">
					<dim>4</dim>
				</port>
			</output>
		</layer>
		<layer id="6" name="5606" type="Convert" version="opset1">
			<data destination_type="f32"/>
			<input>
				<port id="0" precision="I64">
					<dim>4</dim>
				</port>
			</input>
			<output>
				<port id="1" precision="FP32">
					<dim>4</dim>
				</port>
			</output>
		</layer>
		<layer id="7" name="1105" type="Const" version="opset1">
			<data element_type="f32" offset="0" shape="4" size="16"/>
			<output>
				<port id="0" names="1105" precision="FP32">
					<dim>4</dim>
				</port>
			</output>
		</layer>
		<layer id="8" name="Resize_1/Mul" type="Multiply" version="opset1">
			<data auto_broadcast="numpy"/>
			<input>
				<port id="0" precision="FP32">
					<dim>4</dim>
				</port>
				<port id="1" precision="FP32">
					<dim>4</dim>
				</port>
			</input>
			<output>
				<port id="2" precision="FP32">
					<dim>4</dim>
				</port>
			</output>
		</layer>
		<layer id="9" name="Resize_1/Add_input_port_1/value560532058" type="Const" version="opset1">
			<data element_type="f32" offset="16" shape="1" size="4"/>
			<output>
				<port id="0" precision="FP32">
					<dim>1</dim>
				</port>
			</output>
		</layer>
		<layer id="10" name="Resize_1/Add" type="Add" version="opset1">
			<data auto_broadcast="numpy"/>
			<input>
				<port id="0" precision="FP32">
					<dim>4</dim>
				</port>
				<port id="1" precision="FP32">
					<dim>1</dim>
				</port>
			</input>
			<output>
				<port id="2" precision="FP32">
					<dim>4</dim>
				</port>
			</output>
		</layer>
		<layer id="11" name="Resize_1/Floor" type="Floor" version="opset1">
			<input>
				<port id="0" precision="FP32">
					<dim>4</dim>
				</port>
			</input>
			<output>
				<port id="1" precision="FP32">
					<dim>4</dim>
				</port>
			</output>
		</layer>
		<layer id="12" name="5610" type="Convert" version="opset1">
			<data destination_type="i64"/>
			<input>
				<port id="0" precision="FP32">
					<dim>4</dim>
				</port>
			</input>
			<output>
				<port id="1" precision="I64">
					<dim>4</dim>
				</port>
			</output>
		</layer>
		<layer id="13" name="Resize_1/StridedSlice_sizes_input_port_1/value558732547" type="Const" version="opset1">
			<data element_type="i64" offset="20" shape="1" size="8"/>
			<output>
				<port id="0" precision="I64">
					<dim>1</dim>
				</port>
			</output>
		</layer>
		<layer id="14" name="Resize_1/StridedSlice_sizes_input_port_2/value558932316" type="Const" version="opset1">
			<data element_type="i64" offset="28" shape="1" size="8"/>
			<output>
				<port id="0" precision="I64">
					<dim>1</dim>
				</port>
			</output>
		</layer>
		<layer id="15" name="Resize_1/StridedSlice_sizes_input_port_3/value559132322" type="Const" version="opset1">
			<data element_type="i64" offset="36" shape="1" size="8"/>
			<output>
				<port id="0" precision="I64">
					<dim>1</dim>
				</port>
			</output>
		</layer>
		<layer id="16" name="Resize_1/StridedSlice_sizes" type="StridedSlice" version="opset1">
			<data begin_mask="0" ellipsis_mask="0" end_mask="0" new_axis_mask="0" shrink_axis_mask="0"/>
			<input>
				<port id="0" precision="I64">
					<dim>4</dim>
				</port>
				<port id="1" precision="I64">
					<dim>1</dim>
				</port>
				<port id="2" precision="I64">
					<dim>1</dim>
				</port>
				<port id="3" precision="I64">
					<dim>1</dim>
				</port>
			</input>
			<output>
				<port id="4" precision="I64">
					<dim>2</dim>
				</port>
			</output>
		</layer>
		<layer id="17" name="Resize_1/StridedSlice_scales561732709" type="Const" version="opset1">
			<data element_type="f32" offset="44" shape="2" size="8"/>
			<output>
				<port id="0" precision="FP32">
					<dim>2</dim>
				</port>
			</output>
		</layer>
		<layer id="18" name="Resize_1/axis560132052" type="Const" version="opset1">
			<data element_type="i64" offset="52" shape="2" size="16"/>
			<output>
				<port id="0" precision="I64">
					<dim>2</dim>
				</port>
			</output>
		</layer>
		<layer id="19" name="Resize_1" type="Interpolate" version="opset4">
			<data antialias="false" coordinate_transformation_mode="pytorch_half_pixel" cube_coeff="-0.75" mode="linear_onnx" nearest_mode="floor" pads_begin="0, 0, 0, 0" pads_end="0, 0, 0, 0" shape_calculation_mode="scales"/>
			<input>
				<port id="0" precision="FP16">
					<dim>1</dim>
					<dim>3</dim>
					<dim>180</dim>
					<dim>320</dim>
				</port>
				<port id="1" precision="I64">
					<dim>2</dim>
				</port>
				<port id="2" precision="FP32">
					<dim>2</dim>
				</port>
				<port id="3" precision="I64">
					<dim>2</dim>
				</port>
			</input>
			<output>
				<port id="4" names="389" precision="FP16">
					<dim>1</dim>
					<dim>3</dim>
					<dim>90</dim>
					<dim>160</dim>
				</port>
			</output>
		</layer>
		<layer id="20" name="ReduceMean_416/axis" type="Const" version="opset1">
			<data element_type="i64" offset="36" shape="1" size="8"/>
			<output>
				<port id="0" precision="I64">
					<dim>1</dim>
				</port>
			</output>
		</layer>
		<layer id="21" name="ReduceMean_416" type="ReduceMean" version="opset1">
			<data keep_dims="true"/>
			<input>
				<port id="0" precision="FP16">
					<dim>1</dim>
					<dim>3</dim>
					<dim>90</dim>
					<dim>160</dim>
				</port>
				<port id="1" precision="I64">
					<dim>1</dim>
				</port>
			</input>
			<output>
				<port id="2" names="877" precision="FP16">
					<dim>1</dim>
					<dim>1</dim>
					<dim>90</dim>
					<dim>160</dim>
				</port>
			</output>
		</layer>
		<layer id="22" name="Concat_417" type="Concat" version="opset1">
			<data axis="1"/>
			<input>
				<port id="0" precision="FP16">
					<dim>1</dim>
					<dim>3</dim>
					<dim>90</dim>
					<dim>160</dim>
				</port>
				<port id="1" precision="FP16">
					<dim>1</dim>
					<dim>1</dim>
					<dim>90</dim>
					<dim>160</dim>
				</port>
			</input>
			<output>
				<port id="2" names="878" precision="FP16">
					<dim>1</dim>
					<dim>4</dim>
					<dim>90</dim>
					<dim>160</dim>
				</port>
			</output>
		</layer>
		<layer id="23" name="data_mul_12965" type="Const" version="opset1">
			<data element_type="f16" offset="68" shape="1, 3, 1, 1" size="6"/>
			<output>
				<port id="0" precision="FP16">
					<dim>1</dim>
					<dim>3</dim>
					<dim>1</dim>
					<dim>1</dim>
				</port>
			</output>
		</layer>
		<layer id="24" name="Div_5/Fused_Mul_" type="Multiply" version="opset1">
			<data auto_broadcast="numpy"/>
			<input>
				<port id="0" precision="FP16">
					<dim>1</dim>
					<dim>3</dim>
					<dim>90</dim>
					<dim>160</dim>
				</port>
				<port id="1" precision="FP16">
					<dim>1</dim>
					<dim>3</dim>
					<dim>1</dim>
					<dim>1</dim>
				</port>
			</input>
			<output>
				<port id="2" precision="FP16">
					<dim>1</dim>
					<dim>3</dim>
					<dim>90</dim>
					<dim>160</dim>
				</port>
			</output>
		</layer>
		<layer id="25" name="data_add_12967" type="Const" version="opset1">
			<data element_type="f16" offset="74" shape="1, 3, 1, 1" size="6"/>
			<output>
				<port id="0" precision="FP16">
					<dim>1</dim>
					<dim>3</dim>
					<dim>1</dim>
					<dim>1</dim>
				</port>
			</output>
		</layer>
		<layer id="26" name="Sub_3/Fused_Add_" type="Add" version="opset1">
			<data auto_broadcast="numpy"/>
			<input>
				<port id="0" precision="FP16">
					<dim>1</dim>
					<dim>3</dim>
					<dim>90</dim>
					<dim>160</dim>
				</port>
				<port id="1" precision="FP16">
					<dim>1</dim>
					<dim>3</dim>
					<dim>1</dim>
					<dim>1</dim>
				</port>
			</input>
			<output>
				<port id="2" names="393" precision="FP16">
					<dim>1</dim>
					<dim>3</dim>
					<dim>90</dim>
					<dim>160</dim>
				</port>
			</output>
		</layer>
		<layer id="27" name="944" type="Const" version="opset1">
			<data element_type="f16" offset="80" shape="16, 3, 3, 3" size="864"/>
			<output>
				<port id="0" names="944" precision="FP16">
					<dim>16</dim>
					<dim>3</dim>
					<dim>3</dim>
					<dim>3</dim>
				</port>
			</output>
		</layer>
		<layer id="28" name="Conv_6/WithoutBiases" type="Convolution" version="opset1">
			<data auto_pad="explicit" dilations="1, 1" pads_begin="1, 1" pads_end="1, 1" strides="2, 2"/>
			<input>
				<port id="0" precision="FP16">
					<dim>1</dim>
					<dim>3</dim>
					<dim>90</dim>
					<dim>160</dim>
				</port>
				<port id="1" precision="FP16">
					<dim>16</dim>
					<dim>3</dim>
					<dim>3</dim>
					<dim>3</dim>
				</port>
			</input>
			<output>
				<port id="2" precision="FP16">
					<dim>1</dim>
					<dim>16</dim>
					<dim>45</dim>
					<dim>80</dim>
				</port>
			</output>
		</layer>
		<layer id="29" name="Conv_6/Dims7387" type="Const" version="opset1">
			<data element_type="f16" offset="944" shape="1, 16, 1, 1" size="32"/>
			<output>
				<port id="0" precision="FP16">
					<dim>1</dim>
					<dim>16</dim>
					<dim>1</dim>
					<dim>1</dim>
				</port>
			</output>
		</layer>
		<layer id="30" name="Conv_6" type="Add" version="opset1">
			<data auto_broadcast="numpy"/>
			<input>
				<port id="0" precision="FP16">
					<dim>1</dim>
					<dim>16</dim>
					<dim>45</dim>
					<dim>80</dim>
				</port>
				<port id="1" precision="FP16">
					<dim>1</dim>
					<dim>16</dim>
					<dim>1</dim>
					<dim>1</dim>
				</port>
			</input>
			<output>
				<port id="2" names="943" precision="FP16">
					<dim>1</dim>
					<dim>16</dim>
					<dim>45</dim>
					<dim>80</dim>
				</port>
			</output>
		</layer>
		<layer id="31" name="Constant_7" type="Const" version="opset1">
			<data element_type="f16" offset="976" shape="1, 1, 1, 1" size="2"/>
			<output>
				<port id="0" names="396" precision="FP16">
					<dim>1</dim>
					<dim>1</dim>
					<dim>1</dim>
					<dim>1</dim>
				</port>
			</output>
		</layer>
		<layer id="32" name="Add_8" type="Add" version="opset1">
			<data auto_broadcast="numpy"/>
			<input>
				<port id="0" precision="FP16">
					<dim>1</dim>
					<dim>16</dim>
					<dim>45</dim>
					<dim>80</dim>
				</port>
				<port id="1" precision="FP16">
					<dim>1</dim>
					<dim>1</dim>
					<dim>1</dim>
					<dim>1</dim>
				</port>
			</input>
			<output>
				<port id="2" names="397" precision="FP16">
					<dim>1</dim>
					<dim>16</dim>
					<dim>45</dim>
					<dim>80</dim>
				</port>
			</output>
		</layer>
		<layer id="33" name="Clip_11" type="Clamp" version="opset1">
			<data max="6" min="0"/>
			<input>
				<port id="0" precision="FP16">
					<dim>1</dim>
					<dim>16</dim>
					<dim>45</dim>
					<dim>80</dim>
				</port>
			</input>
			<output>
				<port id="1" names="400" precision="FP16">
					<dim>1</dim>
					<dim>16</dim>
					<dim>45</dim>
					<dim>80</dim>
				</port>
			</output>
		</layer>
		<layer id="34" name="Constant_12" type="Const" version="opset1">
			<data element_type="f16" offset="978" shape="1, 1, 1, 1" size="2"/>
			<output>
				<port id="0" names="401" precision="FP16">
					<dim>1</dim>
					<dim>1</dim>
					<dim>1</dim>
					<dim>1</dim>
				</port>
			</output>
		</layer>
		<layer id="35" name="Div_13" type="Multiply" version="opset1">
			<data auto_broadcast="numpy"/>
			<input>
				<port id="0" precision="FP16">
					<dim>1</dim>
					<dim>16</dim>
					<dim>45</dim>
					<dim>80</dim>
				</port>
				<port id="1" precision="FP16">
					<dim>1</dim>
					<dim>1</dim>
					<dim>1</dim>
					<dim>1</dim>
				</port>
			</input>
			<output>
				<port id="2" names="402" precision="FP16">
					<dim>1</dim>
					<dim>16</dim>
					<dim>45</dim>
					<dim>80</dim>
				</port>
			</output>
		</layer>
		<layer id="36" name="Mul_14" type="Multiply" version="opset1">
			<data auto_broadcast="numpy"/>
			<input>
				<port id="0" precision="FP16">
					<dim>1</dim>
					<dim>16</dim>
					<dim>45</dim>
					<dim>80</dim>
				</port>
				<port id="1" precision="FP16">
					<dim>1</dim>
					<dim>16</dim>
					<dim>45</dim>
					<dim>80</dim>
				</port>
			</input>
			<output>
				<port id="2" names="403" precision="FP16">
					<dim>1</dim>
					<dim>16</dim>
					<dim>45</dim>
					<dim>80</dim>
				</port>
			</output>
		</layer>
		<layer id="37" name="947" type="Const" version="opset1">
			<data element_type="f16" offset="980" shape="16, 1, 1, 3, 3" size="288"/>
			<output>
				<port id="0" names="947" precision="FP16">
					<dim>16</dim>
					<dim>1</dim>
					<dim>1</dim>
					<dim>3</dim>
					<dim>3</dim>
				</port>
			</output>
		</layer>
		<layer id="38" name="Conv_15/WithoutBiases" type="GroupConvolution" version="opset1">
			<data auto_pad="explicit" dilations="1, 1" pads_begin="1, 1" pads_end="1, 1" strides="1, 1"/>
			<input>
				<port id="0" precision="FP16">
					<dim>1</dim>
					<dim>16</dim>
					<dim>45</dim>
					<dim>80</dim>
				</port>
				<port id="1" precision="FP16">
					<dim>16</dim>
					<dim>1</dim>
					<dim>1</dim>
					<dim>3</dim>
					<dim>3</dim>
				</port>
			</input>
			<output>
				<port id="2" precision="FP16">
					<dim>1</dim>
					<dim>16</dim>
					<dim>45</dim>
					<dim>80</dim>
				</port>
			</output>
		</layer>
		<layer id="39" name="Conv_15/Dims7087" type="Const" version="opset1">
			<data element_type="f16" offset="1268" shape="1, 16, 1, 1" size="32"/>
			<output>
				<port id="0" precision="FP16">
					<dim>1</dim>
					<dim>16</dim>
					<dim>1</dim>
					<dim>1</dim>
				</port>
			</output>
		</layer>
		<layer id="40" name="Conv_15" type="Add" version="opset1">
			<data auto_broadcast="numpy"/>
			<input>
				<port id="0" precision="FP16">
					<dim>1</dim>
					<dim>16</dim>
					<dim>45</dim>
					<dim>80</dim>
				</port>
				<port id="1" precision="FP16">
					<dim>1</dim>
					<dim>16</dim>
					<dim>1</dim>
					<dim>1</dim>
				</port>
			</input>
			<output>
				<port id="2" names="946" precision="FP16">
					<dim>1</dim>
					<dim>16</dim>
					<dim>45</dim>
					<dim>80</dim>
				</port>
			</output>
		</layer>
		<layer id="41" name="Relu_16" type="ReLU" version="opset1">
			<input>
				<port id="0" precision="FP16">
					<dim>1</dim>
					<dim>16</dim>
					<dim>45</dim>
					<dim>80</dim>
				</port>
			</input>
			<output>
				<port id="1" names="406" precision="FP16">
					<dim>1</dim>
					<dim>16</dim>
					<dim>45</dim>
					<dim>80</dim>
				</port>
			</output>
		</layer>
		<layer id="42" name="950" type="Const" version="opset1">
			<data element_type="f16" offset="1300" shape="16, 16, 1, 1" size="512"/>
			<output>
				<port id="0" names="950" precision="FP16">
					<dim>16</dim>
					<dim>16</dim>
					<dim>1</dim>
					<dim>1</dim>
				</port>
			</output>
		</layer>
		<layer id="43" name="Conv_17/WithoutBiases" type="Convolution" version="opset1">
			<data auto_pad="explicit" dilations="1, 1" pads_begin="0, 0" pads_end="0, 0" strides="1, 1"/>
			<input>
				<port id="0" precision="FP16">
					<dim>1</dim>
					<dim>16</dim>
					<dim>45</dim>
					<dim>80</dim>
				</port>
				<port id="1" precision="FP16">
					<dim>16</dim>
					<dim>16</dim>
					<dim>1</dim>
					<dim>1</dim>
				</port>
			</input>
			<output>
				<port id="2" precision="FP16">
					<dim>1</dim>
					<dim>16</dim>
					<dim>45</dim>
					<dim>80</dim>
				</port>
			</output>
		</layer>
		<layer id="44" name="Conv_17/Dims7369" type="Const" version="opset1">
			<data element_type="f16" offset="1812" shape="1, 16, 1, 1" size="32"/>
			<output>
				<port id="0" precision="FP16">
					<dim>1</dim>
					<dim>16</dim>
					<dim>1</dim>
					<dim>1</dim>
				</port>
			</output>
		</layer>
		<layer id="45" name="Conv_17" type="Add" version="opset1">
			<data auto_broadcast="numpy"/>
			<input>
				<port id="0" precision="FP16">
					<dim>1</dim>
					<dim>16</dim>
					<dim>45</dim>
					<dim>80</dim>
				</port>
				<port id="1" precision="FP16">
					<dim>1</dim>
					<dim>16</dim>
					<dim>1</dim>
					<dim>1</dim>
				</port>
			</input>
			<output>
				<port id="2" names="949" precision="FP16">
					<dim>1</dim>
					<dim>16</dim>
					<dim>45</dim>
					<dim>80</dim>
				</port>
			</output>
		</layer>
		<layer id="46" name="Add_18" type="Add" version="opset1">
			<data auto_broadcast="numpy"/>
			<input>
				<port id="0" precision="FP16">
					<dim>1</dim>
					<dim>16</dim>
					<dim>45</dim>
					<dim>80</dim>
				</port>
				<port id="1" precision="FP16">
					<dim>1</dim>
					<dim>16</dim>
					<dim>45</dim>
					<dim>80</dim>
				</port>
			</input>
			<output>
				<port id="2" names="409" precision="FP16">
					<dim>1</dim>
					<dim>16</dim>
					<dim>45</dim>
					<dim>80</dim>
				</port>
			</output>
		</layer>
		<layer id="47" name="953" type="Const" version="opset1">
			<data element_type="f16" offset="1844" shape="64, 16, 1, 1" size="2048"/>
			<output>
				<port id="0" names="953" precision="FP16">
					<dim>64</dim>
					<dim>16</dim>
					<dim>1</dim>
					<dim>1</dim>
				</port>
			</output>
		</layer>
		<layer id="48" name="Conv_19/WithoutBiases" type="Convolution" version="opset1">
			<data auto_pad="explicit" dilations="1, 1" pads_begin="0, 0" pads_end="0, 0" strides="1, 1"/>
			<input>
				<port id="0" precision="FP16">
					<dim>1</dim>
					<dim>16</dim>
					<dim>45</dim>
					<dim>80</dim>
				</port>
				<port id="1" precision="FP16">
					<dim>64</dim>
					<dim>16</dim>
					<dim>1</dim>
					<dim>1</dim>
				</port>
			</input>
			<output>
				<port id="2" precision="FP16">
					<dim>1</dim>
					<dim>64</dim>
					<dim>45</dim>
					<dim>80</dim>
				</port>
			</output>
		</layer>
		<layer id="49" name="Conv_19/Dims7345" type="Const" version="opset1">
			<data element_type="f16" offset="3892" shape="1, 64, 1, 1" size="128"/>
			<output>
				<port id="0" precision="FP16">
					<dim>1</dim>
					<dim>64</dim>
					<dim>1</dim>
					<dim>1</dim>
				</port>
			</output>
		</layer>
		<layer id="50" name="Conv_19" type="Add" version="opset1">
			<data auto_broadcast="numpy"/>
			<input>
				<port id="0" precision="FP16">
					<dim>1</dim>
					<dim>64</dim>
					<dim>45</dim>
					<dim>80</dim>
				</port>
				<port id="1" precision="FP16">
					<dim>1</dim>
					<dim>64</dim>
					<dim>1</dim>
					<dim>1</dim>
				</port>
			</input>
			<output>
				<port id="2" names="952" precision="FP16">
					<dim>1</dim>
					<dim>64</dim>
					<dim>45</dim>
					<dim>80</dim>
				</port>
			</output>
		</layer>
		<layer id="51" name="Relu_20" type="ReLU" version="opset1">
			<input>
				<port id="0" precision="FP16">
					<dim>1</dim>
					<dim>64</dim>
					<dim>45</dim>
					<dim>80</dim>
				</port>
			</input>
			<output>
				<port id="1" names="412" precision="FP16">
					<dim>1</dim>
					<dim>64</dim>
					<dim>45</dim>
					<dim>80</dim>
				</port>
			</output>
		</layer>
		<layer id="52" name="956" type="Const" version="opset1">
			<data element_type="f16" offset="4020" shape="64, 1, 1, 3, 3" size="1152"/>
			<output>
				<port id="0" names="956" precision="FP16">
					<dim>64</dim>
					<dim>1</dim>
					<dim>1</dim>
					<dim>3</dim>
					<dim>3</dim>
				</port>
			</output>
		</layer>
		<layer id="53" name="Conv_21/WithoutBiases" type="GroupConvolution" version="opset1">
			<data auto_pad="explicit" dilations="1, 1" pads_begin="1, 1" pads_end="1, 1" strides="2, 2"/>
			<input>
				<port id="0" precision="FP16">
					<dim>1</dim>
					<dim>64</dim>
					<dim>45</dim>
					<dim>80</dim>
				</port>
				<port id="1" precision="FP16">
					<dim>64</dim>
					<dim>1</dim>
					<dim>1</dim>
					<dim>3</dim>
					<dim>3</dim>
				</port>
			</input>
			<output>
				<port id="2" precision="FP16">
					<dim>1</dim>
					<dim>64</dim>
					<dim>23</dim>
					<dim>40</dim>
				</port>
			</output>
		</layer>
		<layer id="54" name="Conv_21/Dims7111" type="Const" version="opset1">
			<data element_type="f16" offset="5172" shape="1, 64, 1, 1" size="128"/>
			<output>
				<port id="0" precision="FP16">
					<dim>1</dim>
					<dim>64</dim>
					<dim>1</dim>
					<dim>1</dim>
				</port>
			</output>
		</layer>
		<layer id="55" name="Conv_21" type="Add" version="opset1">
			<data auto_broadcast="numpy"/>
			<input>
				<port id="0" precision="FP16">
					<dim>1</dim>
					<dim>64</dim>
					<dim>23</dim>
					<dim>40</dim>
				</port>
				<port id="1" precision="FP16">
					<dim>1</dim>
					<dim>64</dim>
					<dim>1</dim>
					<dim>1</dim>
				</port>
			</input>
			<output>
				<port id="2" names="955" precision="FP16">
					<dim>1</dim>
					<dim>64</dim>
					<dim>23</dim>
					<dim>40</dim>
				</port>
			</output>
		</layer>
		<layer id="56" name="Relu_22" type="ReLU" version="opset1">
			<input>
				<port id="0" precision="FP16">
					<dim>1</dim>
					<dim>64</dim>
					<dim>23</dim>
					<dim>40</dim>
				</port>
			</input>
			<output>
				<port id="1" names="415" precision="FP16">
					<dim>1</dim>
					<dim>64</dim>
					<dim>23</dim>
					<dim>40</dim>
				</port>
			</output>
		</layer>
		<layer id="57" name="959" type="Const" version="opset1">
			<data element_type="f16" offset="5300" shape="24, 64, 1, 1" size="3072"/>
			<output>
				<port id="0" names="959" precision="FP16">
					<dim>24</dim>
					<dim>64</dim>
					<dim>1</dim>
					<dim>1</dim>
				</port>
			</output>
		</layer>
		<layer id="58" name="Conv_23/WithoutBiases" type="Convolution" version="opset1">
			<data auto_pad="explicit" dilations="1, 1" pads_begin="0, 0" pads_end="0, 0" strides="1, 1"/>
			<input>
				<port id="0" precision="FP16">
					<dim>1</dim>
					<dim>64</dim>
					<dim>23</dim>
					<dim>40</dim>
				</port>
				<port id="1" precision="FP16">
					<dim>24</dim>
					<dim>64</dim>
					<dim>1</dim>
					<dim>1</dim>
				</port>
			</input>
			<output>
				<port id="2" precision="FP16">
					<dim>1</dim>
					<dim>24</dim>
					<dim>23</dim>
					<dim>40</dim>
				</port>
			</output>
		</layer>
		<layer id="59" name="Conv_23/Dims7117" type="Const" version="opset1">
			<data element_type="f16" offset="8372" shape="1, 24, 1, 1" size="48"/>
			<output>
				<port id="0" precision="FP16">
					<dim>1</dim>
					<dim>24</dim>
					<dim>1</dim>
					<dim>1</dim>
				</port>
			</output>
		</layer>
		<layer id="60" name="Conv_23" type="Add" version="opset1">
			<data auto_broadcast="numpy"/>
			<input>
				<port id="0" precision="FP16">
					<dim>1</dim>
					<dim>24</dim>
					<dim>23</dim>
					<dim>40</dim>
				</port>
				<port id="1" precision="FP16">
					<dim>1</dim>
					<dim>24</dim>
					<dim>1</dim>
					<dim>1</dim>
				</port>
			</input>
			<output>
				<port id="2" names="958" precision="FP16">
					<dim>1</dim>
					<dim>24</dim>
					<dim>23</dim>
					<dim>40</dim>
				</port>
			</output>
		</layer>
		<layer id="61" name="962" type="Const" version="opset1">
			<data element_type="f16" offset="8420" shape="72, 24, 1, 1" size="3456"/>
			<output>
				<port id="0" names="962" precision="FP16">
					<dim>72</dim>
					<dim>24</dim>
					<dim>1</dim>
					<dim>1</dim>
				</port>
			</output>
		</layer>
		<layer id="62" name="Conv_24/WithoutBiases" type="Convolution" version="opset1">
			<data auto_pad="explicit" dilations="1, 1" pads_begin="0, 0" pads_end="0, 0" strides="1, 1"/>
			<input>
				<port id="0" precision="FP16">
					<dim>1</dim>
					<dim>24</dim>
					<dim>23</dim>
					<dim>40</dim>
				</port>
				<port id="1" precision="FP16">
					<dim>72</dim>
					<dim>24</dim>
					<dim>1</dim>
					<dim>1</dim>
				</port>
			</input>
			<output>
				<port id="2" precision="FP16">
					<dim>1</dim>
					<dim>72</dim>
					<dim>23</dim>
					<dim>40</dim>
				</port>
			</output>
		</layer>
		<layer id="63" name="Conv_24/Dims7141" type="Const" version="opset1">
			<data element_type="f16" offset="11876" shape="1, 72, 1, 1" size="144"/>
			<output>
				<port id="0" precision="FP16">
					<dim>1</dim>
					<dim>72</dim>
					<dim>1</dim>
					<dim>1</dim>
				</port>
			</output>
		</layer>
		<layer id="64" name="Conv_24" type="Add" version="opset1">
			<data auto_broadcast="numpy"/>
			<input>
				<port id="0" precision="FP16">
					<dim>1</dim>
					<dim>72</dim>
					<dim>23</dim>
					<dim>40</dim>
				</port>
				<port id="1" precision="FP16">
					<dim>1</dim>
					<dim>72</dim>
					<dim>1</dim>
					<dim>1</dim>
				</port>
			</input>
			<output>
				<port id="2" names="961" precision="FP16">
					<dim>1</dim>
					<dim>72</dim>
					<dim>23</dim>
					<dim>40</dim>
				</port>
			</output>
		</layer>
		<layer id="65" name="Relu_25" type="ReLU" version="opset1">
			<input>
				<port id="0" precision="FP16">
					<dim>1</dim>
					<dim>72</dim>
					<dim>23</dim>
					<dim>40</dim>
				</port>
			</input>
			<output>
				<port id="1" names="420" precision="FP16">
					<dim>1</dim>
					<dim>72</dim>
					<dim>23</dim>
					<dim>40</dim>
				</port>
			</output>
		</layer>
		<layer id="66" name="965" type="Const" version="opset1">
			<data element_type="f16" offset="12020" shape="72, 1, 1, 3, 3" size="1296"/>
			<output>
				<port id="0" names="965" precision="FP16">
					<dim>72</dim>
					<dim>1</dim>
					<dim>1</dim>
					<dim>3</dim>
					<dim>3</dim>
				</port>
			</output>
		</layer>
		<layer id="67" name="Conv_26/WithoutBiases" type="GroupConvolution" version="opset1">
			<data auto_pad="explicit" dilations="1, 1" pads_begin="1, 1" pads_end="1, 1" strides="1, 1"/>
			<input>
				<port id="0" precision="FP16">
					<dim>1</dim>
					<dim>72</dim>
					<dim>23</dim>
					<dim>40</dim>
				</port>
				<port id="1" precision="FP16">
					<dim>72</dim>
					<dim>1</dim>
					<dim>1</dim>
					<dim>3</dim>
					<dim>3</dim>
				</port>
			</input>
			<output>
				<port id="2" precision="FP16">
					<dim>1</dim>
					<dim>72</dim>
					<dim>23</dim>
					<dim>40</dim>
				</port>
			</output>
		</layer>
		<layer id="68" name="Conv_26/Dims7051" type="Const" version="opset1">
			<data element_type="f16" offset="13316" shape="1, 72, 1, 1" size="144"/>
			<output>
				<port id="0" precision="FP16">
					<dim>1</dim>
					<dim>72</dim>
					<dim>1</dim>
					<dim>1</dim>
				</port>
			</output>
		</layer>
		<layer id="69" name="Conv_26" type="Add" version="opset1">
			<data auto_broadcast="numpy"/>
			<input>
				<port id="0" precision="FP16">
					<dim>1</dim>
					<dim>72</dim>
					<dim>23</dim>
					<dim>40</dim>
				</port>
				<port id="1" precision="FP16">
					<dim>1</dim>
					<dim>72</dim>
					<dim>1</dim>
					<dim>1</dim>
				</port>
			</input>
			<output>
				<port id="2" names="964" precision="FP16">
					<dim>1</dim>
					<dim>72</dim>
					<dim>23</dim>
					<dim>40</dim>
				</port>
			</output>
		</layer>
		<layer id="70" name="Relu_27" type="ReLU" version="opset1">
			<input>
				<port id="0" precision="FP16">
					<dim>1</dim>
					<dim>72</dim>
					<dim>23</dim>
					<dim>40</dim>
				</port>
			</input>
			<output>
				<port id="1" names="423" precision="FP16">
					<dim>1</dim>
					<dim>72</dim>
					<dim>23</dim>
					<dim>40</dim>
				</port>
			</output>
		</layer>
		<layer id="71" name="968" type="Const" version="opset1">
			<data element_type="f16" offset="13460" shape="24, 72, 1, 1" size="3456"/>
			<output>
				<port id="0" names="968" precision="FP16">
					<dim>24</dim>
					<dim>72</dim>
					<dim>1</dim>
					<dim>1</dim>
				</port>
			</output>
		</layer>
		<layer id="72" name="Conv_28/WithoutBiases" type="Convolution" version="opset1">
			<data auto_pad="explicit" dilations="1, 1" pads_begin="0, 0" pads_end="0, 0" strides="1, 1"/>
			<input>
				<port id="0" precision="FP16">
					<dim>1</dim>
					<dim>72</dim>
					<dim>23</dim>
					<dim>40</dim>
				</port>
				<port id="1" precision="FP16">
					<dim>24</dim>
					<dim>72</dim>
					<dim>1</dim>
					<dim>1</dim>
				</port>
			</input>
			<output>
				<port id="2" precision="FP16">
					<dim>1</dim>
					<dim>24</dim>
					<dim>23</dim>
					<dim>40</dim>
				</port>
			</output>
		</layer>
		<layer id="73" name="Conv_28/Dims7435" type="Const" version="opset1">
			<data element_type="f16" offset="16916" shape="1, 24, 1, 1" size="48"/>
			<output>
				<port id="0" precision="FP16">
					<dim>1</dim>
					<dim>24</dim>
					<dim>1</dim>
					<dim>1</dim>
				</port>
			</output>
		</layer>
		<layer id="74" name="Conv_28" type="Add" version="opset1">
			<data auto_broadcast="numpy"/>
			<input>
				<port id="0" precision="FP16">
					<dim>1</dim>
					<dim>24</dim>
					<dim>23</dim>
					<dim>40</dim>
				</port>
				<port id="1" precision="FP16">
					<dim>1</dim>
					<dim>24</dim>
					<dim>1</dim>
					<dim>1</dim>
				</port>
			</input>
			<output>
				<port id="2" names="967" precision="FP16">
					<dim>1</dim>
					<dim>24</dim>
					<dim>23</dim>
					<dim>40</dim>
				</port>
			</output>
		</layer>
		<layer id="75" name="Add_29" type="Add" version="opset1">
			<data auto_broadcast="numpy"/>
			<input>
				<port id="0" precision="FP16">
					<dim>1</dim>
					<dim>24</dim>
					<dim>23</dim>
					<dim>40</dim>
				</port>
				<port id="1" precision="FP16">
					<dim>1</dim>
					<dim>24</dim>
					<dim>23</dim>
					<dim>40</dim>
				</port>
			</input>
			<output>
				<port id="2" names="426" precision="FP16">
					<dim>1</dim>
					<dim>24</dim>
					<dim>23</dim>
					<dim>40</dim>
				</port>
			</output>
		</layer>
		<layer id="76" name="971" type="Const" version="opset1">
			<data element_type="f16" offset="16964" shape="72, 24, 1, 1" size="3456"/>
			<output>
				<port id="0" names="971" precision="FP16">
					<dim>72</dim>
					<dim>24</dim>
					<dim>1</dim>
					<dim>1</dim>
				</port>
			</output>
		</layer>
		<layer id="77" name="Conv_30/WithoutBiases" type="Convolution" version="opset1">
			<data auto_pad="explicit" dilations="1, 1" pads_begin="0, 0" pads_end="0, 0" strides="1, 1"/>
			<input>
				<port id="0" precision="FP16">
					<dim>1</dim>
					<dim>24</dim>
					<dim>23</dim>
					<dim>40</dim>
				</port>
				<port id="1" precision="FP16">
					<dim>72</dim>
					<dim>24</dim>
					<dim>1</dim>
					<dim>1</dim>
				</port>
			</input>
			<output>
				<port id="2" precision="FP16">
					<dim>1</dim>
					<dim>72</dim>
					<dim>23</dim>
					<dim>40</dim>
				</port>
			</output>
		</layer>
		<layer id="78" name="Conv_30/Dims7159" type="Const" version="opset1">
			<data element_type="f16" offset="20420" shape="1, 72, 1, 1" size="144"/>
			<output>
				<port id="0" precision="FP16">
					<dim>1</dim>
					<dim>72</dim>
					<dim>1</dim>
					<dim>1</dim>
				</port>
			</output>
		</layer>
		<layer id="79" name="Conv_30" type="Add" version="opset1">
			<data auto_broadcast="numpy"/>
			<input>
				<port id="0" precision="FP16">
					<dim>1</dim>
					<dim>72</dim>
					<dim>23</dim>
					<dim>40</dim>
				</port>
				<port id="1" precision="FP16">
					<dim>1</dim>
					<dim>72</dim>
					<dim>1</dim>
					<dim>1</dim>
				</port>
			</input>
			<output>
				<port id="2" names="970" precision="FP16">
					<dim>1</dim>
					<dim>72</dim>
					<dim>23</dim>
					<dim>40</dim>
				</port>
			</output>
		</layer>
		<layer id="80" name="Relu_31" type="ReLU" version="opset1">
			<input>
				<port id="0" precision="FP16">
					<dim>1</dim>
					<dim>72</dim>
					<dim>23</dim>
					<dim>40</dim>
				</port>
			</input>
			<output>
				<port id="1" names="429" precision="FP16">
					<dim>1</dim>
					<dim>72</dim>
					<dim>23</dim>
					<dim>40</dim>
				</port>
			</output>
		</layer>
		<layer id="81" name="974" type="Const" version="opset1">
			<data element_type="f16" offset="20564" shape="72, 1, 1, 5, 5" size="3600"/>
			<output>
				<port id="0" names="974" precision="FP16">
					<dim>72</dim>
					<dim>1</dim>
					<dim>1</dim>
					<dim>5</dim>
					<dim>5</dim>
				</port>
			</output>
		</layer>
		<layer id="82" name="Conv_32/WithoutBiases" type="GroupConvolution" version="opset1">
			<data auto_pad="explicit" dilations="1, 1" pads_begin="2, 2" pads_end="2, 2" strides="2, 2"/>
			<input>
				<port id="0" precision="FP16">
					<dim>1</dim>
					<dim>72</dim>
					<dim>23</dim>
					<dim>40</dim>
				</port>
				<port id="1" precision="FP16">
					<dim>72</dim>
					<dim>1</dim>
					<dim>1</dim>
					<dim>5</dim>
					<dim>5</dim>
				</port>
			</input>
			<output>
				<port id="2" precision="FP16">
					<dim>1</dim>
					<dim>72</dim>
					<dim>12</dim>
					<dim>20</dim>
				</port>
			</output>
		</layer>
		<layer id="83" name="Conv_32/Dims7405" type="Const" version="opset1">
			<data element_type="f16" offset="24164" shape="1, 72, 1, 1" size="144"/>
			<output>
				<port id="0" precision="FP16">
					<dim>1</dim>
					<dim>72</dim>
					<dim>1</dim>
					<dim>1</dim>
				</port>
			</output>
		</layer>
		<layer id="84" name="Conv_32" type="Add" version="opset1">
			<data auto_broadcast="numpy"/>
			<input>
				<port id="0" precision="FP16">
					<dim>1</dim>
					<dim>72</dim>
					<dim>12</dim>
					<dim>20</dim>
				</port>
				<port id="1" precision="FP16">
					<dim>1</dim>
					<dim>72</dim>
					<dim>1</dim>
					<dim>1</dim>
				</port>
			</input>
			<output>
				<port id="2" names="973" precision="FP16">
					<dim>1</dim>
					<dim>72</dim>
					<dim>12</dim>
					<dim>20</dim>
				</port>
			</output>
		</layer>
		<layer id="85" name="Relu_33" type="ReLU" version="opset1">
			<input>
				<port id="0" precision="FP16">
					<dim>1</dim>
					<dim>72</dim>
					<dim>12</dim>
					<dim>20</dim>
				</port>
			</input>
			<output>
				<port id="1" names="432" precision="FP16">
					<dim>1</dim>
					<dim>72</dim>
					<dim>12</dim>
					<dim>20</dim>
				</port>
			</output>
		</layer>
		<layer id="86" name="687" type="Const" version="opset1">
			<data element_type="i64" offset="20" shape="" size="8"/>
			<output>
				<port id="0" precision="I64"/>
			</output>
		</layer>
		<layer id="87" name="GlobalAveragePool_34/input_rank/shape_of" type="ShapeOf" version="opset3">
			<data output_type="i64"/>
			<input>
				<port id="0" precision="FP16">
					<dim>1</dim>
					<dim>72</dim>
					<dim>12</dim>
					<dim>20</dim>
				</port>
			</input>
			<output>
				<port id="1" precision="I64">
					<dim>4</dim>
				</port>
			</output>
		</layer>
		<layer id="88" name="GlobalAveragePool_34/input_rank/rank_of" type="ShapeOf" version="opset3">
			<data output_type="i64"/>
			<input>
				<port id="0" precision="I64">
					<dim>4</dim>
				</port>
			</input>
			<output>
				<port id="1" precision="I64">
					<dim>1</dim>
				</port>
			</output>
		</layer>
		<layer id="89" name="GlobalAveragePool_34/input_rank/0d_rank_of/value" type="Const" version="opset1">
			<data element_type="i64" offset="24308" shape="1" size="8"/>
			<output>
				<port id="0" precision="I64">
					<dim>1</dim>
				</port>
			</output>
		</layer>
		<layer id="90" name="GlobalAveragePool_34/input_rank" type="Squeeze" version="opset1">
			<input>
				<port id="0" precision="I64">
					<dim>1</dim>
				</port>
				<port id="1" precision="I64">
					<dim>1</dim>
				</port>
			</input>
			<output>
				<port id="2" precision="I64"/>
			</output>
		</layer>
		<layer id="91" name="689" type="Const" version="opset1">
			<data element_type="i64" offset="36" shape="" size="8"/>
			<output>
				<port id="0" precision="I64"/>
			</output>
		</layer>
		<layer id="92" name="GlobalAveragePool_34/global_pooling_reduce_axis" type="Range" version="opset4">
			<data output_type="i64"/>
			<input>
				<port id="0" precision="I64"/>
				<port id="1" precision="I64"/>
				<port id="2" precision="I64"/>
			</input>
			<output>
				<port id="3" precision="I64">
					<dim>2</dim>
				</port>
			</output>
		</layer>
		<layer id="93" name="GlobalAveragePool_34/reduce" type="ReduceMean" version="opset1">
			<data keep_dims="true"/>
			<input>
				<port id="0" precision="FP16">
					<dim>1</dim>
					<dim>72</dim>
					<dim>12</dim>
					<dim>20</dim>
				</port>
				<port id="1" precision="I64">
					<dim>2</dim>
				</port>
			</input>
			<output>
				<port id="2" names="433" precision="FP16">
					<dim>1</dim>
					<dim>72</dim>
					<dim>1</dim>
					<dim>1</dim>
				</port>
			</output>
		</layer>
		<layer id="94" name="backbone.features.4.block.2.fc1.weight" type="Const" version="opset1">
			<data element_type="f16" offset="24316" shape="24, 72, 1, 1" size="3456"/>
			<output>
				<port id="0" names="backbone.features.4.block.2.fc1.weight" precision="FP16">
					<dim>24</dim>
					<dim>72</dim>
					<dim>1</dim>
					<dim>1</dim>
				</port>
			</output>
		</layer>
		<layer id="95" name="Conv_35/WithoutBiases" type="Convolution" version="opset1">
			<data auto_pad="explicit" dilations="1, 1" pads_begin="0, 0" pads_end="0, 0" strides="1, 1"/>
			<input>
				<port id="0" precision="FP16">
					<dim>1</dim>
					<dim>72</dim>
					<dim>1</dim>
					<dim>1</dim>
				</port>
				<port id="1" precision="FP16">
					<dim>24</dim>
					<dim>72</dim>
					<dim>1</dim>
					<dim>1</dim>
				</port>
			</input>
			<output>
				<port id="2" precision="FP16">
					<dim>1</dim>
					<dim>24</dim>
					<dim>1</dim>
					<dim>1</dim>
				</port>
			</output>
		</layer>
		<layer id="96" name="Conv_35/Dims7255" type="Const" version="opset1">
			<data element_type="f16" offset="27772" shape="1, 24, 1, 1" size="48"/>
			<output>
				<port id="0" precision="FP16">
					<dim>1</dim>
					<dim>24</dim>
					<dim>1</dim>
					<dim>1</dim>
				</port>
			</output>
		</layer>
		<layer id="97" name="Conv_35" type="Add" version="opset1">
			<data auto_broadcast="numpy"/>
			<input>
				<port id="0" precision="FP16">
					<dim>1</dim>
					<dim>24</dim>
					<dim>1</dim>
					<dim>1</dim>
				</port>
				<port id="1" precision="FP16">
					<dim>1</dim>
					<dim>24</dim>
					<dim>1</dim>
					<dim>1</dim>
				</port>
			</input>
			<output>
				<port id="2" names="434" precision="FP16">
					<dim>1</dim>
					<dim>24</dim>
					<dim>1</dim>
					<dim>1</dim>
				</port>
			</output>
		</layer>
		<layer id="98" name="Relu_36" type="ReLU" version="opset1">
			<input>
				<port id="0" precision="FP16">
					<dim>1</dim>
					<dim>24</dim>
					<dim>1</dim>
					<dim>1</dim>
				</port>
			</input>
			<output>
				<port id="1" names="435" precision="FP16">
					<dim>1</dim>
					<dim>24</dim>
					<dim>1</dim>
					<dim>1</dim>
				</port>
			</output>
		</layer>
		<layer id="99" name="backbone.features.4.block.2.fc2.weight" type="Const" version="opset1">
			<data element_type="f16" offset="27820" shape="72, 24, 1, 1" size="3456"/>
			<output>
				<port id="0" names="backbone.features.4.block.2.fc2.weight" precision="FP16">
					<dim>72</dim>
					<dim>24</dim>
					<dim>1</dim>
					<dim>1</dim>
				</port>
			</output>
		</layer>
		<layer id="100" name="Conv_37/WithoutBiases" type="Convolution" version="opset1">
			<data auto_pad="explicit" dilations="1, 1" pads_begin="0, 0" pads_end="0, 0" strides="1, 1"/>
			<input>
				<port id="0" precision="FP16">
					<dim>1</dim>
					<dim>24</dim>
					<dim>1</dim>
					<dim>1</dim>
				</port>
				<port id="1" precision="FP16">
					<dim>72</dim>
					<dim>24</dim>
					<dim>1</dim>
					<dim>1</dim>
				</port>
			</input>
			<output>
				<port id="2" precision="FP16">
					<dim>1</dim>
					<dim>72</dim>
					<dim>1</dim>
					<dim>1</dim>
				</port>
			</output>
		</layer>
		<layer id="101" name="Conv_37/Dims7495" type="Const" version="opset1">
			<data element_type="f16" offset="31276" shape="1, 72, 1, 1" size="144"/>
			<output>
				<port id="0" precision="FP16">
					<dim>1</dim>
					<dim>72</dim>
					<dim>1</dim>
					<dim>1</dim>
				</port>
			</output>
		</layer>
		<layer id="102" name="Conv_37" type="Add" version="opset1">
			<data auto_broadcast="numpy"/>
			<input>
				<port id="0" precision="FP16">
					<dim>1</dim>
					<dim>72</dim>
					<dim>1</dim>
					<dim>1</dim>
				</port>
				<port id="1" precision="FP16">
					<dim>1</dim>
					<dim>72</dim>
					<dim>1</dim>
					<dim>1</dim>
				</port>
			</input>
			<output>
				<port id="2" names="436" precision="FP16">
					<dim>1</dim>
					<dim>72</dim>
					<dim>1</dim>
					<dim>1</dim>
				</port>
			</output>
		</layer>
		<layer id="103" name="HardSigmoid_38/HardSigmoid__input_port_1/value" type="Const" version="opset1">
			<data element_type="f16" offset="978" shape="" size="2"/>
			<output>
				<port id="0" precision="FP16"/>
			</output>
		</layer>
		<layer id="104" name="HardSigmoid_38/HardSigmoid__input_port_2/value" type="Const" version="opset1">
			<data element_type="f16" offset="31420" shape="" size="2"/>
			<output>
				<port id="0" precision="FP16"/>
			</output>
		</layer>
		<layer id="105" name="HardSigmoid_38/HardSigmoid_" type="HardSigmoid" version="opset1">
			<input>
				<port id="0" precision="FP16">
					<dim>1</dim>
					<dim>72</dim>
					<dim>1</dim>
					<dim>1</dim>
				</port>
				<port id="1" precision="FP16"/>
				<port id="2" precision="FP16"/>
			</input>
			<output>
				<port id="3" names="437" precision="FP16">
					<dim>1</dim>
					<dim>72</dim>
					<dim>1</dim>
					<dim>1</dim>
				</port>
			</output>
		</layer>
		<layer id="106" name="Mul_39" type="Multiply" version="opset1">
			<data auto_broadcast="numpy"/>
			<input>
				<port id="0" precision="FP16">
					<dim>1</dim>
					<dim>72</dim>
					<dim>1</dim>
					<dim>1</dim>
				</port>
				<port id="1" precision="FP16">
					<dim>1</dim>
					<dim>72</dim>
					<dim>12</dim>
					<dim>20</dim>
				</port>
			</input>
			<output>
				<port id="2" names="438" precision="FP16">
					<dim>1</dim>
					<dim>72</dim>
					<dim>12</dim>
					<dim>20</dim>
				</port>
			</output>
		</layer>
		<layer id="107" name="977" type="Const" version="opset1">
			<data element_type="f16" offset="31422" shape="40, 72, 1, 1" size="5760"/>
			<output>
				<port id="0" names="977" precision="FP16">
					<dim>40</dim>
					<dim>72</dim>
					<dim>1</dim>
					<dim>1</dim>
				</port>
			</output>
		</layer>
		<layer id="108" name="Conv_40/WithoutBiases" type="Convolution" version="opset1">
			<data auto_pad="explicit" dilations="1, 1" pads_begin="0, 0" pads_end="0, 0" strides="1, 1"/>
			<input>
				<port id="0" precision="FP16">
					<dim>1</dim>
					<dim>72</dim>
					<dim>12</dim>
					<dim>20</dim>
				</port>
				<port id="1" precision="FP16">
					<dim>40</dim>
					<dim>72</dim>
					<dim>1</dim>
					<dim>1</dim>
				</port>
			</input>
			<output>
				<port id="2" precision="FP16">
					<dim>1</dim>
					<dim>40</dim>
					<dim>12</dim>
					<dim>20</dim>
				</port>
			</output>
		</layer>
		<layer id="109" name="Conv_40/Dims7447" type="Const" version="opset1">
			<data element_type="f16" offset="37182" shape="1, 40, 1, 1" size="80"/>
			<output>
				<port id="0" precision="FP16">
					<dim>1</dim>
					<dim>40</dim>
					<dim>1</dim>
					<dim>1</dim>
				</port>
			</output>
		</layer>
		<layer id="110" name="Conv_40" type="Add" version="opset1">
			<data auto_broadcast="numpy"/>
			<input>
				<port id="0" precision="FP16">
					<dim>1</dim>
					<dim>40</dim>
					<dim>12</dim>
					<dim>20</dim>
				</port>
				<port id="1" precision="FP16">
					<dim>1</dim>
					<dim>40</dim>
					<dim>1</dim>
					<dim>1</dim>
				</port>
			</input>
			<output>
				<port id="2" names="976" precision="FP16">
					<dim>1</dim>
					<dim>40</dim>
					<dim>12</dim>
					<dim>20</dim>
				</port>
			</output>
		</layer>
		<layer id="111" name="980" type="Const" version="opset1">
			<data element_type="f16" offset="37262" shape="120, 40, 1, 1" size="9600"/>
			<output>
				<port id="0" names="980" precision="FP16">
					<dim>120</dim>
					<dim>40</dim>
					<dim>1</dim>
					<dim>1</dim>
				</port>
			</output>
		</layer>
		<layer id="112" name="Conv_41/WithoutBiases" type="Convolution" version="opset1">
			<data auto_pad="explicit" dilations="1, 1" pads_begin="0, 0" pads_end="0, 0" strides="1, 1"/>
			<input>
				<port id="0" precision="FP16">
					<dim>1</dim>
					<dim>40</dim>
					<dim>12</dim>
					<dim>20</dim>
				</port>
				<port id="1" precision="FP16">
					<dim>120</dim>
					<dim>40</dim>
					<dim>1</dim>
					<dim>1</dim>
				</port>
			</input>
			<output>
				<port id="2" precision="FP16">
					<dim>1</dim>
					<dim>120</dim>
					<dim>12</dim>
					<dim>20</dim>
				</port>
			</output>
		</layer>
		<layer id="113" name="Conv_41/Dims7249" type="Const" version="opset1">
			<data element_type="f16" offset="46862" shape="1, 120, 1, 1" size="240"/>
			<output>
				<port id="0" precision="FP16">
					<dim>1</dim>
					<dim>120</dim>
					<dim>1</dim>
					<dim>1</dim>
				</port>
			</output>
		</layer>
		<layer id="114" name="Conv_41" type="Add" version="opset1">
			<data auto_broadcast="numpy"/>
			<input>
				<port id="0" precision="FP16">
					<dim>1</dim>
					<dim>120</dim>
					<dim>12</dim>
					<dim>20</dim>
				</port>
				<port id="1" precision="FP16">
					<dim>1</dim>
					<dim>120</dim>
					<dim>1</dim>
					<dim>1</dim>
				</port>
			</input>
			<output>
				<port id="2" names="979" precision="FP16">
					<dim>1</dim>
					<dim>120</dim>
					<dim>12</dim>
					<dim>20</dim>
				</port>
			</output>
		</layer>
		<layer id="115" name="Relu_42" type="ReLU" version="opset1">
			<input>
				<port id="0" precision="FP16">
					<dim>1</dim>
					<dim>120</dim>
					<dim>12</dim>
					<dim>20</dim>
				</port>
			</input>
			<output>
				<port id="1" names="443" precision="FP16">
					<dim>1</dim>
					<dim>120</dim>
					<dim>12</dim>
					<dim>20</dim>
				</port>
			</output>
		</layer>
		<layer id="116" name="983" type="Const" version="opset1">
			<data element_type="f16" offset="47102" shape="120, 1, 1, 5, 5" size="6000"/>
			<output>
				<port id="0" names="983" precision="FP16">
					<dim>120</dim>
					<dim>1</dim>
					<dim>1</dim>
					<dim>5</dim>
					<dim>5</dim>
				</port>
			</output>
		</layer>
		<layer id="117" name="Conv_43/WithoutBiases" type="GroupConvolution" version="opset1">
			<data auto_pad="explicit" dilations="1, 1" pads_begin="2, 2" pads_end="2, 2" strides="1, 1"/>
			<input>
				<port id="0" precision="FP16">
					<dim>1</dim>
					<dim>120</dim>
					<dim>12</dim>
					<dim>20</dim>
				</port>
				<port id="1" precision="FP16">
					<dim>120</dim>
					<dim>1</dim>
					<dim>1</dim>
					<dim>5</dim>
					<dim>5</dim>
				</port>
			</input>
			<output>
				<port id="2" precision="FP16">
					<dim>1</dim>
					<dim>120</dim>
					<dim>12</dim>
					<dim>20</dim>
				</port>
			</output>
		</layer>
		<layer id="118" name="Conv_43/Dims7291" type="Const" version="opset1">
			<data element_type="f16" offset="53102" shape="1, 120, 1, 1" size="240"/>
			<output>
				<port id="0" precision="FP16">
					<dim>1</dim>
					<dim>120</dim>
					<dim>1</dim>
					<dim>1</dim>
				</port>
			</output>
		</layer>
		<layer id="119" name="Conv_43" type="Add" version="opset1">
			<data auto_broadcast="numpy"/>
			<input>
				<port id="0" precision="FP16">
					<dim>1</dim>
					<dim>120</dim>
					<dim>12</dim>
					<dim>20</dim>
				</port>
				<port id="1" precision="FP16">
					<dim>1</dim>
					<dim>120</dim>
					<dim>1</dim>
					<dim>1</dim>
				</port>
			</input>
			<output>
				<port id="2" names="982" precision="FP16">
					<dim>1</dim>
					<dim>120</dim>
					<dim>12</dim>
					<dim>20</dim>
				</port>
			</output>
		</layer>
		<layer id="120" name="Relu_44" type="ReLU" version="opset1">
			<input>
				<port id="0" precision="FP16">
					<dim>1</dim>
					<dim>120</dim>
					<dim>12</dim>
					<dim>20</dim>
				</port>
			</input>
			<output>
				<port id="1" names="446" precision="FP16">
					<dim>1</dim>
					<dim>120</dim>
					<dim>12</dim>
					<dim>20</dim>
				</port>
			</output>
		</layer>
		<layer id="121" name="692" type="Const" version="opset1">
			<data element_type="i64" offset="20" shape="" size="8"/>
			<output>
				<port id="0" precision="I64"/>
			</output>
		</layer>
		<layer id="122" name="GlobalAveragePool_45/input_rank/shape_of" type="ShapeOf" version="opset3">
			<data output_type="i64"/>
			<input>
				<port id="0" precision="FP16">
					<dim>1</dim>
					<dim>120</dim>
					<dim>12</dim>
					<dim>20</dim>
				</port>
			</input>
			<output>
				<port id="1" precision="I64">
					<dim>4</dim>
				</port>
			</output>
		</layer>
		<layer id="123" name="GlobalAveragePool_45/input_rank/rank_of" type="ShapeOf" version="opset3">
			<data output_type="i64"/>
			<input>
				<port id="0" precision="I64">
					<dim>4</dim>
				</port>
			</input>
			<output>
				<port id="1" precision="I64">
					<dim>1</dim>
				</port>
			</output>
		</layer>
		<layer id="124" name="GlobalAveragePool_45/input_rank/0d_rank_of/value" type="Const" version="opset1">
			<data element_type="i64" offset="24308" shape="1" size="8"/>
			<output>
				<port id="0" precision="I64">
					<dim>1</dim>
				</port>
			</output>
		</layer>
		<layer id="125" name="GlobalAveragePool_45/input_rank" type="Squeeze" version="opset1">
			<input>
				<port id="0" precision="I64">
					<dim>1</dim>
				</port>
				<port id="1" precision="I64">
					<dim>1</dim>
				</port>
			</input>
			<output>
				<port id="2" precision="I64"/>
			</output>
		</layer>
		<layer id="126" name="694" type="Const" version="opset1">
			<data element_type="i64" offset="36" shape="" size="8"/>
			<output>
				<port id="0" precision="I64"/>
			</output>
		</layer>
		<layer id="127" name="GlobalAveragePool_45/global_pooling_reduce_axis" type="Range" version="opset4">
			<data output_type="i64"/>
			<input>
				<port id="0" precision="I64"/>
				<port id="1" precision="I64"/>
				<port id="2" precision="I64"/>
			</input>
			<output>
				<port id="3" precision="I64">
					<dim>2</dim>
				</port>
			</output>
		</layer>
		<layer id="128" name="GlobalAveragePool_45/reduce" type="ReduceMean" version="opset1">
			<data keep_dims="true"/>
			<input>
				<port id="0" precision="FP16">
					<dim>1</dim>
					<dim>120</dim>
					<dim>12</dim>
					<dim>20</dim>
				</port>
				<port id="1" precision="I64">
					<dim>2</dim>
				</port>
			</input>
			<output>
				<port id="2" names="447" precision="FP16">
					<dim>1</dim>
					<dim>120</dim>
					<dim>1</dim>
					<dim>1</dim>
				</port>
			</output>
		</layer>
		<layer id="129" name="backbone.features.5.block.2.fc1.weight" type="Const" version="opset1">
			<data element_type="f16" offset="53342" shape="32, 120, 1, 1" size="7680"/>
			<output>
				<port id="0" names="backbone.features.5.block.2.fc1.weight" precision="FP16">
					<dim>32</dim>
					<dim>120</dim>
					<dim>1</dim>
					<dim>1</dim>
				</port>
			</output>
		</layer>
		<layer id="130" name="Conv_46/WithoutBiases" type="Convolution" version="opset1">
			<data auto_pad="explicit" dilations="1, 1" pads_begin="0, 0" pads_end="0, 0" strides="1, 1"/>
			<input>
				<port id="0" precision="FP16">
					<dim>1</dim>
					<dim>120</dim>
					<dim>1</dim>
					<dim>1</dim>
				</port>
				<port id="1" precision="FP16">
					<dim>32</dim>
					<dim>120</dim>
					<dim>1</dim>
					<dim>1</dim>
				</port>
			</input>
			<output>
				<port id="2" precision="FP16">
					<dim>1</dim>
					<dim>32</dim>
					<dim>1</dim>
					<dim>1</dim>
				</port>
			</output>
		</layer>
		<layer id="131" name="Conv_46/Dims7357" type="Const" version="opset1">
			<data element_type="f16" offset="61022" shape="1, 32, 1, 1" size="64"/>
			<output>
				<port id="0" precision="FP16">
					<dim>1</dim>
					<dim>32</dim>
					<dim>1</dim>
					<dim>1</dim>
				</port>
			</output>
		</layer>
		<layer id="132" name="Conv_46" type="Add" version="opset1">
			<data auto_broadcast="numpy"/>
			<input>
				<port id="0" precision="FP16">
					<dim>1</dim>
					<dim>32</dim>
					<dim>1</dim>
					<dim>1</dim>
				</port>
				<port id="1" precision="FP16">
					<dim>1</dim>
					<dim>32</dim>
					<dim>1</dim>
					<dim>1</dim>
				</port>
			</input>
			<output>
				<port id="2" names="448" precision="FP16">
					<dim>1</dim>
					<dim>32</dim>
					<dim>1</dim>
					<dim>1</dim>
				</port>
			</output>
		</layer>
		<layer id="133" name="Relu_47" type="ReLU" version="opset1">
			<input>
				<port id="0" precision="FP16">
					<dim>1</dim>
					<dim>32</dim>
					<dim>1</dim>
					<dim>1</dim>
				</port>
			</input>
			<output>
				<port id="1" names="449" precision="FP16">
					<dim>1</dim>
					<dim>32</dim>
					<dim>1</dim>
					<dim>1</dim>
				</port>
			</output>
		</layer>
		<layer id="134" name="backbone.features.5.block.2.fc2.weight" type="Const" version="opset1">
			<data element_type="f16" offset="61086" shape="120, 32, 1, 1" size="7680"/>
			<output>
				<port id="0" names="backbone.features.5.block.2.fc2.weight" precision="FP16">
					<dim>120</dim>
					<dim>32</dim>
					<dim>1</dim>
					<dim>1</dim>
				</port>
			</output>
		</layer>
		<layer id="135" name="Conv_48/WithoutBiases" type="Convolution" version="opset1">
			<data auto_pad="explicit" dilations="1, 1" pads_begin="0, 0" pads_end="0, 0" strides="1, 1"/>
			<input>
				<port id="0" precision="FP16">
					<dim>1</dim>
					<dim>32</dim>
					<dim>1</dim>
					<dim>1</dim>
				</port>
				<port id="1" precision="FP16">
					<dim>120</dim>
					<dim>32</dim>
					<dim>1</dim>
					<dim>1</dim>
				</port>
			</input>
			<output>
				<port id="2" precision="FP16">
					<dim>1</dim>
					<dim>120</dim>
					<dim>1</dim>
					<dim>1</dim>
				</port>
			</output>
		</layer>
		<layer id="136" name="Conv_48/Dims7483" type="Const" version="opset1">
			<data element_type="f16" offset="68766" shape="1, 120, 1, 1" size="240"/>
			<output>
				<port id="0" precision="FP16">
					<dim>1</dim>
					<dim>120</dim>
					<dim>1</dim>
					<dim>1</dim>
				</port>
			</output>
		</layer>
		<layer id="137" name="Conv_48" type="Add" version="opset1">
			<data auto_broadcast="numpy"/>
			<input>
				<port id="0" precision="FP16">
					<dim>1</dim>
					<dim>120</dim>
					<dim>1</dim>
					<dim>1</dim>
				</port>
				<port id="1" precision="FP16">
					<dim>1</dim>
					<dim>120</dim>
					<dim>1</dim>
					<dim>1</dim>
				</port>
			</input>
			<output>
				<port id="2" names="450" precision="FP16">
					<dim>1</dim>
					<dim>120</dim>
					<dim>1</dim>
					<dim>1</dim>
				</port>
			</output>
		</layer>
		<layer id="138" name="HardSigmoid_49/HardSigmoid__input_port_1/value" type="Const" version="opset1">
			<data element_type="f16" offset="978" shape="" size="2"/>
			<output>
				<port id="0" precision="FP16"/>
			</output>
		</layer>
		<layer id="139" name="HardSigmoid_49/HardSigmoid__input_port_2/value" type="Const" version="opset1">
			<data element_type="f16" offset="31420" shape="" size="2"/>
			<output>
				<port id="0" precision="FP16"/>
			</output>
		</layer>
		<layer id="140" name="HardSigmoid_49/HardSigmoid_" type="HardSigmoid" version="opset1">
			<input>
				<port id="0" precision="FP16">
					<dim>1</dim>
					<dim>120</dim>
					<dim>1</dim>
					<dim>1</dim>
				</port>
				<port id="1" precision="FP16"/>
				<port id="2" precision="FP16"/>
			</input>
			<output>
				<port id="3" names="451" precision="FP16">
					<dim>1</dim>
					<dim>120</dim>
					<dim>1</dim>
					<dim>1</dim>
				</port>
			</output>
		</layer>
		<layer id="141" name="Mul_50" type="Multiply" version="opset1">
			<data auto_broadcast="numpy"/>
			<input>
				<port id="0" precision="FP16">
					<dim>1</dim>
					<dim>120</dim>
					<dim>1</dim>
					<dim>1</dim>
				</port>
				<port id="1" precision="FP16">
					<dim>1</dim>
					<dim>120</dim>
					<dim>12</dim>
					<dim>20</dim>
				</port>
			</input>
			<output>
				<port id="2" names="452" precision="FP16">
					<dim>1</dim>
					<dim>120</dim>
					<dim>12</dim>
					<dim>20</dim>
				</port>
			</output>
		</layer>
		<layer id="142" name="986" type="Const" version="opset1">
			<data element_type="f16" offset="69006" shape="40, 120, 1, 1" size="9600"/>
			<output>
				<port id="0" names="986" precision="FP16">
					<dim>40</dim>
					<dim>120</dim>
					<dim>1</dim>
					<dim>1</dim>
				</port>
			</output>
		</layer>
		<layer id="143" name="Conv_51/WithoutBiases" type="Convolution" version="opset1">
			<data auto_pad="explicit" dilations="1, 1" pads_begin="0, 0" pads_end="0, 0" strides="1, 1"/>
			<input>
				<port id="0" precision="FP16">
					<dim>1</dim>
					<dim>120</dim>
					<dim>12</dim>
					<dim>20</dim>
				</port>
				<port id="1" precision="FP16">
					<dim>40</dim>
					<dim>120</dim>
					<dim>1</dim>
					<dim>1</dim>
				</port>
			</input>
			<output>
				<port id="2" precision="FP16">
					<dim>1</dim>
					<dim>40</dim>
					<dim>12</dim>
					<dim>20</dim>
				</port>
			</output>
		</layer>
		<layer id="144" name="Conv_51/Dims7381" type="Const" version="opset1">
			<data element_type="f16" offset="78606" shape="1, 40, 1, 1" size="80"/>
			<output>
				<port id="0" precision="FP16">
					<dim>1</dim>
					<dim>40</dim>
					<dim>1</dim>
					<dim>1</dim>
				</port>
			</output>
		</layer>
		<layer id="145" name="Conv_51" type="Add" version="opset1">
			<data auto_broadcast="numpy"/>
			<input>
				<port id="0" precision="FP16">
					<dim>1</dim>
					<dim>40</dim>
					<dim>12</dim>
					<dim>20</dim>
				</port>
				<port id="1" precision="FP16">
					<dim>1</dim>
					<dim>40</dim>
					<dim>1</dim>
					<dim>1</dim>
				</port>
			</input>
			<output>
				<port id="2" names="985" precision="FP16">
					<dim>1</dim>
					<dim>40</dim>
					<dim>12</dim>
					<dim>20</dim>
				</port>
			</output>
		</layer>
		<layer id="146" name="Add_52" type="Add" version="opset1">
			<data auto_broadcast="numpy"/>
			<input>
				<port id="0" precision="FP16">
					<dim>1</dim>
					<dim>40</dim>
					<dim>12</dim>
					<dim>20</dim>
				</port>
				<port id="1" precision="FP16">
					<dim>1</dim>
					<dim>40</dim>
					<dim>12</dim>
					<dim>20</dim>
				</port>
			</input>
			<output>
				<port id="2" names="455" precision="FP16">
					<dim>1</dim>
					<dim>40</dim>
					<dim>12</dim>
					<dim>20</dim>
				</port>
			</output>
		</layer>
		<layer id="147" name="989" type="Const" version="opset1">
			<data element_type="f16" offset="78686" shape="120, 40, 1, 1" size="9600"/>
			<output>
				<port id="0" names="989" precision="FP16">
					<dim>120</dim>
					<dim>40</dim>
					<dim>1</dim>
					<dim>1</dim>
				</port>
			</output>
		</layer>
		<layer id="148" name="Conv_53/WithoutBiases" type="Convolution" version="opset1">
			<data auto_pad="explicit" dilations="1, 1" pads_begin="0, 0" pads_end="0, 0" strides="1, 1"/>
			<input>
				<port id="0" precision="FP16">
					<dim>1</dim>
					<dim>40</dim>
					<dim>12</dim>
					<dim>20</dim>
				</port>
				<port id="1" precision="FP16">
					<dim>120</dim>
					<dim>40</dim>
					<dim>1</dim>
					<dim>1</dim>
				</port>
			</input>
			<output>
				<port id="2" precision="FP16">
					<dim>1</dim>
					<dim>120</dim>
					<dim>12</dim>
					<dim>20</dim>
				</port>
			</output>
		</layer>
		<layer id="149" name="Conv_53/Dims7489" type="Const" version="opset1">
			<data element_type="f16" offset="88286" shape="1, 120, 1, 1" size="240"/>
			<output>
				<port id="0" precision="FP16">
					<dim>1</dim>
					<dim>120</dim>
					<dim>1</dim>
					<dim>1</dim>
				</port>
			</output>
		</layer>
		<layer id="150" name="Conv_53" type="Add" version="opset1">
			<data auto_broadcast="numpy"/>
			<input>
				<port id="0" precision="FP16">
					<dim>1</dim>
					<dim>120</dim>
					<dim>12</dim>
					<dim>20</dim>
				</port>
				<port id="1" precision="FP16">
					<dim>1</dim>
					<dim>120</dim>
					<dim>1</dim>
					<dim>1</dim>
				</port>
			</input>
			<output>
				<port id="2" names="988" precision="FP16">
					<dim>1</dim>
					<dim>120</dim>
					<dim>12</dim>
					<dim>20</dim>
				</port>
			</output>
		</layer>
		<layer id="151" name="Relu_54" type="ReLU" version="opset1">
			<input>
				<port id="0" precision="FP16">
					<dim>1</dim>
					<dim>120</dim>
					<dim>12</dim>
					<dim>20</dim>
				</port>
			</input>
			<output>
				<port id="1" names="458" precision="FP16">
					<dim>1</dim>
					<dim>120</dim>
					<dim>12</dim>
					<dim>20</dim>
				</port>
			</output>
		</layer>
		<layer id="152" name="992" type="Const" version="opset1">
			<data element_type="f16" offset="88526" shape="120, 1, 1, 5, 5" size="6000"/>
			<output>
				<port id="0" names="992" precision="FP16">
					<dim>120</dim>
					<dim>1</dim>
					<dim>1</dim>
					<dim>5</dim>
					<dim>5</dim>
				</port>
			</output>
		</layer>
		<layer id="153" name="Conv_55/WithoutBiases" type="GroupConvolution" version="opset1">
			<data auto_pad="explicit" dilations="1, 1" pads_begin="2, 2" pads_end="2, 2" strides="1, 1"/>
			<input>
				<port id="0" precision="FP16">
					<dim>1</dim>
					<dim>120</dim>
					<dim>12</dim>
					<dim>20</dim>
				</port>
				<port id="1" precision="FP16">
					<dim>120</dim>
					<dim>1</dim>
					<dim>1</dim>
					<dim>5</dim>
					<dim>5</dim>
				</port>
			</input>
			<output>
				<port id="2" precision="FP16">
					<dim>1</dim>
					<dim>120</dim>
					<dim>12</dim>
					<dim>20</dim>
				</port>
			</output>
		</layer>
		<layer id="154" name="Conv_55/Dims7057" type="Const" version="opset1">
			<data element_type="f16" offset="94526" shape="1, 120, 1, 1" size="240"/>
			<output>
				<port id="0" precision="FP16">
					<dim>1</dim>
					<dim>120</dim>
					<dim>1</dim>
					<dim>1</dim>
				</port>
			</output>
		</layer>
		<layer id="155" name="Conv_55" type="Add" version="opset1">
			<data auto_broadcast="numpy"/>
			<input>
				<port id="0" precision="FP16">
					<dim>1</dim>
					<dim>120</dim>
					<dim>12</dim>
					<dim>20</dim>
				</port>
				<port id="1" precision="FP16">
					<dim>1</dim>
					<dim>120</dim>
					<dim>1</dim>
					<dim>1</dim>
				</port>
			</input>
			<output>
				<port id="2" names="991" precision="FP16">
					<dim>1</dim>
					<dim>120</dim>
					<dim>12</dim>
					<dim>20</dim>
				</port>
			</output>
		</layer>
		<layer id="156" name="Relu_56" type="ReLU" version="opset1">
			<input>
				<port id="0" precision="FP16">
					<dim>1</dim>
					<dim>120</dim>
					<dim>12</dim>
					<dim>20</dim>
				</port>
			</input>
			<output>
				<port id="1" names="461" precision="FP16">
					<dim>1</dim>
					<dim>120</dim>
					<dim>12</dim>
					<dim>20</dim>
				</port>
			</output>
		</layer>
		<layer id="157" name="697" type="Const" version="opset1">
			<data element_type="i64" offset="20" shape="" size="8"/>
			<output>
				<port id="0" precision="I64"/>
			</output>
		</layer>
		<layer id="158" name="GlobalAveragePool_57/input_rank/shape_of" type="ShapeOf" version="opset3">
			<data output_type="i64"/>
			<input>
				<port id="0" precision="FP16">
					<dim>1</dim>
					<dim>120</dim>
					<dim>12</dim>
					<dim>20</dim>
				</port>
			</input>
			<output>
				<port id="1" precision="I64">
					<dim>4</dim>
				</port>
			</output>
		</layer>
		<layer id="159" name="GlobalAveragePool_57/input_rank/rank_of" type="ShapeOf" version="opset3">
			<data output_type="i64"/>
			<input>
				<port id="0" precision="I64">
					<dim>4</dim>
				</port>
			</input>
			<output>
				<port id="1" precision="I64">
					<dim>1</dim>
				</port>
			</output>
		</layer>
		<layer id="160" name="GlobalAveragePool_57/input_rank/0d_rank_of/value" type="Const" version="opset1">
			<data element_type="i64" offset="24308" shape="1" size="8"/>
			<output>
				<port id="0" precision="I64">
					<dim>1</dim>
				</port>
			</output>
		</layer>
		<layer id="161" name="GlobalAveragePool_57/input_rank" type="Squeeze" version="opset1">
			<input>
				<port id="0" precision="I64">
					<dim>1</dim>
				</port>
				<port id="1" precision="I64">
					<dim>1</dim>
				</port>
			</input>
			<output>
				<port id="2" precision="I64"/>
			</output>
		</layer>
		<layer id="162" name="699" type="Const" version="opset1">
			<data element_type="i64" offset="36" shape="" size="8"/>
			<output>
				<port id="0" precision="I64"/>
			</output>
		</layer>
		<layer id="163" name="GlobalAveragePool_57/global_pooling_reduce_axis" type="Range" version="opset4">
			<data output_type="i64"/>
			<input>
				<port id="0" precision="I64"/>
				<port id="1" precision="I64"/>
				<port id="2" precision="I64"/>
			</input>
			<output>
				<port id="3" precision="I64">
					<dim>2</dim>
				</port>
			</output>
		</layer>
		<layer id="164" name="GlobalAveragePool_57/reduce" type="ReduceMean" version="opset1">
			<data keep_dims="true"/>
			<input>
				<port id="0" precision="FP16">
					<dim>1</dim>
					<dim>120</dim>
					<dim>12</dim>
					<dim>20</dim>
				</port>
				<port id="1" precision="I64">
					<dim>2</dim>
				</port>
			</input>
			<output>
				<port id="2" names="462" precision="FP16">
					<dim>1</dim>
					<dim>120</dim>
					<dim>1</dim>
					<dim>1</dim>
				</port>
			</output>
		</layer>
		<layer id="165" name="backbone.features.6.block.2.fc1.weight" type="Const" version="opset1">
			<data element_type="f16" offset="94766" shape="32, 120, 1, 1" size="7680"/>
			<output>
				<port id="0" names="backbone.features.6.block.2.fc1.weight" precision="FP16">
					<dim>32</dim>
					<dim>120</dim>
					<dim>1</dim>
					<dim>1</dim>
				</port>
			</output>
		</layer>
		<layer id="166" name="Conv_58/WithoutBiases" type="Convolution" version="opset1">
			<data auto_pad="explicit" dilations="1, 1" pads_begin="0, 0" pads_end="0, 0" strides="1, 1"/>
			<input>
				<port id="0" precision="FP16">
					<dim>1</dim>
					<dim>120</dim>
					<dim>1</dim>
					<dim>1</dim>
				</port>
				<port id="1" precision="FP16">
					<dim>32</dim>
					<dim>120</dim>
					<dim>1</dim>
					<dim>1</dim>
				</port>
			</input>
			<output>
				<port id="2" precision="FP16">
					<dim>1</dim>
					<dim>32</dim>
					<dim>1</dim>
					<dim>1</dim>
				</port>
			</output>
		</layer>
		<layer id="167" name="Conv_58/Dims7441" type="Const" version="opset1">
			<data element_type="f16" offset="102446" shape="1, 32, 1, 1" size="64"/>
			<output>
				<port id="0" precision="FP16">
					<dim>1</dim>
					<dim>32</dim>
					<dim>1</dim>
					<dim>1</dim>
				</port>
			</output>
		</layer>
		<layer id="168" name="Conv_58" type="Add" version="opset1">
			<data auto_broadcast="numpy"/>
			<input>
				<port id="0" precision="FP16">
					<dim>1</dim>
					<dim>32</dim>
					<dim>1</dim>
					<dim>1</dim>
				</port>
				<port id="1" precision="FP16">
					<dim>1</dim>
					<dim>32</dim>
					<dim>1</dim>
					<dim>1</dim>
				</port>
			</input>
			<output>
				<port id="2" names="463" precision="FP16">
					<dim>1</dim>
					<dim>32</dim>
					<dim>1</dim>
					<dim>1</dim>
				</port>
			</output>
		</layer>
		<layer id="169" name="Relu_59" type="ReLU" version="opset1">
			<input>
				<port id="0" precision="FP16">
					<dim>1</dim>
					<dim>32</dim>
					<dim>1</dim>
					<dim>1</dim>
				</port>
			</input>
			<output>
				<port id="1" names="464" precision="FP16">
					<dim>1</dim>
					<dim>32</dim>
					<dim>1</dim>
					<dim>1</dim>
				</port>
			</output>
		</layer>
		<layer id="170" name="backbone.features.6.block.2.fc2.weight" type="Const" version="opset1">
			<data element_type="f16" offset="102510" shape="120, 32, 1, 1" size="7680"/>
			<output>
				<port id="0" names="backbone.features.6.block.2.fc2.weight" precision="FP16">
					<dim>120</dim>
					<dim>32</dim>
					<dim>1</dim>
					<dim>1</dim>
				</port>
			</output>
		</layer>
		<layer id="171" name="Conv_60/WithoutBiases" type="Convolution" version="opset1">
			<data auto_pad="explicit" dilations="1, 1" pads_begin="0, 0" pads_end="0, 0" strides="1, 1"/>
			<input>
				<port id="0" precision="FP16">
					<dim>1</dim>
					<dim>32</dim>
					<dim>1</dim>
					<dim>1</dim>
				</port>
				<port id="1" precision="FP16">
					<dim>120</dim>
					<dim>32</dim>
					<dim>1</dim>
					<dim>1</dim>
				</port>
			</input>
			<output>
				<port id="2" precision="FP16">
					<dim>1</dim>
					<dim>120</dim>
					<dim>1</dim>
					<dim>1</dim>
				</port>
			</output>
		</layer>
		<layer id="172" name="Conv_60/Dims7045" type="Const" version="opset1">
			<data element_type="f16" offset="110190" shape="1, 120, 1, 1" size="240"/>
			<output>
				<port id="0" precision="FP16">
					<dim>1</dim>
					<dim>120</dim>
					<dim>1</dim>
					<dim>1</dim>
				</port>
			</output>
		</layer>
		<layer id="173" name="Conv_60" type="Add" version="opset1">
			<data auto_broadcast="numpy"/>
			<input>
				<port id="0" precision="FP16">
					<dim>1</dim>
					<dim>120</dim>
					<dim>1</dim>
					<dim>1</dim>
				</port>
				<port id="1" precision="FP16">
					<dim>1</dim>
					<dim>120</dim>
					<dim>1</dim>
					<dim>1</dim>
				</port>
			</input>
			<output>
				<port id="2" names="465" precision="FP16">
					<dim>1</dim>
					<dim>120</dim>
					<dim>1</dim>
					<dim>1</dim>
				</port>
			</output>
		</layer>
		<layer id="174" name="HardSigmoid_61/HardSigmoid__input_port_1/value" type="Const" version="opset1">
			<data element_type="f16" offset="978" shape="" size="2"/>
			<output>
				<port id="0" precision="FP16"/>
			</output>
		</layer>
		<layer id="175" name="HardSigmoid_61/HardSigmoid__input_port_2/value" type="Const" version="opset1">
			<data element_type="f16" offset="31420" shape="" size="2"/>
			<output>
				<port id="0" precision="FP16"/>
			</output>
		</layer>
		<layer id="176" name="HardSigmoid_61/HardSigmoid_" type="HardSigmoid" version="opset1">
			<input>
				<port id="0" precision="FP16">
					<dim>1</dim>
					<dim>120</dim>
					<dim>1</dim>
					<dim>1</dim>
				</port>
				<port id="1" precision="FP16"/>
				<port id="2" precision="FP16"/>
			</input>
			<output>
				<port id="3" names="466" precision="FP16">
					<dim>1</dim>
					<dim>120</dim>
					<dim>1</dim>
					<dim>1</dim>
				</port>
			</output>
		</layer>
		<layer id="177" name="Mul_62" type="Multiply" version="opset1">
			<data auto_broadcast="numpy"/>
			<input>
				<port id="0" precision="FP16">
					<dim>1</dim>
					<dim>120</dim>
					<dim>1</dim>
					<dim>1</dim>
				</port>
				<port id="1" precision="FP16">
					<dim>1</dim>
					<dim>120</dim>
					<dim>12</dim>
					<dim>20</dim>
				</port>
			</input>
			<output>
				<port id="2" names="467" precision="FP16">
					<dim>1</dim>
					<dim>120</dim>
					<dim>12</dim>
					<dim>20</dim>
				</port>
			</output>
		</layer>
		<layer id="178" name="995" type="Const" version="opset1">
			<data element_type="f16" offset="110430" shape="40, 120, 1, 1" size="9600"/>
			<output>
				<port id="0" names="995" precision="FP16">
					<dim>40</dim>
					<dim>120</dim>
					<dim>1</dim>
					<dim>1</dim>
				</port>
			</output>
		</layer>
		<layer id="179" name="Conv_63/WithoutBiases" type="Convolution" version="opset1">
			<data auto_pad="explicit" dilations="1, 1" pads_begin="0, 0" pads_end="0, 0" strides="1, 1"/>
			<input>
				<port id="0" precision="FP16">
					<dim>1</dim>
					<dim>120</dim>
					<dim>12</dim>
					<dim>20</dim>
				</port>
				<port id="1" precision="FP16">
					<dim>40</dim>
					<dim>120</dim>
					<dim>1</dim>
					<dim>1</dim>
				</port>
			</input>
			<output>
				<port id="2" precision="FP16">
					<dim>1</dim>
					<dim>40</dim>
					<dim>12</dim>
					<dim>20</dim>
				</port>
			</output>
		</layer>
		<layer id="180" name="Conv_63/Dims7201" type="Const" version="opset1">
			<data element_type="f16" offset="120030" shape="1, 40, 1, 1" size="80"/>
			<output>
				<port id="0" precision="FP16">
					<dim>1</dim>
					<dim>40</dim>
					<dim>1</dim>
					<dim>1</dim>
				</port>
			</output>
		</layer>
		<layer id="181" name="Conv_63" type="Add" version="opset1">
			<data auto_broadcast="numpy"/>
			<input>
				<port id="0" precision="FP16">
					<dim>1</dim>
					<dim>40</dim>
					<dim>12</dim>
					<dim>20</dim>
				</port>
				<port id="1" precision="FP16">
					<dim>1</dim>
					<dim>40</dim>
					<dim>1</dim>
					<dim>1</dim>
				</port>
			</input>
			<output>
				<port id="2" names="994" precision="FP16">
					<dim>1</dim>
					<dim>40</dim>
					<dim>12</dim>
					<dim>20</dim>
				</port>
			</output>
		</layer>
		<layer id="182" name="Add_64" type="Add" version="opset1">
			<data auto_broadcast="numpy"/>
			<input>
				<port id="0" precision="FP16">
					<dim>1</dim>
					<dim>40</dim>
					<dim>12</dim>
					<dim>20</dim>
				</port>
				<port id="1" precision="FP16">
					<dim>1</dim>
					<dim>40</dim>
					<dim>12</dim>
					<dim>20</dim>
				</port>
			</input>
			<output>
				<port id="2" names="470" precision="FP16">
					<dim>1</dim>
					<dim>40</dim>
					<dim>12</dim>
					<dim>20</dim>
				</port>
			</output>
		</layer>
		<layer id="183" name="998" type="Const" version="opset1">
			<data element_type="f16" offset="120110" shape="240, 40, 1, 1" size="19200"/>
			<output>
				<port id="0" names="998" precision="FP16">
					<dim>240</dim>
					<dim>40</dim>
					<dim>1</dim>
					<dim>1</dim>
				</port>
			</output>
		</layer>
		<layer id="184" name="Conv_65/WithoutBiases" type="Convolution" version="opset1">
			<data auto_pad="explicit" dilations="1, 1" pads_begin="0, 0" pads_end="0, 0" strides="1, 1"/>
			<input>
				<port id="0" precision="FP16">
					<dim>1</dim>
					<dim>40</dim>
					<dim>12</dim>
					<dim>20</dim>
				</port>
				<port id="1" precision="FP16">
					<dim>240</dim>
					<dim>40</dim>
					<dim>1</dim>
					<dim>1</dim>
				</port>
			</input>
			<output>
				<port id="2" precision="FP16">
					<dim>1</dim>
					<dim>240</dim>
					<dim>12</dim>
					<dim>20</dim>
				</port>
			</output>
		</layer>
		<layer id="185" name="Conv_65/Dims7207" type="Const" version="opset1">
			<data element_type="f16" offset="139310" shape="1, 240, 1, 1" size="480"/>
			<output>
				<port id="0" precision="FP16">
					<dim>1</dim>
					<dim>240</dim>
					<dim>1</dim>
					<dim>1</dim>
				</port>
			</output>
		</layer>
		<layer id="186" name="Conv_65" type="Add" version="opset1">
			<data auto_broadcast="numpy"/>
			<input>
				<port id="0" precision="FP16">
					<dim>1</dim>
					<dim>240</dim>
					<dim>12</dim>
					<dim>20</dim>
				</port>
				<port id="1" precision="FP16">
					<dim>1</dim>
					<dim>240</dim>
					<dim>1</dim>
					<dim>1</dim>
				</port>
			</input>
			<output>
				<port id="2" names="997" precision="FP16">
					<dim>1</dim>
					<dim>240</dim>
					<dim>12</dim>
					<dim>20</dim>
				</port>
			</output>
		</layer>
		<layer id="187" name="Constant_66" type="Const" version="opset1">
			<data element_type="f16" offset="976" shape="1, 1, 1, 1" size="2"/>
			<output>
				<port id="0" names="473" precision="FP16">
					<dim>1</dim>
					<dim>1</dim>
					<dim>1</dim>
					<dim>1</dim>
				</port>
			</output>
		</layer>
		<layer id="188" name="Add_67" type="Add" version="opset1">
			<data auto_broadcast="numpy"/>
			<input>
				<port id="0" precision="FP16">
					<dim>1</dim>
					<dim>240</dim>
					<dim>12</dim>
					<dim>20</dim>
				</port>
				<port id="1" precision="FP16">
					<dim>1</dim>
					<dim>1</dim>
					<dim>1</dim>
					<dim>1</dim>
				</port>
			</input>
			<output>
				<port id="2" names="474" precision="FP16">
					<dim>1</dim>
					<dim>240</dim>
					<dim>12</dim>
					<dim>20</dim>
				</port>
			</output>
		</layer>
		<layer id="189" name="Clip_70" type="Clamp" version="opset1">
			<data max="6" min="0"/>
			<input>
				<port id="0" precision="FP16">
					<dim>1</dim>
					<dim>240</dim>
					<dim>12</dim>
					<dim>20</dim>
				</port>
			</input>
			<output>
				<port id="1" names="477" precision="FP16">
					<dim>1</dim>
					<dim>240</dim>
					<dim>12</dim>
					<dim>20</dim>
				</port>
			</output>
		</layer>
		<layer id="190" name="Constant_71" type="Const" version="opset1">
			<data element_type="f16" offset="978" shape="1, 1, 1, 1" size="2"/>
			<output>
				<port id="0" names="478" precision="FP16">
					<dim>1</dim>
					<dim>1</dim>
					<dim>1</dim>
					<dim>1</dim>
				</port>
			</output>
		</layer>
		<layer id="191" name="Div_72" type="Multiply" version="opset1">
			<data auto_broadcast="numpy"/>
			<input>
				<port id="0" precision="FP16">
					<dim>1</dim>
					<dim>240</dim>
					<dim>12</dim>
					<dim>20</dim>
				</port>
				<port id="1" precision="FP16">
					<dim>1</dim>
					<dim>1</dim>
					<dim>1</dim>
					<dim>1</dim>
				</port>
			</input>
			<output>
				<port id="2" names="479" precision="FP16">
					<dim>1</dim>
					<dim>240</dim>
					<dim>12</dim>
					<dim>20</dim>
				</port>
			</output>
		</layer>
		<layer id="192" name="Mul_73" type="Multiply" version="opset1">
			<data auto_broadcast="numpy"/>
			<input>
				<port id="0" precision="FP16">
					<dim>1</dim>
					<dim>240</dim>
					<dim>12</dim>
					<dim>20</dim>
				</port>
				<port id="1" precision="FP16">
					<dim>1</dim>
					<dim>240</dim>
					<dim>12</dim>
					<dim>20</dim>
				</port>
			</input>
			<output>
				<port id="2" names="480" precision="FP16">
					<dim>1</dim>
					<dim>240</dim>
					<dim>12</dim>
					<dim>20</dim>
				</port>
			</output>
		</layer>
		<layer id="193" name="1001" type="Const" version="opset1">
			<data element_type="f16" offset="139790" shape="240, 1, 1, 3, 3" size="4320"/>
			<output>
				<port id="0" names="1001" precision="FP16">
					<dim>240</dim>
					<dim>1</dim>
					<dim>1</dim>
					<dim>3</dim>
					<dim>3</dim>
				</port>
			</output>
		</layer>
		<layer id="194" name="Conv_74/WithoutBiases" type="GroupConvolution" version="opset1">
			<data auto_pad="explicit" dilations="1, 1" pads_begin="1, 1" pads_end="1, 1" strides="2, 2"/>
			<input>
				<port id="0" precision="FP16">
					<dim>1</dim>
					<dim>240</dim>
					<dim>12</dim>
					<dim>20</dim>
				</port>
				<port id="1" precision="FP16">
					<dim>240</dim>
					<dim>1</dim>
					<dim>1</dim>
					<dim>3</dim>
					<dim>3</dim>
				</port>
			</input>
			<output>
				<port id="2" precision="FP16">
					<dim>1</dim>
					<dim>240</dim>
					<dim>6</dim>
					<dim>10</dim>
				</port>
			</output>
		</layer>
		<layer id="195" name="Conv_74/Dims7081" type="Const" version="opset1">
			<data element_type="f16" offset="144110" shape="1, 240, 1, 1" size="480"/>
			<output>
				<port id="0" precision="FP16">
					<dim>1</dim>
					<dim>240</dim>
					<dim>1</dim>
					<dim>1</dim>
				</port>
			</output>
		</layer>
		<layer id="196" name="Conv_74" type="Add" version="opset1">
			<data auto_broadcast="numpy"/>
			<input>
				<port id="0" precision="FP16">
					<dim>1</dim>
					<dim>240</dim>
					<dim>6</dim>
					<dim>10</dim>
				</port>
				<port id="1" precision="FP16">
					<dim>1</dim>
					<dim>240</dim>
					<dim>1</dim>
					<dim>1</dim>
				</port>
			</input>
			<output>
				<port id="2" names="1000" precision="FP16">
					<dim>1</dim>
					<dim>240</dim>
					<dim>6</dim>
					<dim>10</dim>
				</port>
			</output>
		</layer>
		<layer id="197" name="Constant_75" type="Const" version="opset1">
			<data element_type="f16" offset="976" shape="1, 1, 1, 1" size="2"/>
			<output>
				<port id="0" names="483" precision="FP16">
					<dim>1</dim>
					<dim>1</dim>
					<dim>1</dim>
					<dim>1</dim>
				</port>
			</output>
		</layer>
		<layer id="198" name="Add_76" type="Add" version="opset1">
			<data auto_broadcast="numpy"/>
			<input>
				<port id="0" precision="FP16">
					<dim>1</dim>
					<dim>240</dim>
					<dim>6</dim>
					<dim>10</dim>
				</port>
				<port id="1" precision="FP16">
					<dim>1</dim>
					<dim>1</dim>
					<dim>1</dim>
					<dim>1</dim>
				</port>
			</input>
			<output>
				<port id="2" names="484" precision="FP16">
					<dim>1</dim>
					<dim>240</dim>
					<dim>6</dim>
					<dim>10</dim>
				</port>
			</output>
		</layer>
		<layer id="199" name="Clip_79" type="Clamp" version="opset1">
			<data max="6" min="0"/>
			<input>
				<port id="0" precision="FP16">
					<dim>1</dim>
					<dim>240</dim>
					<dim>6</dim>
					<dim>10</dim>
				</port>
			</input>
			<output>
				<port id="1" names="487" precision="FP16">
					<dim>1</dim>
					<dim>240</dim>
					<dim>6</dim>
					<dim>10</dim>
				</port>
			</output>
		</layer>
		<layer id="200" name="Constant_80" type="Const" version="opset1">
			<data element_type="f16" offset="978" shape="1, 1, 1, 1" size="2"/>
			<output>
				<port id="0" names="488" precision="FP16">
					<dim>1</dim>
					<dim>1</dim>
					<dim>1</dim>
					<dim>1</dim>
				</port>
			</output>
		</layer>
		<layer id="201" name="Div_81" type="Multiply" version="opset1">
			<data auto_broadcast="numpy"/>
			<input>
				<port id="0" precision="FP16">
					<dim>1</dim>
					<dim>240</dim>
					<dim>6</dim>
					<dim>10</dim>
				</port>
				<port id="1" precision="FP16">
					<dim>1</dim>
					<dim>1</dim>
					<dim>1</dim>
					<dim>1</dim>
				</port>
			</input>
			<output>
				<port id="2" names="489" precision="FP16">
					<dim>1</dim>
					<dim>240</dim>
					<dim>6</dim>
					<dim>10</dim>
				</port>
			</output>
		</layer>
		<layer id="202" name="Mul_82" type="Multiply" version="opset1">
			<data auto_broadcast="numpy"/>
			<input>
				<port id="0" precision="FP16">
					<dim>1</dim>
					<dim>240</dim>
					<dim>6</dim>
					<dim>10</dim>
				</port>
				<port id="1" precision="FP16">
					<dim>1</dim>
					<dim>240</dim>
					<dim>6</dim>
					<dim>10</dim>
				</port>
			</input>
			<output>
				<port id="2" names="490" precision="FP16">
					<dim>1</dim>
					<dim>240</dim>
					<dim>6</dim>
					<dim>10</dim>
				</port>
			</output>
		</layer>
		<layer id="203" name="1004" type="Const" version="opset1">
			<data element_type="f16" offset="144590" shape="80, 240, 1, 1" size="38400"/>
			<output>
				<port id="0" names="1004" precision="FP16">
					<dim>80</dim>
					<dim>240</dim>
					<dim>1</dim>
					<dim>1</dim>
				</port>
			</output>
		</layer>
		<layer id="204" name="Conv_83/WithoutBiases" type="Convolution" version="opset1">
			<data auto_pad="explicit" dilations="1, 1" pads_begin="0, 0" pads_end="0, 0" strides="1, 1"/>
			<input>
				<port id="0" precision="FP16">
					<dim>1</dim>
					<dim>240</dim>
					<dim>6</dim>
					<dim>10</dim>
				</port>
				<port id="1" precision="FP16">
					<dim>80</dim>
					<dim>240</dim>
					<dim>1</dim>
					<dim>1</dim>
				</port>
			</input>
			<output>
				<port id="2" precision="FP16">
					<dim>1</dim>
					<dim>80</dim>
					<dim>6</dim>
					<dim>10</dim>
				</port>
			</output>
		</layer>
		<layer id="205" name="Conv_83/Dims7231" type="Const" version="opset1">
			<data element_type="f16" offset="182990" shape="1, 80, 1, 1" size="160"/>
			<output>
				<port id="0" precision="FP16">
					<dim>1</dim>
					<dim>80</dim>
					<dim>1</dim>
					<dim>1</dim>
				</port>
			</output>
		</layer>
		<layer id="206" name="Conv_83" type="Add" version="opset1">
			<data auto_broadcast="numpy"/>
			<input>
				<port id="0" precision="FP16">
					<dim>1</dim>
					<dim>80</dim>
					<dim>6</dim>
					<dim>10</dim>
				</port>
				<port id="1" precision="FP16">
					<dim>1</dim>
					<dim>80</dim>
					<dim>1</dim>
					<dim>1</dim>
				</port>
			</input>
			<output>
				<port id="2" names="1003" precision="FP16">
					<dim>1</dim>
					<dim>80</dim>
					<dim>6</dim>
					<dim>10</dim>
				</port>
			</output>
		</layer>
		<layer id="207" name="1007" type="Const" version="opset1">
			<data element_type="f16" offset="183150" shape="200, 80, 1, 1" size="32000"/>
			<output>
				<port id="0" names="1007" precision="FP16">
					<dim>200</dim>
					<dim>80</dim>
					<dim>1</dim>
					<dim>1</dim>
				</port>
			</output>
		</layer>
		<layer id="208" name="Conv_84/WithoutBiases" type="Convolution" version="opset1">
			<data auto_pad="explicit" dilations="1, 1" pads_begin="0, 0" pads_end="0, 0" strides="1, 1"/>
			<input>
				<port id="0" precision="FP16">
					<dim>1</dim>
					<dim>80</dim>
					<dim>6</dim>
					<dim>10</dim>
				</port>
				<port id="1" precision="FP16">
					<dim>200</dim>
					<dim>80</dim>
					<dim>1</dim>
					<dim>1</dim>
				</port>
			</input>
			<output>
				<port id="2" precision="FP16">
					<dim>1</dim>
					<dim>200</dim>
					<dim>6</dim>
					<dim>10</dim>
				</port>
			</output>
		</layer>
		<layer id="209" name="Conv_84/Dims7321" type="Const" version="opset1">
			<data element_type="f16" offset="215150" shape="1, 200, 1, 1" size="400"/>
			<output>
				<port id="0" precision="FP16">
					<dim>1</dim>
					<dim>200</dim>
					<dim>1</dim>
					<dim>1</dim>
				</port>
			</output>
		</layer>
		<layer id="210" name="Conv_84" type="Add" version="opset1">
			<data auto_broadcast="numpy"/>
			<input>
				<port id="0" precision="FP16">
					<dim>1</dim>
					<dim>200</dim>
					<dim>6</dim>
					<dim>10</dim>
				</port>
				<port id="1" precision="FP16">
					<dim>1</dim>
					<dim>200</dim>
					<dim>1</dim>
					<dim>1</dim>
				</port>
			</input>
			<output>
				<port id="2" names="1006" precision="FP16">
					<dim>1</dim>
					<dim>200</dim>
					<dim>6</dim>
					<dim>10</dim>
				</port>
			</output>
		</layer>
		<layer id="211" name="Constant_85" type="Const" version="opset1">
			<data element_type="f16" offset="976" shape="1, 1, 1, 1" size="2"/>
			<output>
				<port id="0" names="495" precision="FP16">
					<dim>1</dim>
					<dim>1</dim>
					<dim>1</dim>
					<dim>1</dim>
				</port>
			</output>
		</layer>
		<layer id="212" name="Add_86" type="Add" version="opset1">
			<data auto_broadcast="numpy"/>
			<input>
				<port id="0" precision="FP16">
					<dim>1</dim>
					<dim>200</dim>
					<dim>6</dim>
					<dim>10</dim>
				</port>
				<port id="1" precision="FP16">
					<dim>1</dim>
					<dim>1</dim>
					<dim>1</dim>
					<dim>1</dim>
				</port>
			</input>
			<output>
				<port id="2" names="496" precision="FP16">
					<dim>1</dim>
					<dim>200</dim>
					<dim>6</dim>
					<dim>10</dim>
				</port>
			</output>
		</layer>
		<layer id="213" name="Clip_89" type="Clamp" version="opset1">
			<data max="6" min="0"/>
			<input>
				<port id="0" precision="FP16">
					<dim>1</dim>
					<dim>200</dim>
					<dim>6</dim>
					<dim>10</dim>
				</port>
			</input>
			<output>
				<port id="1" names="499" precision="FP16">
					<dim>1</dim>
					<dim>200</dim>
					<dim>6</dim>
					<dim>10</dim>
				</port>
			</output>
		</layer>
		<layer id="214" name="Constant_90" type="Const" version="opset1">
			<data element_type="f16" offset="978" shape="1, 1, 1, 1" size="2"/>
			<output>
				<port id="0" names="500" precision="FP16">
					<dim>1</dim>
					<dim>1</dim>
					<dim>1</dim>
					<dim>1</dim>
				</port>
			</output>
		</layer>
		<layer id="215" name="Div_91" type="Multiply" version="opset1">
			<data auto_broadcast="numpy"/>
			<input>
				<port id="0" precision="FP16">
					<dim>1</dim>
					<dim>200</dim>
					<dim>6</dim>
					<dim>10</dim>
				</port>
				<port id="1" precision="FP16">
					<dim>1</dim>
					<dim>1</dim>
					<dim>1</dim>
					<dim>1</dim>
				</port>
			</input>
			<output>
				<port id="2" names="501" precision="FP16">
					<dim>1</dim>
					<dim>200</dim>
					<dim>6</dim>
					<dim>10</dim>
				</port>
			</output>
		</layer>
		<layer id="216" name="Mul_92" type="Multiply" version="opset1">
			<data auto_broadcast="numpy"/>
			<input>
				<port id="0" precision="FP16">
					<dim>1</dim>
					<dim>200</dim>
					<dim>6</dim>
					<dim>10</dim>
				</port>
				<port id="1" precision="FP16">
					<dim>1</dim>
					<dim>200</dim>
					<dim>6</dim>
					<dim>10</dim>
				</port>
			</input>
			<output>
				<port id="2" names="502" precision="FP16">
					<dim>1</dim>
					<dim>200</dim>
					<dim>6</dim>
					<dim>10</dim>
				</port>
			</output>
		</layer>
		<layer id="217" name="1010" type="Const" version="opset1">
			<data element_type="f16" offset="215550" shape="200, 1, 1, 3, 3" size="3600"/>
			<output>
				<port id="0" names="1010" precision="FP16">
					<dim>200</dim>
					<dim>1</dim>
					<dim>1</dim>
					<dim>3</dim>
					<dim>3</dim>
				</port>
			</output>
		</layer>
		<layer id="218" name="Conv_93/WithoutBiases" type="GroupConvolution" version="opset1">
			<data auto_pad="explicit" dilations="1, 1" pads_begin="1, 1" pads_end="1, 1" strides="1, 1"/>
			<input>
				<port id="0" precision="FP16">
					<dim>1</dim>
					<dim>200</dim>
					<dim>6</dim>
					<dim>10</dim>
				</port>
				<port id="1" precision="FP16">
					<dim>200</dim>
					<dim>1</dim>
					<dim>1</dim>
					<dim>3</dim>
					<dim>3</dim>
				</port>
			</input>
			<output>
				<port id="2" precision="FP16">
					<dim>1</dim>
					<dim>200</dim>
					<dim>6</dim>
					<dim>10</dim>
				</port>
			</output>
		</layer>
		<layer id="219" name="Conv_93/Dims7375" type="Const" version="opset1">
			<data element_type="f16" offset="219150" shape="1, 200, 1, 1" size="400"/>
			<output>
				<port id="0" precision="FP16">
					<dim>1</dim>
					<dim>200</dim>
					<dim>1</dim>
					<dim>1</dim>
				</port>
			</output>
		</layer>
		<layer id="220" name="Conv_93" type="Add" version="opset1">
			<data auto_broadcast="numpy"/>
			<input>
				<port id="0" precision="FP16">
					<dim>1</dim>
					<dim>200</dim>
					<dim>6</dim>
					<dim>10</dim>
				</port>
				<port id="1" precision="FP16">
					<dim>1</dim>
					<dim>200</dim>
					<dim>1</dim>
					<dim>1</dim>
				</port>
			</input>
			<output>
				<port id="2" names="1009" precision="FP16">
					<dim>1</dim>
					<dim>200</dim>
					<dim>6</dim>
					<dim>10</dim>
				</port>
			</output>
		</layer>
		<layer id="221" name="Constant_94" type="Const" version="opset1">
			<data element_type="f16" offset="976" shape="1, 1, 1, 1" size="2"/>
			<output>
				<port id="0" names="505" precision="FP16">
					<dim>1</dim>
					<dim>1</dim>
					<dim>1</dim>
					<dim>1</dim>
				</port>
			</output>
		</layer>
		<layer id="222" name="Add_95" type="Add" version="opset1">
			<data auto_broadcast="numpy"/>
			<input>
				<port id="0" precision="FP16">
					<dim>1</dim>
					<dim>200</dim>
					<dim>6</dim>
					<dim>10</dim>
				</port>
				<port id="1" precision="FP16">
					<dim>1</dim>
					<dim>1</dim>
					<dim>1</dim>
					<dim>1</dim>
				</port>
			</input>
			<output>
				<port id="2" names="506" precision="FP16">
					<dim>1</dim>
					<dim>200</dim>
					<dim>6</dim>
					<dim>10</dim>
				</port>
			</output>
		</layer>
		<layer id="223" name="Clip_98" type="Clamp" version="opset1">
			<data max="6" min="0"/>
			<input>
				<port id="0" precision="FP16">
					<dim>1</dim>
					<dim>200</dim>
					<dim>6</dim>
					<dim>10</dim>
				</port>
			</input>
			<output>
				<port id="1" names="509" precision="FP16">
					<dim>1</dim>
					<dim>200</dim>
					<dim>6</dim>
					<dim>10</dim>
				</port>
			</output>
		</layer>
		<layer id="224" name="Constant_99" type="Const" version="opset1">
			<data element_type="f16" offset="978" shape="1, 1, 1, 1" size="2"/>
			<output>
				<port id="0" names="510" precision="FP16">
					<dim>1</dim>
					<dim>1</dim>
					<dim>1</dim>
					<dim>1</dim>
				</port>
			</output>
		</layer>
		<layer id="225" name="Div_100" type="Multiply" version="opset1">
			<data auto_broadcast="numpy"/>
			<input>
				<port id="0" precision="FP16">
					<dim>1</dim>
					<dim>200</dim>
					<dim>6</dim>
					<dim>10</dim>
				</port>
				<port id="1" precision="FP16">
					<dim>1</dim>
					<dim>1</dim>
					<dim>1</dim>
					<dim>1</dim>
				</port>
			</input>
			<output>
				<port id="2" names="511" precision="FP16">
					<dim>1</dim>
					<dim>200</dim>
					<dim>6</dim>
					<dim>10</dim>
				</port>
			</output>
		</layer>
		<layer id="226" name="Mul_101" type="Multiply" version="opset1">
			<data auto_broadcast="numpy"/>
			<input>
				<port id="0" precision="FP16">
					<dim>1</dim>
					<dim>200</dim>
					<dim>6</dim>
					<dim>10</dim>
				</port>
				<port id="1" precision="FP16">
					<dim>1</dim>
					<dim>200</dim>
					<dim>6</dim>
					<dim>10</dim>
				</port>
			</input>
			<output>
				<port id="2" names="512" precision="FP16">
					<dim>1</dim>
					<dim>200</dim>
					<dim>6</dim>
					<dim>10</dim>
				</port>
			</output>
		</layer>
		<layer id="227" name="1013" type="Const" version="opset1">
			<data element_type="f16" offset="219550" shape="80, 200, 1, 1" size="32000"/>
			<output>
				<port id="0" names="1013" precision="FP16">
					<dim>80</dim>
					<dim>200</dim>
					<dim>1</dim>
					<dim>1</dim>
				</port>
			</output>
		</layer>
		<layer id="228" name="Conv_102/WithoutBiases" type="Convolution" version="opset1">
			<data auto_pad="explicit" dilations="1, 1" pads_begin="0, 0" pads_end="0, 0" strides="1, 1"/>
			<input>
				<port id="0" precision="FP16">
					<dim>1</dim>
					<dim>200</dim>
					<dim>6</dim>
					<dim>10</dim>
				</port>
				<port id="1" precision="FP16">
					<dim>80</dim>
					<dim>200</dim>
					<dim>1</dim>
					<dim>1</dim>
				</port>
			</input>
			<output>
				<port id="2" precision="FP16">
					<dim>1</dim>
					<dim>80</dim>
					<dim>6</dim>
					<dim>10</dim>
				</port>
			</output>
		</layer>
		<layer id="229" name="Conv_102/Dims7477" type="Const" version="opset1">
			<data element_type="f16" offset="251550" shape="1, 80, 1, 1" size="160"/>
			<output>
				<port id="0" precision="FP16">
					<dim>1</dim>
					<dim>80</dim>
					<dim>1</dim>
					<dim>1</dim>
				</port>
			</output>
		</layer>
		<layer id="230" name="Conv_102" type="Add" version="opset1">
			<data auto_broadcast="numpy"/>
			<input>
				<port id="0" precision="FP16">
					<dim>1</dim>
					<dim>80</dim>
					<dim>6</dim>
					<dim>10</dim>
				</port>
				<port id="1" precision="FP16">
					<dim>1</dim>
					<dim>80</dim>
					<dim>1</dim>
					<dim>1</dim>
				</port>
			</input>
			<output>
				<port id="2" names="1012" precision="FP16">
					<dim>1</dim>
					<dim>80</dim>
					<dim>6</dim>
					<dim>10</dim>
				</port>
			</output>
		</layer>
		<layer id="231" name="Add_103" type="Add" version="opset1">
			<data auto_broadcast="numpy"/>
			<input>
				<port id="0" precision="FP16">
					<dim>1</dim>
					<dim>80</dim>
					<dim>6</dim>
					<dim>10</dim>
				</port>
				<port id="1" precision="FP16">
					<dim>1</dim>
					<dim>80</dim>
					<dim>6</dim>
					<dim>10</dim>
				</port>
			</input>
			<output>
				<port id="2" names="515" precision="FP16">
					<dim>1</dim>
					<dim>80</dim>
					<dim>6</dim>
					<dim>10</dim>
				</port>
			</output>
		</layer>
		<layer id="232" name="1016" type="Const" version="opset1">
			<data element_type="f16" offset="251710" shape="184, 80, 1, 1" size="29440"/>
			<output>
				<port id="0" names="1016" precision="FP16">
					<dim>184</dim>
					<dim>80</dim>
					<dim>1</dim>
					<dim>1</dim>
				</port>
			</output>
		</layer>
		<layer id="233" name="Conv_104/WithoutBiases" type="Convolution" version="opset1">
			<data auto_pad="explicit" dilations="1, 1" pads_begin="0, 0" pads_end="0, 0" strides="1, 1"/>
			<input>
				<port id="0" precision="FP16">
					<dim>1</dim>
					<dim>80</dim>
					<dim>6</dim>
					<dim>10</dim>
				</port>
				<port id="1" precision="FP16">
					<dim>184</dim>
					<dim>80</dim>
					<dim>1</dim>
					<dim>1</dim>
				</port>
			</input>
			<output>
				<port id="2" precision="FP16">
					<dim>1</dim>
					<dim>184</dim>
					<dim>6</dim>
					<dim>10</dim>
				</port>
			</output>
		</layer>
		<layer id="234" name="Conv_104/Dims7507" type="Const" version="opset1">
			<data element_type="f16" offset="281150" shape="1, 184, 1, 1" size="368"/>
			<output>
				<port id="0" precision="FP16">
					<dim>1</dim>
					<dim>184</dim>
					<dim>1</dim>
					<dim>1</dim>
				</port>
			</output>
		</layer>
		<layer id="235" name="Conv_104" type="Add" version="opset1">
			<data auto_broadcast="numpy"/>
			<input>
				<port id="0" precision="FP16">
					<dim>1</dim>
					<dim>184</dim>
					<dim>6</dim>
					<dim>10</dim>
				</port>
				<port id="1" precision="FP16">
					<dim>1</dim>
					<dim>184</dim>
					<dim>1</dim>
					<dim>1</dim>
				</port>
			</input>
			<output>
				<port id="2" names="1015" precision="FP16">
					<dim>1</dim>
					<dim>184</dim>
					<dim>6</dim>
					<dim>10</dim>
				</port>
			</output>
		</layer>
		<layer id="236" name="Constant_105" type="Const" version="opset1">
			<data element_type="f16" offset="976" shape="1, 1, 1, 1" size="2"/>
			<output>
				<port id="0" names="518" precision="FP16">
					<dim>1</dim>
					<dim>1</dim>
					<dim>1</dim>
					<dim>1</dim>
				</port>
			</output>
		</layer>
		<layer id="237" name="Add_106" type="Add" version="opset1">
			<data auto_broadcast="numpy"/>
			<input>
				<port id="0" precision="FP16">
					<dim>1</dim>
					<dim>184</dim>
					<dim>6</dim>
					<dim>10</dim>
				</port>
				<port id="1" precision="FP16">
					<dim>1</dim>
					<dim>1</dim>
					<dim>1</dim>
					<dim>1</dim>
				</port>
			</input>
			<output>
				<port id="2" names="519" precision="FP16">
					<dim>1</dim>
					<dim>184</dim>
					<dim>6</dim>
					<dim>10</dim>
				</port>
			</output>
		</layer>
		<layer id="238" name="Clip_109" type="Clamp" version="opset1">
			<data max="6" min="0"/>
			<input>
				<port id="0" precision="FP16">
					<dim>1</dim>
					<dim>184</dim>
					<dim>6</dim>
					<dim>10</dim>
				</port>
			</input>
			<output>
				<port id="1" names="522" precision="FP16">
					<dim>1</dim>
					<dim>184</dim>
					<dim>6</dim>
					<dim>10</dim>
				</port>
			</output>
		</layer>
		<layer id="239" name="Constant_110" type="Const" version="opset1">
			<data element_type="f16" offset="978" shape="1, 1, 1, 1" size="2"/>
			<output>
				<port id="0" names="523" precision="FP16">
					<dim>1</dim>
					<dim>1</dim>
					<dim>1</dim>
					<dim>1</dim>
				</port>
			</output>
		</layer>
		<layer id="240" name="Div_111" type="Multiply" version="opset1">
			<data auto_broadcast="numpy"/>
			<input>
				<port id="0" precision="FP16">
					<dim>1</dim>
					<dim>184</dim>
					<dim>6</dim>
					<dim>10</dim>
				</port>
				<port id="1" precision="FP16">
					<dim>1</dim>
					<dim>1</dim>
					<dim>1</dim>
					<dim>1</dim>
				</port>
			</input>
			<output>
				<port id="2" names="524" precision="FP16">
					<dim>1</dim>
					<dim>184</dim>
					<dim>6</dim>
					<dim>10</dim>
				</port>
			</output>
		</layer>
		<layer id="241" name="Mul_112" type="Multiply" version="opset1">
			<data auto_broadcast="numpy"/>
			<input>
				<port id="0" precision="FP16">
					<dim>1</dim>
					<dim>184</dim>
					<dim>6</dim>
					<dim>10</dim>
				</port>
				<port id="1" precision="FP16">
					<dim>1</dim>
					<dim>184</dim>
					<dim>6</dim>
					<dim>10</dim>
				</port>
			</input>
			<output>
				<port id="2" names="525" precision="FP16">
					<dim>1</dim>
					<dim>184</dim>
					<dim>6</dim>
					<dim>10</dim>
				</port>
			</output>
		</layer>
		<layer id="242" name="1019" type="Const" version="opset1">
			<data element_type="f16" offset="281518" shape="184, 1, 1, 3, 3" size="3312"/>
			<output>
				<port id="0" names="1019" precision="FP16">
					<dim>184</dim>
					<dim>1</dim>
					<dim>1</dim>
					<dim>3</dim>
					<dim>3</dim>
				</port>
			</output>
		</layer>
		<layer id="243" name="Conv_113/WithoutBiases" type="GroupConvolution" version="opset1">
			<data auto_pad="explicit" dilations="1, 1" pads_begin="1, 1" pads_end="1, 1" strides="1, 1"/>
			<input>
				<port id="0" precision="FP16">
					<dim>1</dim>
					<dim>184</dim>
					<dim>6</dim>
					<dim>10</dim>
				</port>
				<port id="1" precision="FP16">
					<dim>184</dim>
					<dim>1</dim>
					<dim>1</dim>
					<dim>3</dim>
					<dim>3</dim>
				</port>
			</input>
			<output>
				<port id="2" precision="FP16">
					<dim>1</dim>
					<dim>184</dim>
					<dim>6</dim>
					<dim>10</dim>
				</port>
			</output>
		</layer>
		<layer id="244" name="Conv_113/Dims7129" type="Const" version="opset1">
			<data element_type="f16" offset="284830" shape="1, 184, 1, 1" size="368"/>
			<output>
				<port id="0" precision="FP16">
					<dim>1</dim>
					<dim>184</dim>
					<dim>1</dim>
					<dim>1</dim>
				</port>
			</output>
		</layer>
		<layer id="245" name="Conv_113" type="Add" version="opset1">
			<data auto_broadcast="numpy"/>
			<input>
				<port id="0" precision="FP16">
					<dim>1</dim>
					<dim>184</dim>
					<dim>6</dim>
					<dim>10</dim>
				</port>
				<port id="1" precision="FP16">
					<dim>1</dim>
					<dim>184</dim>
					<dim>1</dim>
					<dim>1</dim>
				</port>
			</input>
			<output>
				<port id="2" names="1018" precision="FP16">
					<dim>1</dim>
					<dim>184</dim>
					<dim>6</dim>
					<dim>10</dim>
				</port>
			</output>
		</layer>
		<layer id="246" name="Constant_114" type="Const" version="opset1">
			<data element_type="f16" offset="976" shape="1, 1, 1, 1" size="2"/>
			<output>
				<port id="0" names="528" precision="FP16">
					<dim>1</dim>
					<dim>1</dim>
					<dim>1</dim>
					<dim>1</dim>
				</port>
			</output>
		</layer>
		<layer id="247" name="Add_115" type="Add" version="opset1">
			<data auto_broadcast="numpy"/>
			<input>
				<port id="0" precision="FP16">
					<dim>1</dim>
					<dim>184</dim>
					<dim>6</dim>
					<dim>10</dim>
				</port>
				<port id="1" precision="FP16">
					<dim>1</dim>
					<dim>1</dim>
					<dim>1</dim>
					<dim>1</dim>
				</port>
			</input>
			<output>
				<port id="2" names="529" precision="FP16">
					<dim>1</dim>
					<dim>184</dim>
					<dim>6</dim>
					<dim>10</dim>
				</port>
			</output>
		</layer>
		<layer id="248" name="Clip_118" type="Clamp" version="opset1">
			<data max="6" min="0"/>
			<input>
				<port id="0" precision="FP16">
					<dim>1</dim>
					<dim>184</dim>
					<dim>6</dim>
					<dim>10</dim>
				</port>
			</input>
			<output>
				<port id="1" names="532" precision="FP16">
					<dim>1</dim>
					<dim>184</dim>
					<dim>6</dim>
					<dim>10</dim>
				</port>
			</output>
		</layer>
		<layer id="249" name="Constant_119" type="Const" version="opset1">
			<data element_type="f16" offset="978" shape="1, 1, 1, 1" size="2"/>
			<output>
				<port id="0" names="533" precision="FP16">
					<dim>1</dim>
					<dim>1</dim>
					<dim>1</dim>
					<dim>1</dim>
				</port>
			</output>
		</layer>
		<layer id="250" name="Div_120" type="Multiply" version="opset1">
			<data auto_broadcast="numpy"/>
			<input>
				<port id="0" precision="FP16">
					<dim>1</dim>
					<dim>184</dim>
					<dim>6</dim>
					<dim>10</dim>
				</port>
				<port id="1" precision="FP16">
					<dim>1</dim>
					<dim>1</dim>
					<dim>1</dim>
					<dim>1</dim>
				</port>
			</input>
			<output>
				<port id="2" names="534" precision="FP16">
					<dim>1</dim>
					<dim>184</dim>
					<dim>6</dim>
					<dim>10</dim>
				</port>
			</output>
		</layer>
		<layer id="251" name="Mul_121" type="Multiply" version="opset1">
			<data auto_broadcast="numpy"/>
			<input>
				<port id="0" precision="FP16">
					<dim>1</dim>
					<dim>184</dim>
					<dim>6</dim>
					<dim>10</dim>
				</port>
				<port id="1" precision="FP16">
					<dim>1</dim>
					<dim>184</dim>
					<dim>6</dim>
					<dim>10</dim>
				</port>
			</input>
			<output>
				<port id="2" names="535" precision="FP16">
					<dim>1</dim>
					<dim>184</dim>
					<dim>6</dim>
					<dim>10</dim>
				</port>
			</output>
		</layer>
		<layer id="252" name="1022" type="Const" version="opset1">
			<data element_type="f16" offset="285198" shape="80, 184, 1, 1" size="29440"/>
			<output>
				<port id="0" names="1022" precision="FP16">
					<dim>80</dim>
					<dim>184</dim>
					<dim>1</dim>
					<dim>1</dim>
				</port>
			</output>
		</layer>
		<layer id="253" name="Conv_122/WithoutBiases" type="Convolution" version="opset1">
			<data auto_pad="explicit" dilations="1, 1" pads_begin="0, 0" pads_end="0, 0" strides="1, 1"/>
			<input>
				<port id="0" precision="FP16">
					<dim>1</dim>
					<dim>184</dim>
					<dim>6</dim>
					<dim>10</dim>
				</port>
				<port id="1" precision="FP16">
					<dim>80</dim>
					<dim>184</dim>
					<dim>1</dim>
					<dim>1</dim>
				</port>
			</input>
			<output>
				<port id="2" precision="FP16">
					<dim>1</dim>
					<dim>80</dim>
					<dim>6</dim>
					<dim>10</dim>
				</port>
			</output>
		</layer>
		<layer id="254" name="Conv_122/Dims7399" type="Const" version="opset1">
			<data element_type="f16" offset="314638" shape="1, 80, 1, 1" size="160"/>
			<output>
				<port id="0" precision="FP16">
					<dim>1</dim>
					<dim>80</dim>
					<dim>1</dim>
					<dim>1</dim>
				</port>
			</output>
		</layer>
		<layer id="255" name="Conv_122" type="Add" version="opset1">
			<data auto_broadcast="numpy"/>
			<input>
				<port id="0" precision="FP16">
					<dim>1</dim>
					<dim>80</dim>
					<dim>6</dim>
					<dim>10</dim>
				</port>
				<port id="1" precision="FP16">
					<dim>1</dim>
					<dim>80</dim>
					<dim>1</dim>
					<dim>1</dim>
				</port>
			</input>
			<output>
				<port id="2" names="1021" precision="FP16">
					<dim>1</dim>
					<dim>80</dim>
					<dim>6</dim>
					<dim>10</dim>
				</port>
			</output>
		</layer>
		<layer id="256" name="Add_123" type="Add" version="opset1">
			<data auto_broadcast="numpy"/>
			<input>
				<port id="0" precision="FP16">
					<dim>1</dim>
					<dim>80</dim>
					<dim>6</dim>
					<dim>10</dim>
				</port>
				<port id="1" precision="FP16">
					<dim>1</dim>
					<dim>80</dim>
					<dim>6</dim>
					<dim>10</dim>
				</port>
			</input>
			<output>
				<port id="2" names="538" precision="FP16">
					<dim>1</dim>
					<dim>80</dim>
					<dim>6</dim>
					<dim>10</dim>
				</port>
			</output>
		</layer>
		<layer id="257" name="1025" type="Const" version="opset1">
			<data element_type="f16" offset="314798" shape="184, 80, 1, 1" size="29440"/>
			<output>
				<port id="0" names="1025" precision="FP16">
					<dim>184</dim>
					<dim>80</dim>
					<dim>1</dim>
					<dim>1</dim>
				</port>
			</output>
		</layer>
		<layer id="258" name="Conv_124/WithoutBiases" type="Convolution" version="opset1">
			<data auto_pad="explicit" dilations="1, 1" pads_begin="0, 0" pads_end="0, 0" strides="1, 1"/>
			<input>
				<port id="0" precision="FP16">
					<dim>1</dim>
					<dim>80</dim>
					<dim>6</dim>
					<dim>10</dim>
				</port>
				<port id="1" precision="FP16">
					<dim>184</dim>
					<dim>80</dim>
					<dim>1</dim>
					<dim>1</dim>
				</port>
			</input>
			<output>
				<port id="2" precision="FP16">
					<dim>1</dim>
					<dim>184</dim>
					<dim>6</dim>
					<dim>10</dim>
				</port>
			</output>
		</layer>
		<layer id="259" name="Conv_124/Dims7267" type="Const" version="opset1">
			<data element_type="f16" offset="344238" shape="1, 184, 1, 1" size="368"/>
			<output>
				<port id="0" precision="FP16">
					<dim>1</dim>
					<dim>184</dim>
					<dim>1</dim>
					<dim>1</dim>
				</port>
			</output>
		</layer>
		<layer id="260" name="Conv_124" type="Add" version="opset1">
			<data auto_broadcast="numpy"/>
			<input>
				<port id="0" precision="FP16">
					<dim>1</dim>
					<dim>184</dim>
					<dim>6</dim>
					<dim>10</dim>
				</port>
				<port id="1" precision="FP16">
					<dim>1</dim>
					<dim>184</dim>
					<dim>1</dim>
					<dim>1</dim>
				</port>
			</input>
			<output>
				<port id="2" names="1024" precision="FP16">
					<dim>1</dim>
					<dim>184</dim>
					<dim>6</dim>
					<dim>10</dim>
				</port>
			</output>
		</layer>
		<layer id="261" name="Constant_125" type="Const" version="opset1">
			<data element_type="f16" offset="976" shape="1, 1, 1, 1" size="2"/>
			<output>
				<port id="0" names="541" precision="FP16">
					<dim>1</dim>
					<dim>1</dim>
					<dim>1</dim>
					<dim>1</dim>
				</port>
			</output>
		</layer>
		<layer id="262" name="Add_126" type="Add" version="opset1">
			<data auto_broadcast="numpy"/>
			<input>
				<port id="0" precision="FP16">
					<dim>1</dim>
					<dim>184</dim>
					<dim>6</dim>
					<dim>10</dim>
				</port>
				<port id="1" precision="FP16">
					<dim>1</dim>
					<dim>1</dim>
					<dim>1</dim>
					<dim>1</dim>
				</port>
			</input>
			<output>
				<port id="2" names="542" precision="FP16">
					<dim>1</dim>
					<dim>184</dim>
					<dim>6</dim>
					<dim>10</dim>
				</port>
			</output>
		</layer>
		<layer id="263" name="Clip_129" type="Clamp" version="opset1">
			<data max="6" min="0"/>
			<input>
				<port id="0" precision="FP16">
					<dim>1</dim>
					<dim>184</dim>
					<dim>6</dim>
					<dim>10</dim>
				</port>
			</input>
			<output>
				<port id="1" names="545" precision="FP16">
					<dim>1</dim>
					<dim>184</dim>
					<dim>6</dim>
					<dim>10</dim>
				</port>
			</output>
		</layer>
		<layer id="264" name="Constant_130" type="Const" version="opset1">
			<data element_type="f16" offset="978" shape="1, 1, 1, 1" size="2"/>
			<output>
				<port id="0" names="546" precision="FP16">
					<dim>1</dim>
					<dim>1</dim>
					<dim>1</dim>
					<dim>1</dim>
				</port>
			</output>
		</layer>
		<layer id="265" name="Div_131" type="Multiply" version="opset1">
			<data auto_broadcast="numpy"/>
			<input>
				<port id="0" precision="FP16">
					<dim>1</dim>
					<dim>184</dim>
					<dim>6</dim>
					<dim>10</dim>
				</port>
				<port id="1" precision="FP16">
					<dim>1</dim>
					<dim>1</dim>
					<dim>1</dim>
					<dim>1</dim>
				</port>
			</input>
			<output>
				<port id="2" names="547" precision="FP16">
					<dim>1</dim>
					<dim>184</dim>
					<dim>6</dim>
					<dim>10</dim>
				</port>
			</output>
		</layer>
		<layer id="266" name="Mul_132" type="Multiply" version="opset1">
			<data auto_broadcast="numpy"/>
			<input>
				<port id="0" precision="FP16">
					<dim>1</dim>
					<dim>184</dim>
					<dim>6</dim>
					<dim>10</dim>
				</port>
				<port id="1" precision="FP16">
					<dim>1</dim>
					<dim>184</dim>
					<dim>6</dim>
					<dim>10</dim>
				</port>
			</input>
			<output>
				<port id="2" names="548" precision="FP16">
					<dim>1</dim>
					<dim>184</dim>
					<dim>6</dim>
					<dim>10</dim>
				</port>
			</output>
		</layer>
		<layer id="267" name="1028" type="Const" version="opset1">
			<data element_type="f16" offset="344606" shape="184, 1, 1, 3, 3" size="3312"/>
			<output>
				<port id="0" names="1028" precision="FP16">
					<dim>184</dim>
					<dim>1</dim>
					<dim>1</dim>
					<dim>3</dim>
					<dim>3</dim>
				</port>
			</output>
		</layer>
		<layer id="268" name="Conv_133/WithoutBiases" type="GroupConvolution" version="opset1">
			<data auto_pad="explicit" dilations="1, 1" pads_begin="1, 1" pads_end="1, 1" strides="1, 1"/>
			<input>
				<port id="0" precision="FP16">
					<dim>1</dim>
					<dim>184</dim>
					<dim>6</dim>
					<dim>10</dim>
				</port>
				<port id="1" precision="FP16">
					<dim>184</dim>
					<dim>1</dim>
					<dim>1</dim>
					<dim>3</dim>
					<dim>3</dim>
				</port>
			</input>
			<output>
				<port id="2" precision="FP16">
					<dim>1</dim>
					<dim>184</dim>
					<dim>6</dim>
					<dim>10</dim>
				</port>
			</output>
		</layer>
		<layer id="269" name="Conv_133/Dims7243" type="Const" version="opset1">
			<data element_type="f16" offset="347918" shape="1, 184, 1, 1" size="368"/>
			<output>
				<port id="0" precision="FP16">
					<dim>1</dim>
					<dim>184</dim>
					<dim>1</dim>
					<dim>1</dim>
				</port>
			</output>
		</layer>
		<layer id="270" name="Conv_133" type="Add" version="opset1">
			<data auto_broadcast="numpy"/>
			<input>
				<port id="0" precision="FP16">
					<dim>1</dim>
					<dim>184</dim>
					<dim>6</dim>
					<dim>10</dim>
				</port>
				<port id="1" precision="FP16">
					<dim>1</dim>
					<dim>184</dim>
					<dim>1</dim>
					<dim>1</dim>
				</port>
			</input>
			<output>
				<port id="2" names="1027" precision="FP16">
					<dim>1</dim>
					<dim>184</dim>
					<dim>6</dim>
					<dim>10</dim>
				</port>
			</output>
		</layer>
		<layer id="271" name="Constant_134" type="Const" version="opset1">
			<data element_type="f16" offset="976" shape="1, 1, 1, 1" size="2"/>
			<output>
				<port id="0" names="551" precision="FP16">
					<dim>1</dim>
					<dim>1</dim>
					<dim>1</dim>
					<dim>1</dim>
				</port>
			</output>
		</layer>
		<layer id="272" name="Add_135" type="Add" version="opset1">
			<data auto_broadcast="numpy"/>
			<input>
				<port id="0" precision="FP16">
					<dim>1</dim>
					<dim>184</dim>
					<dim>6</dim>
					<dim>10</dim>
				</port>
				<port id="1" precision="FP16">
					<dim>1</dim>
					<dim>1</dim>
					<dim>1</dim>
					<dim>1</dim>
				</port>
			</input>
			<output>
				<port id="2" names="552" precision="FP16">
					<dim>1</dim>
					<dim>184</dim>
					<dim>6</dim>
					<dim>10</dim>
				</port>
			</output>
		</layer>
		<layer id="273" name="Clip_138" type="Clamp" version="opset1">
			<data max="6" min="0"/>
			<input>
				<port id="0" precision="FP16">
					<dim>1</dim>
					<dim>184</dim>
					<dim>6</dim>
					<dim>10</dim>
				</port>
			</input>
			<output>
				<port id="1" names="555" precision="FP16">
					<dim>1</dim>
					<dim>184</dim>
					<dim>6</dim>
					<dim>10</dim>
				</port>
			</output>
		</layer>
		<layer id="274" name="Constant_139" type="Const" version="opset1">
			<data element_type="f16" offset="978" shape="1, 1, 1, 1" size="2"/>
			<output>
				<port id="0" names="556" precision="FP16">
					<dim>1</dim>
					<dim>1</dim>
					<dim>1</dim>
					<dim>1</dim>
				</port>
			</output>
		</layer>
		<layer id="275" name="Div_140" type="Multiply" version="opset1">
			<data auto_broadcast="numpy"/>
			<input>
				<port id="0" precision="FP16">
					<dim>1</dim>
					<dim>184</dim>
					<dim>6</dim>
					<dim>10</dim>
				</port>
				<port id="1" precision="FP16">
					<dim>1</dim>
					<dim>1</dim>
					<dim>1</dim>
					<dim>1</dim>
				</port>
			</input>
			<output>
				<port id="2" names="557" precision="FP16">
					<dim>1</dim>
					<dim>184</dim>
					<dim>6</dim>
					<dim>10</dim>
				</port>
			</output>
		</layer>
		<layer id="276" name="Mul_141" type="Multiply" version="opset1">
			<data auto_broadcast="numpy"/>
			<input>
				<port id="0" precision="FP16">
					<dim>1</dim>
					<dim>184</dim>
					<dim>6</dim>
					<dim>10</dim>
				</port>
				<port id="1" precision="FP16">
					<dim>1</dim>
					<dim>184</dim>
					<dim>6</dim>
					<dim>10</dim>
				</port>
			</input>
			<output>
				<port id="2" names="558" precision="FP16">
					<dim>1</dim>
					<dim>184</dim>
					<dim>6</dim>
					<dim>10</dim>
				</port>
			</output>
		</layer>
		<layer id="277" name="1031" type="Const" version="opset1">
			<data element_type="f16" offset="348286" shape="80, 184, 1, 1" size="29440"/>
			<output>
				<port id="0" names="1031" precision="FP16">
					<dim>80</dim>
					<dim>184</dim>
					<dim>1</dim>
					<dim>1</dim>
				</port>
			</output>
		</layer>
		<layer id="278" name="Conv_142/WithoutBiases" type="Convolution" version="opset1">
			<data auto_pad="explicit" dilations="1, 1" pads_begin="0, 0" pads_end="0, 0" strides="1, 1"/>
			<input>
				<port id="0" precision="FP16">
					<dim>1</dim>
					<dim>184</dim>
					<dim>6</dim>
					<dim>10</dim>
				</port>
				<port id="1" precision="FP16">
					<dim>80</dim>
					<dim>184</dim>
					<dim>1</dim>
					<dim>1</dim>
				</port>
			</input>
			<output>
				<port id="2" precision="FP16">
					<dim>1</dim>
					<dim>80</dim>
					<dim>6</dim>
					<dim>10</dim>
				</port>
			</output>
		</layer>
		<layer id="279" name="Conv_142/Dims7393" type="Const" version="opset1">
			<data element_type="f16" offset="377726" shape="1, 80, 1, 1" size="160"/>
			<output>
				<port id="0" precision="FP16">
					<dim>1</dim>
					<dim>80</dim>
					<dim>1</dim>
					<dim>1</dim>
				</port>
			</output>
		</layer>
		<layer id="280" name="Conv_142" type="Add" version="opset1">
			<data auto_broadcast="numpy"/>
			<input>
				<port id="0" precision="FP16">
					<dim>1</dim>
					<dim>80</dim>
					<dim>6</dim>
					<dim>10</dim>
				</port>
				<port id="1" precision="FP16">
					<dim>1</dim>
					<dim>80</dim>
					<dim>1</dim>
					<dim>1</dim>
				</port>
			</input>
			<output>
				<port id="2" names="1030" precision="FP16">
					<dim>1</dim>
					<dim>80</dim>
					<dim>6</dim>
					<dim>10</dim>
				</port>
			</output>
		</layer>
		<layer id="281" name="Add_143" type="Add" version="opset1">
			<data auto_broadcast="numpy"/>
			<input>
				<port id="0" precision="FP16">
					<dim>1</dim>
					<dim>80</dim>
					<dim>6</dim>
					<dim>10</dim>
				</port>
				<port id="1" precision="FP16">
					<dim>1</dim>
					<dim>80</dim>
					<dim>6</dim>
					<dim>10</dim>
				</port>
			</input>
			<output>
				<port id="2" names="561" precision="FP16">
					<dim>1</dim>
					<dim>80</dim>
					<dim>6</dim>
					<dim>10</dim>
				</port>
			</output>
		</layer>
		<layer id="282" name="1034" type="Const" version="opset1">
			<data element_type="f16" offset="377886" shape="480, 80, 1, 1" size="76800"/>
			<output>
				<port id="0" names="1034" precision="FP16">
					<dim>480</dim>
					<dim>80</dim>
					<dim>1</dim>
					<dim>1</dim>
				</port>
			</output>
		</layer>
		<layer id="283" name="Conv_144/WithoutBiases" type="Convolution" version="opset1">
			<data auto_pad="explicit" dilations="1, 1" pads_begin="0, 0" pads_end="0, 0" strides="1, 1"/>
			<input>
				<port id="0" precision="FP16">
					<dim>1</dim>
					<dim>80</dim>
					<dim>6</dim>
					<dim>10</dim>
				</port>
				<port id="1" precision="FP16">
					<dim>480</dim>
					<dim>80</dim>
					<dim>1</dim>
					<dim>1</dim>
				</port>
			</input>
			<output>
				<port id="2" precision="FP16">
					<dim>1</dim>
					<dim>480</dim>
					<dim>6</dim>
					<dim>10</dim>
				</port>
			</output>
		</layer>
		<layer id="284" name="Conv_144/Dims7075" type="Const" version="opset1">
			<data element_type="f16" offset="454686" shape="1, 480, 1, 1" size="960"/>
			<output>
				<port id="0" precision="FP16">
					<dim>1</dim>
					<dim>480</dim>
					<dim>1</dim>
					<dim>1</dim>
				</port>
			</output>
		</layer>
		<layer id="285" name="Conv_144" type="Add" version="opset1">
			<data auto_broadcast="numpy"/>
			<input>
				<port id="0" precision="FP16">
					<dim>1</dim>
					<dim>480</dim>
					<dim>6</dim>
					<dim>10</dim>
				</port>
				<port id="1" precision="FP16">
					<dim>1</dim>
					<dim>480</dim>
					<dim>1</dim>
					<dim>1</dim>
				</port>
			</input>
			<output>
				<port id="2" names="1033" precision="FP16">
					<dim>1</dim>
					<dim>480</dim>
					<dim>6</dim>
					<dim>10</dim>
				</port>
			</output>
		</layer>
		<layer id="286" name="Constant_145" type="Const" version="opset1">
			<data element_type="f16" offset="976" shape="1, 1, 1, 1" size="2"/>
			<output>
				<port id="0" names="564" precision="FP16">
					<dim>1</dim>
					<dim>1</dim>
					<dim>1</dim>
					<dim>1</dim>
				</port>
			</output>
		</layer>
		<layer id="287" name="Add_146" type="Add" version="opset1">
			<data auto_broadcast="numpy"/>
			<input>
				<port id="0" precision="FP16">
					<dim>1</dim>
					<dim>480</dim>
					<dim>6</dim>
					<dim>10</dim>
				</port>
				<port id="1" precision="FP16">
					<dim>1</dim>
					<dim>1</dim>
					<dim>1</dim>
					<dim>1</dim>
				</port>
			</input>
			<output>
				<port id="2" names="565" precision="FP16">
					<dim>1</dim>
					<dim>480</dim>
					<dim>6</dim>
					<dim>10</dim>
				</port>
			</output>
		</layer>
		<layer id="288" name="Clip_149" type="Clamp" version="opset1">
			<data max="6" min="0"/>
			<input>
				<port id="0" precision="FP16">
					<dim>1</dim>
					<dim>480</dim>
					<dim>6</dim>
					<dim>10</dim>
				</port>
			</input>
			<output>
				<port id="1" names="568" precision="FP16">
					<dim>1</dim>
					<dim>480</dim>
					<dim>6</dim>
					<dim>10</dim>
				</port>
			</output>
		</layer>
		<layer id="289" name="Constant_150" type="Const" version="opset1">
			<data element_type="f16" offset="978" shape="1, 1, 1, 1" size="2"/>
			<output>
				<port id="0" names="569" precision="FP16">
					<dim>1</dim>
					<dim>1</dim>
					<dim>1</dim>
					<dim>1</dim>
				</port>
			</output>
		</layer>
		<layer id="290" name="Div_151" type="Multiply" version="opset1">
			<data auto_broadcast="numpy"/>
			<input>
				<port id="0" precision="FP16">
					<dim>1</dim>
					<dim>480</dim>
					<dim>6</dim>
					<dim>10</dim>
				</port>
				<port id="1" precision="FP16">
					<dim>1</dim>
					<dim>1</dim>
					<dim>1</dim>
					<dim>1</dim>
				</port>
			</input>
			<output>
				<port id="2" names="570" precision="FP16">
					<dim>1</dim>
					<dim>480</dim>
					<dim>6</dim>
					<dim>10</dim>
				</port>
			</output>
		</layer>
		<layer id="291" name="Mul_152" type="Multiply" version="opset1">
			<data auto_broadcast="numpy"/>
			<input>
				<port id="0" precision="FP16">
					<dim>1</dim>
					<dim>480</dim>
					<dim>6</dim>
					<dim>10</dim>
				</port>
				<port id="1" precision="FP16">
					<dim>1</dim>
					<dim>480</dim>
					<dim>6</dim>
					<dim>10</dim>
				</port>
			</input>
			<output>
				<port id="2" names="571" precision="FP16">
					<dim>1</dim>
					<dim>480</dim>
					<dim>6</dim>
					<dim>10</dim>
				</port>
			</output>
		</layer>
		<layer id="292" name="1037" type="Const" version="opset1">
			<data element_type="f16" offset="455646" shape="480, 1, 1, 3, 3" size="8640"/>
			<output>
				<port id="0" names="1037" precision="FP16">
					<dim>480</dim>
					<dim>1</dim>
					<dim>1</dim>
					<dim>3</dim>
					<dim>3</dim>
				</port>
			</output>
		</layer>
		<layer id="293" name="Conv_153/WithoutBiases" type="GroupConvolution" version="opset1">
			<data auto_pad="explicit" dilations="1, 1" pads_begin="1, 1" pads_end="1, 1" strides="1, 1"/>
			<input>
				<port id="0" precision="FP16">
					<dim>1</dim>
					<dim>480</dim>
					<dim>6</dim>
					<dim>10</dim>
				</port>
				<port id="1" precision="FP16">
					<dim>480</dim>
					<dim>1</dim>
					<dim>1</dim>
					<dim>3</dim>
					<dim>3</dim>
				</port>
			</input>
			<output>
				<port id="2" precision="FP16">
					<dim>1</dim>
					<dim>480</dim>
					<dim>6</dim>
					<dim>10</dim>
				</port>
			</output>
		</layer>
		<layer id="294" name="Conv_153/Dims7471" type="Const" version="opset1">
			<data element_type="f16" offset="464286" shape="1, 480, 1, 1" size="960"/>
			<output>
				<port id="0" precision="FP16">
					<dim>1</dim>
					<dim>480</dim>
					<dim>1</dim>
					<dim>1</dim>
				</port>
			</output>
		</layer>
		<layer id="295" name="Conv_153" type="Add" version="opset1">
			<data auto_broadcast="numpy"/>
			<input>
				<port id="0" precision="FP16">
					<dim>1</dim>
					<dim>480</dim>
					<dim>6</dim>
					<dim>10</dim>
				</port>
				<port id="1" precision="FP16">
					<dim>1</dim>
					<dim>480</dim>
					<dim>1</dim>
					<dim>1</dim>
				</port>
			</input>
			<output>
				<port id="2" names="1036" precision="FP16">
					<dim>1</dim>
					<dim>480</dim>
					<dim>6</dim>
					<dim>10</dim>
				</port>
			</output>
		</layer>
		<layer id="296" name="Constant_154" type="Const" version="opset1">
			<data element_type="f16" offset="976" shape="1, 1, 1, 1" size="2"/>
			<output>
				<port id="0" names="574" precision="FP16">
					<dim>1</dim>
					<dim>1</dim>
					<dim>1</dim>
					<dim>1</dim>
				</port>
			</output>
		</layer>
		<layer id="297" name="Add_155" type="Add" version="opset1">
			<data auto_broadcast="numpy"/>
			<input>
				<port id="0" precision="FP16">
					<dim>1</dim>
					<dim>480</dim>
					<dim>6</dim>
					<dim>10</dim>
				</port>
				<port id="1" precision="FP16">
					<dim>1</dim>
					<dim>1</dim>
					<dim>1</dim>
					<dim>1</dim>
				</port>
			</input>
			<output>
				<port id="2" names="575" precision="FP16">
					<dim>1</dim>
					<dim>480</dim>
					<dim>6</dim>
					<dim>10</dim>
				</port>
			</output>
		</layer>
		<layer id="298" name="Clip_158" type="Clamp" version="opset1">
			<data max="6" min="0"/>
			<input>
				<port id="0" precision="FP16">
					<dim>1</dim>
					<dim>480</dim>
					<dim>6</dim>
					<dim>10</dim>
				</port>
			</input>
			<output>
				<port id="1" names="578" precision="FP16">
					<dim>1</dim>
					<dim>480</dim>
					<dim>6</dim>
					<dim>10</dim>
				</port>
			</output>
		</layer>
		<layer id="299" name="Constant_159" type="Const" version="opset1">
			<data element_type="f16" offset="978" shape="1, 1, 1, 1" size="2"/>
			<output>
				<port id="0" names="579" precision="FP16">
					<dim>1</dim>
					<dim>1</dim>
					<dim>1</dim>
					<dim>1</dim>
				</port>
			</output>
		</layer>
		<layer id="300" name="Div_160" type="Multiply" version="opset1">
			<data auto_broadcast="numpy"/>
			<input>
				<port id="0" precision="FP16">
					<dim>1</dim>
					<dim>480</dim>
					<dim>6</dim>
					<dim>10</dim>
				</port>
				<port id="1" precision="FP16">
					<dim>1</dim>
					<dim>1</dim>
					<dim>1</dim>
					<dim>1</dim>
				</port>
			</input>
			<output>
				<port id="2" names="580" precision="FP16">
					<dim>1</dim>
					<dim>480</dim>
					<dim>6</dim>
					<dim>10</dim>
				</port>
			</output>
		</layer>
		<layer id="301" name="Mul_161" type="Multiply" version="opset1">
			<data auto_broadcast="numpy"/>
			<input>
				<port id="0" precision="FP16">
					<dim>1</dim>
					<dim>480</dim>
					<dim>6</dim>
					<dim>10</dim>
				</port>
				<port id="1" precision="FP16">
					<dim>1</dim>
					<dim>480</dim>
					<dim>6</dim>
					<dim>10</dim>
				</port>
			</input>
			<output>
				<port id="2" names="581" precision="FP16">
					<dim>1</dim>
					<dim>480</dim>
					<dim>6</dim>
					<dim>10</dim>
				</port>
			</output>
		</layer>
		<layer id="302" name="702" type="Const" version="opset1">
			<data element_type="i64" offset="20" shape="" size="8"/>
			<output>
				<port id="0" precision="I64"/>
			</output>
		</layer>
		<layer id="303" name="GlobalAveragePool_162/input_rank/shape_of" type="ShapeOf" version="opset3">
			<data output_type="i64"/>
			<input>
				<port id="0" precision="FP16">
					<dim>1</dim>
					<dim>480</dim>
					<dim>6</dim>
					<dim>10</dim>
				</port>
			</input>
			<output>
				<port id="1" precision="I64">
					<dim>4</dim>
				</port>
			</output>
		</layer>
		<layer id="304" name="GlobalAveragePool_162/input_rank/rank_of" type="ShapeOf" version="opset3">
			<data output_type="i64"/>
			<input>
				<port id="0" precision="I64">
					<dim>4</dim>
				</port>
			</input>
			<output>
				<port id="1" precision="I64">
					<dim>1</dim>
				</port>
			</output>
		</layer>
		<layer id="305" name="GlobalAveragePool_162/input_rank/0d_rank_of/value" type="Const" version="opset1">
			<data element_type="i64" offset="24308" shape="1" size="8"/>
			<output>
				<port id="0" precision="I64">
					<dim>1</dim>
				</port>
			</output>
		</layer>
		<layer id="306" name="GlobalAveragePool_162/input_rank" type="Squeeze" version="opset1">
			<input>
				<port id="0" precision="I64">
					<dim>1</dim>
				</port>
				<port id="1" precision="I64">
					<dim>1</dim>
				</port>
			</input>
			<output>
				<port id="2" precision="I64"/>
			</output>
		</layer>
		<layer id="307" name="704" type="Const" version="opset1">
			<data element_type="i64" offset="36" shape="" size="8"/>
			<output>
				<port id="0" precision="I64"/>
			</output>
		</layer>
		<layer id="308" name="GlobalAveragePool_162/global_pooling_reduce_axis" type="Range" version="opset4">
			<data output_type="i64"/>
			<input>
				<port id="0" precision="I64"/>
				<port id="1" precision="I64"/>
				<port id="2" precision="I64"/>
			</input>
			<output>
				<port id="3" precision="I64">
					<dim>2</dim>
				</port>
			</output>
		</layer>
		<layer id="309" name="GlobalAveragePool_162/reduce" type="ReduceMean" version="opset1">
			<data keep_dims="true"/>
			<input>
				<port id="0" precision="FP16">
					<dim>1</dim>
					<dim>480</dim>
					<dim>6</dim>
					<dim>10</dim>
				</port>
				<port id="1" precision="I64">
					<dim>2</dim>
				</port>
			</input>
			<output>
				<port id="2" names="582" precision="FP16">
					<dim>1</dim>
					<dim>480</dim>
					<dim>1</dim>
					<dim>1</dim>
				</port>
			</output>
		</layer>
		<layer id="310" name="backbone.features.11.block.2.fc1.weight" type="Const" version="opset1">
			<data element_type="f16" offset="465246" shape="120, 480, 1, 1" size="115200"/>
			<output>
				<port id="0" names="backbone.features.11.block.2.fc1.weight" precision="FP16">
					<dim>120</dim>
					<dim>480</dim>
					<dim>1</dim>
					<dim>1</dim>
				</port>
			</output>
		</layer>
		<layer id="311" name="Conv_163/WithoutBiases" type="Convolution" version="opset1">
			<data auto_pad="explicit" dilations="1, 1" pads_begin="0, 0" pads_end="0, 0" strides="1, 1"/>
			<input>
				<port id="0" precision="FP16">
					<dim>1</dim>
					<dim>480</dim>
					<dim>1</dim>
					<dim>1</dim>
				</port>
				<port id="1" precision="FP16">
					<dim>120</dim>
					<dim>480</dim>
					<dim>1</dim>
					<dim>1</dim>
				</port>
			</input>
			<output>
				<port id="2" precision="FP16">
					<dim>1</dim>
					<dim>120</dim>
					<dim>1</dim>
					<dim>1</dim>
				</port>
			</output>
		</layer>
		<layer id="312" name="Conv_163/Dims7273" type="Const" version="opset1">
			<data element_type="f16" offset="580446" shape="1, 120, 1, 1" size="240"/>
			<output>
				<port id="0" precision="FP16">
					<dim>1</dim>
					<dim>120</dim>
					<dim>1</dim>
					<dim>1</dim>
				</port>
			</output>
		</layer>
		<layer id="313" name="Conv_163" type="Add" version="opset1">
			<data auto_broadcast="numpy"/>
			<input>
				<port id="0" precision="FP16">
					<dim>1</dim>
					<dim>120</dim>
					<dim>1</dim>
					<dim>1</dim>
				</port>
				<port id="1" precision="FP16">
					<dim>1</dim>
					<dim>120</dim>
					<dim>1</dim>
					<dim>1</dim>
				</port>
			</input>
			<output>
				<port id="2" names="583" precision="FP16">
					<dim>1</dim>
					<dim>120</dim>
					<dim>1</dim>
					<dim>1</dim>
				</port>
			</output>
		</layer>
		<layer id="314" name="Relu_164" type="ReLU" version="opset1">
			<input>
				<port id="0" precision="FP16">
					<dim>1</dim>
					<dim>120</dim>
					<dim>1</dim>
					<dim>1</dim>
				</port>
			</input>
			<output>
				<port id="1" names="584" precision="FP16">
					<dim>1</dim>
					<dim>120</dim>
					<dim>1</dim>
					<dim>1</dim>
				</port>
			</output>
		</layer>
		<layer id="315" name="backbone.features.11.block.2.fc2.weight" type="Const" version="opset1">
			<data element_type="f16" offset="580686" shape="480, 120, 1, 1" size="115200"/>
			<output>
				<port id="0" names="backbone.features.11.block.2.fc2.weight" precision="FP16">
					<dim>480</dim>
					<dim>120</dim>
					<dim>1</dim>
					<dim>1</dim>
				</port>
			</output>
		</layer>
		<layer id="316" name="Conv_165/WithoutBiases" type="Convolution" version="opset1">
			<data auto_pad="explicit" dilations="1, 1" pads_begin="0, 0" pads_end="0, 0" strides="1, 1"/>
			<input>
				<port id="0" precision="FP16">
					<dim>1</dim>
					<dim>120</dim>
					<dim>1</dim>
					<dim>1</dim>
				</port>
				<port id="1" precision="FP16">
					<dim>480</dim>
					<dim>120</dim>
					<dim>1</dim>
					<dim>1</dim>
				</port>
			</input>
			<output>
				<port id="2" precision="FP16">
					<dim>1</dim>
					<dim>480</dim>
					<dim>1</dim>
					<dim>1</dim>
				</port>
			</output>
		</layer>
		<layer id="317" name="Conv_165/Dims7363" type="Const" version="opset1">
			<data element_type="f16" offset="695886" shape="1, 480, 1, 1" size="960"/>
			<output>
				<port id="0" precision="FP16">
					<dim>1</dim>
					<dim>480</dim>
					<dim>1</dim>
					<dim>1</dim>
				</port>
			</output>
		</layer>
		<layer id="318" name="Conv_165" type="Add" version="opset1">
			<data auto_broadcast="numpy"/>
			<input>
				<port id="0" precision="FP16">
					<dim>1</dim>
					<dim>480</dim>
					<dim>1</dim>
					<dim>1</dim>
				</port>
				<port id="1" precision="FP16">
					<dim>1</dim>
					<dim>480</dim>
					<dim>1</dim>
					<dim>1</dim>
				</port>
			</input>
			<output>
				<port id="2" names="585" precision="FP16">
					<dim>1</dim>
					<dim>480</dim>
					<dim>1</dim>
					<dim>1</dim>
				</port>
			</output>
		</layer>
		<layer id="319" name="HardSigmoid_166/HardSigmoid__input_port_1/value" type="Const" version="opset1">
			<data element_type="f16" offset="978" shape="" size="2"/>
			<output>
				<port id="0" precision="FP16"/>
			</output>
		</layer>
		<layer id="320" name="HardSigmoid_166/HardSigmoid__input_port_2/value" type="Const" version="opset1">
			<data element_type="f16" offset="31420" shape="" size="2"/>
			<output>
				<port id="0" precision="FP16"/>
			</output>
		</layer>
		<layer id="321" name="HardSigmoid_166/HardSigmoid_" type="HardSigmoid" version="opset1">
			<input>
				<port id="0" precision="FP16">
					<dim>1</dim>
					<dim>480</dim>
					<dim>1</dim>
					<dim>1</dim>
				</port>
				<port id="1" precision="FP16"/>
				<port id="2" precision="FP16"/>
			</input>
			<output>
				<port id="3" names="586" precision="FP16">
					<dim>1</dim>
					<dim>480</dim>
					<dim>1</dim>
					<dim>1</dim>
				</port>
			</output>
		</layer>
		<layer id="322" name="Mul_167" type="Multiply" version="opset1">
			<data auto_broadcast="numpy"/>
			<input>
				<port id="0" precision="FP16">
					<dim>1</dim>
					<dim>480</dim>
					<dim>1</dim>
					<dim>1</dim>
				</port>
				<port id="1" precision="FP16">
					<dim>1</dim>
					<dim>480</dim>
					<dim>6</dim>
					<dim>10</dim>
				</port>
			</input>
			<output>
				<port id="2" names="587" precision="FP16">
					<dim>1</dim>
					<dim>480</dim>
					<dim>6</dim>
					<dim>10</dim>
				</port>
			</output>
		</layer>
		<layer id="323" name="1040" type="Const" version="opset1">
			<data element_type="f16" offset="696846" shape="112, 480, 1, 1" size="107520"/>
			<output>
				<port id="0" names="1040" precision="FP16">
					<dim>112</dim>
					<dim>480</dim>
					<dim>1</dim>
					<dim>1</dim>
				</port>
			</output>
		</layer>
		<layer id="324" name="Conv_168/WithoutBiases" type="Convolution" version="opset1">
			<data auto_pad="explicit" dilations="1, 1" pads_begin="0, 0" pads_end="0, 0" strides="1, 1"/>
			<input>
				<port id="0" precision="FP16">
					<dim>1</dim>
					<dim>480</dim>
					<dim>6</dim>
					<dim>10</dim>
				</port>
				<port id="1" precision="FP16">
					<dim>112</dim>
					<dim>480</dim>
					<dim>1</dim>
					<dim>1</dim>
				</port>
			</input>
			<output>
				<port id="2" precision="FP16">
					<dim>1</dim>
					<dim>112</dim>
					<dim>6</dim>
					<dim>10</dim>
				</port>
			</output>
		</layer>
		<layer id="325" name="Conv_168/Dims7501" type="Const" version="opset1">
			<data element_type="f16" offset="804366" shape="1, 112, 1, 1" size="224"/>
			<output>
				<port id="0" precision="FP16">
					<dim>1</dim>
					<dim>112</dim>
					<dim>1</dim>
					<dim>1</dim>
				</port>
			</output>
		</layer>
		<layer id="326" name="Conv_168" type="Add" version="opset1">
			<data auto_broadcast="numpy"/>
			<input>
				<port id="0" precision="FP16">
					<dim>1</dim>
					<dim>112</dim>
					<dim>6</dim>
					<dim>10</dim>
				</port>
				<port id="1" precision="FP16">
					<dim>1</dim>
					<dim>112</dim>
					<dim>1</dim>
					<dim>1</dim>
				</port>
			</input>
			<output>
				<port id="2" names="1039" precision="FP16">
					<dim>1</dim>
					<dim>112</dim>
					<dim>6</dim>
					<dim>10</dim>
				</port>
			</output>
		</layer>
		<layer id="327" name="1043" type="Const" version="opset1">
			<data element_type="f16" offset="804590" shape="672, 112, 1, 1" size="150528"/>
			<output>
				<port id="0" names="1043" precision="FP16">
					<dim>672</dim>
					<dim>112</dim>
					<dim>1</dim>
					<dim>1</dim>
				</port>
			</output>
		</layer>
		<layer id="328" name="Conv_169/WithoutBiases" type="Convolution" version="opset1">
			<data auto_pad="explicit" dilations="1, 1" pads_begin="0, 0" pads_end="0, 0" strides="1, 1"/>
			<input>
				<port id="0" precision="FP16">
					<dim>1</dim>
					<dim>112</dim>
					<dim>6</dim>
					<dim>10</dim>
				</port>
				<port id="1" precision="FP16">
					<dim>672</dim>
					<dim>112</dim>
					<dim>1</dim>
					<dim>1</dim>
				</port>
			</input>
			<output>
				<port id="2" precision="FP16">
					<dim>1</dim>
					<dim>672</dim>
					<dim>6</dim>
					<dim>10</dim>
				</port>
			</output>
		</layer>
		<layer id="329" name="Conv_169/Dims7423" type="Const" version="opset1">
			<data element_type="f16" offset="955118" shape="1, 672, 1, 1" size="1344"/>
			<output>
				<port id="0" precision="FP16">
					<dim>1</dim>
					<dim>672</dim>
					<dim>1</dim>
					<dim>1</dim>
				</port>
			</output>
		</layer>
		<layer id="330" name="Conv_169" type="Add" version="opset1">
			<data auto_broadcast="numpy"/>
			<input>
				<port id="0" precision="FP16">
					<dim>1</dim>
					<dim>672</dim>
					<dim>6</dim>
					<dim>10</dim>
				</port>
				<port id="1" precision="FP16">
					<dim>1</dim>
					<dim>672</dim>
					<dim>1</dim>
					<dim>1</dim>
				</port>
			</input>
			<output>
				<port id="2" names="1042" precision="FP16">
					<dim>1</dim>
					<dim>672</dim>
					<dim>6</dim>
					<dim>10</dim>
				</port>
			</output>
		</layer>
		<layer id="331" name="Constant_170" type="Const" version="opset1">
			<data element_type="f16" offset="976" shape="1, 1, 1, 1" size="2"/>
			<output>
				<port id="0" names="592" precision="FP16">
					<dim>1</dim>
					<dim>1</dim>
					<dim>1</dim>
					<dim>1</dim>
				</port>
			</output>
		</layer>
		<layer id="332" name="Add_171" type="Add" version="opset1">
			<data auto_broadcast="numpy"/>
			<input>
				<port id="0" precision="FP16">
					<dim>1</dim>
					<dim>672</dim>
					<dim>6</dim>
					<dim>10</dim>
				</port>
				<port id="1" precision="FP16">
					<dim>1</dim>
					<dim>1</dim>
					<dim>1</dim>
					<dim>1</dim>
				</port>
			</input>
			<output>
				<port id="2" names="593" precision="FP16">
					<dim>1</dim>
					<dim>672</dim>
					<dim>6</dim>
					<dim>10</dim>
				</port>
			</output>
		</layer>
		<layer id="333" name="Clip_174" type="Clamp" version="opset1">
			<data max="6" min="0"/>
			<input>
				<port id="0" precision="FP16">
					<dim>1</dim>
					<dim>672</dim>
					<dim>6</dim>
					<dim>10</dim>
				</port>
			</input>
			<output>
				<port id="1" names="596" precision="FP16">
					<dim>1</dim>
					<dim>672</dim>
					<dim>6</dim>
					<dim>10</dim>
				</port>
			</output>
		</layer>
		<layer id="334" name="Constant_175" type="Const" version="opset1">
			<data element_type="f16" offset="978" shape="1, 1, 1, 1" size="2"/>
			<output>
				<port id="0" names="597" precision="FP16">
					<dim>1</dim>
					<dim>1</dim>
					<dim>1</dim>
					<dim>1</dim>
				</port>
			</output>
		</layer>
		<layer id="335" name="Div_176" type="Multiply" version="opset1">
			<data auto_broadcast="numpy"/>
			<input>
				<port id="0" precision="FP16">
					<dim>1</dim>
					<dim>672</dim>
					<dim>6</dim>
					<dim>10</dim>
				</port>
				<port id="1" precision="FP16">
					<dim>1</dim>
					<dim>1</dim>
					<dim>1</dim>
					<dim>1</dim>
				</port>
			</input>
			<output>
				<port id="2" names="598" precision="FP16">
					<dim>1</dim>
					<dim>672</dim>
					<dim>6</dim>
					<dim>10</dim>
				</port>
			</output>
		</layer>
		<layer id="336" name="Mul_177" type="Multiply" version="opset1">
			<data auto_broadcast="numpy"/>
			<input>
				<port id="0" precision="FP16">
					<dim>1</dim>
					<dim>672</dim>
					<dim>6</dim>
					<dim>10</dim>
				</port>
				<port id="1" precision="FP16">
					<dim>1</dim>
					<dim>672</dim>
					<dim>6</dim>
					<dim>10</dim>
				</port>
			</input>
			<output>
				<port id="2" names="599" precision="FP16">
					<dim>1</dim>
					<dim>672</dim>
					<dim>6</dim>
					<dim>10</dim>
				</port>
			</output>
		</layer>
		<layer id="337" name="1046" type="Const" version="opset1">
			<data element_type="f16" offset="956462" shape="672, 1, 1, 3, 3" size="12096"/>
			<output>
				<port id="0" names="1046" precision="FP16">
					<dim>672</dim>
					<dim>1</dim>
					<dim>1</dim>
					<dim>3</dim>
					<dim>3</dim>
				</port>
			</output>
		</layer>
		<layer id="338" name="Conv_178/WithoutBiases" type="GroupConvolution" version="opset1">
			<data auto_pad="explicit" dilations="1, 1" pads_begin="1, 1" pads_end="1, 1" strides="1, 1"/>
			<input>
				<port id="0" precision="FP16">
					<dim>1</dim>
					<dim>672</dim>
					<dim>6</dim>
					<dim>10</dim>
				</port>
				<port id="1" precision="FP16">
					<dim>672</dim>
					<dim>1</dim>
					<dim>1</dim>
					<dim>3</dim>
					<dim>3</dim>
				</port>
			</input>
			<output>
				<port id="2" precision="FP16">
					<dim>1</dim>
					<dim>672</dim>
					<dim>6</dim>
					<dim>10</dim>
				</port>
			</output>
		</layer>
		<layer id="339" name="Conv_178/Dims7309" type="Const" version="opset1">
			<data element_type="f16" offset="968558" shape="1, 672, 1, 1" size="1344"/>
			<output>
				<port id="0" precision="FP16">
					<dim>1</dim>
					<dim>672</dim>
					<dim>1</dim>
					<dim>1</dim>
				</port>
			</output>
		</layer>
		<layer id="340" name="Conv_178" type="Add" version="opset1">
			<data auto_broadcast="numpy"/>
			<input>
				<port id="0" precision="FP16">
					<dim>1</dim>
					<dim>672</dim>
					<dim>6</dim>
					<dim>10</dim>
				</port>
				<port id="1" precision="FP16">
					<dim>1</dim>
					<dim>672</dim>
					<dim>1</dim>
					<dim>1</dim>
				</port>
			</input>
			<output>
				<port id="2" names="1045" precision="FP16">
					<dim>1</dim>
					<dim>672</dim>
					<dim>6</dim>
					<dim>10</dim>
				</port>
			</output>
		</layer>
		<layer id="341" name="Constant_179" type="Const" version="opset1">
			<data element_type="f16" offset="976" shape="1, 1, 1, 1" size="2"/>
			<output>
				<port id="0" names="602" precision="FP16">
					<dim>1</dim>
					<dim>1</dim>
					<dim>1</dim>
					<dim>1</dim>
				</port>
			</output>
		</layer>
		<layer id="342" name="Add_180" type="Add" version="opset1">
			<data auto_broadcast="numpy"/>
			<input>
				<port id="0" precision="FP16">
					<dim>1</dim>
					<dim>672</dim>
					<dim>6</dim>
					<dim>10</dim>
				</port>
				<port id="1" precision="FP16">
					<dim>1</dim>
					<dim>1</dim>
					<dim>1</dim>
					<dim>1</dim>
				</port>
			</input>
			<output>
				<port id="2" names="603" precision="FP16">
					<dim>1</dim>
					<dim>672</dim>
					<dim>6</dim>
					<dim>10</dim>
				</port>
			</output>
		</layer>
		<layer id="343" name="Clip_183" type="Clamp" version="opset1">
			<data max="6" min="0"/>
			<input>
				<port id="0" precision="FP16">
					<dim>1</dim>
					<dim>672</dim>
					<dim>6</dim>
					<dim>10</dim>
				</port>
			</input>
			<output>
				<port id="1" names="606" precision="FP16">
					<dim>1</dim>
					<dim>672</dim>
					<dim>6</dim>
					<dim>10</dim>
				</port>
			</output>
		</layer>
		<layer id="344" name="Constant_184" type="Const" version="opset1">
			<data element_type="f16" offset="978" shape="1, 1, 1, 1" size="2"/>
			<output>
				<port id="0" names="607" precision="FP16">
					<dim>1</dim>
					<dim>1</dim>
					<dim>1</dim>
					<dim>1</dim>
				</port>
			</output>
		</layer>
		<layer id="345" name="Div_185" type="Multiply" version="opset1">
			<data auto_broadcast="numpy"/>
			<input>
				<port id="0" precision="FP16">
					<dim>1</dim>
					<dim>672</dim>
					<dim>6</dim>
					<dim>10</dim>
				</port>
				<port id="1" precision="FP16">
					<dim>1</dim>
					<dim>1</dim>
					<dim>1</dim>
					<dim>1</dim>
				</port>
			</input>
			<output>
				<port id="2" names="608" precision="FP16">
					<dim>1</dim>
					<dim>672</dim>
					<dim>6</dim>
					<dim>10</dim>
				</port>
			</output>
		</layer>
		<layer id="346" name="Mul_186" type="Multiply" version="opset1">
			<data auto_broadcast="numpy"/>
			<input>
				<port id="0" precision="FP16">
					<dim>1</dim>
					<dim>672</dim>
					<dim>6</dim>
					<dim>10</dim>
				</port>
				<port id="1" precision="FP16">
					<dim>1</dim>
					<dim>672</dim>
					<dim>6</dim>
					<dim>10</dim>
				</port>
			</input>
			<output>
				<port id="2" names="609" precision="FP16">
					<dim>1</dim>
					<dim>672</dim>
					<dim>6</dim>
					<dim>10</dim>
				</port>
			</output>
		</layer>
		<layer id="347" name="707" type="Const" version="opset1">
			<data element_type="i64" offset="20" shape="" size="8"/>
			<output>
				<port id="0" precision="I64"/>
			</output>
		</layer>
		<layer id="348" name="GlobalAveragePool_187/input_rank/shape_of" type="ShapeOf" version="opset3">
			<data output_type="i64"/>
			<input>
				<port id="0" precision="FP16">
					<dim>1</dim>
					<dim>672</dim>
					<dim>6</dim>
					<dim>10</dim>
				</port>
			</input>
			<output>
				<port id="1" precision="I64">
					<dim>4</dim>
				</port>
			</output>
		</layer>
		<layer id="349" name="GlobalAveragePool_187/input_rank/rank_of" type="ShapeOf" version="opset3">
			<data output_type="i64"/>
			<input>
				<port id="0" precision="I64">
					<dim>4</dim>
				</port>
			</input>
			<output>
				<port id="1" precision="I64">
					<dim>1</dim>
				</port>
			</output>
		</layer>
		<layer id="350" name="GlobalAveragePool_187/input_rank/0d_rank_of/value" type="Const" version="opset1">
			<data element_type="i64" offset="24308" shape="1" size="8"/>
			<output>
				<port id="0" precision="I64">
					<dim>1</dim>
				</port>
			</output>
		</layer>
		<layer id="351" name="GlobalAveragePool_187/input_rank" type="Squeeze" version="opset1">
			<input>
				<port id="0" precision="I64">
					<dim>1</dim>
				</port>
				<port id="1" precision="I64">
					<dim>1</dim>
				</port>
			</input>
			<output>
				<port id="2" precision="I64"/>
			</output>
		</layer>
		<layer id="352" name="709" type="Const" version="opset1">
			<data element_type="i64" offset="36" shape="" size="8"/>
			<output>
				<port id="0" precision="I64"/>
			</output>
		</layer>
		<layer id="353" name="GlobalAveragePool_187/global_pooling_reduce_axis" type="Range" version="opset4">
			<data output_type="i64"/>
			<input>
				<port id="0" precision="I64"/>
				<port id="1" precision="I64"/>
				<port id="2" precision="I64"/>
			</input>
			<output>
				<port id="3" precision="I64">
					<dim>2</dim>
				</port>
			</output>
		</layer>
		<layer id="354" name="GlobalAveragePool_187/reduce" type="ReduceMean" version="opset1">
			<data keep_dims="true"/>
			<input>
				<port id="0" precision="FP16">
					<dim>1</dim>
					<dim>672</dim>
					<dim>6</dim>
					<dim>10</dim>
				</port>
				<port id="1" precision="I64">
					<dim>2</dim>
				</port>
			</input>
			<output>
				<port id="2" names="610" precision="FP16">
					<dim>1</dim>
					<dim>672</dim>
					<dim>1</dim>
					<dim>1</dim>
				</port>
			</output>
		</layer>
		<layer id="355" name="backbone.features.12.block.2.fc1.weight" type="Const" version="opset1">
			<data element_type="f16" offset="969902" shape="168, 672, 1, 1" size="225792"/>
			<output>
				<port id="0" names="backbone.features.12.block.2.fc1.weight" precision="FP16">
					<dim>168</dim>
					<dim>672</dim>
					<dim>1</dim>
					<dim>1</dim>
				</port>
			</output>
		</layer>
		<layer id="356" name="Conv_188/WithoutBiases" type="Convolution" version="opset1">
			<data auto_pad="explicit" dilations="1, 1" pads_begin="0, 0" pads_end="0, 0" strides="1, 1"/>
			<input>
				<port id="0" precision="FP16">
					<dim>1</dim>
					<dim>672</dim>
					<dim>1</dim>
					<dim>1</dim>
				</port>
				<port id="1" precision="FP16">
					<dim>168</dim>
					<dim>672</dim>
					<dim>1</dim>
					<dim>1</dim>
				</port>
			</input>
			<output>
				<port id="2" precision="FP16">
					<dim>1</dim>
					<dim>168</dim>
					<dim>1</dim>
					<dim>1</dim>
				</port>
			</output>
		</layer>
		<layer id="357" name="Conv_188/Dims7033" type="Const" version="opset1">
			<data element_type="f16" offset="1195694" shape="1, 168, 1, 1" size="336"/>
			<output>
				<port id="0" precision="FP16">
					<dim>1</dim>
					<dim>168</dim>
					<dim>1</dim>
					<dim>1</dim>
				</port>
			</output>
		</layer>
		<layer id="358" name="Conv_188" type="Add" version="opset1">
			<data auto_broadcast="numpy"/>
			<input>
				<port id="0" precision="FP16">
					<dim>1</dim>
					<dim>168</dim>
					<dim>1</dim>
					<dim>1</dim>
				</port>
				<port id="1" precision="FP16">
					<dim>1</dim>
					<dim>168</dim>
					<dim>1</dim>
					<dim>1</dim>
				</port>
			</input>
			<output>
				<port id="2" names="611" precision="FP16">
					<dim>1</dim>
					<dim>168</dim>
					<dim>1</dim>
					<dim>1</dim>
				</port>
			</output>
		</layer>
		<layer id="359" name="Relu_189" type="ReLU" version="opset1">
			<input>
				<port id="0" precision="FP16">
					<dim>1</dim>
					<dim>168</dim>
					<dim>1</dim>
					<dim>1</dim>
				</port>
			</input>
			<output>
				<port id="1" names="612" precision="FP16">
					<dim>1</dim>
					<dim>168</dim>
					<dim>1</dim>
					<dim>1</dim>
				</port>
			</output>
…
		<edge from-layer="285" from-port="2" to-layer="291" to-port="0"/>
		<edge from-layer="285" from-port="2" to-layer="287" to-port="0"/>
		<edge from-layer="286" from-port="0" to-layer="287" to-port="1"/>
		<edge from-layer="287" from-port="2" to-layer="288" to-port="0"/>
		<edge from-layer="288" from-port="1" to-layer="290" to-port="0"/>
		<edge from-layer="289" from-port="0" to-layer="290" to-port="1"/>
		<edge from-layer="290" from-port="2" to-layer="291" to-port="1"/>
		<edge from-layer="291" from-port="2" to-layer="293" to-port="0"/>
		<edge from-layer="292" from-port="0" to-layer="293" to-port="1"/>
		<edge from-layer="293" from-port="2" to-layer="295" to-port="0"/>
		<edge from-layer="294" from-port="0" to-layer="295" to-port="1"/>
		<edge from-layer="295" from-port="2" to-layer="297" to-port="0"/>
		<edge from-layer="295" from-port="2" to-layer="301" to-port="0"/>
		<edge from-layer="296" from-port="0" to-layer="297" to-port="1"/>
		<edge from-layer="297" from-port="2" to-layer="298" to-port="0"/>
		<edge from-layer="298" from-port="1" to-layer="300" to-port="0"/>
		<edge from-layer="299" from-port="0" to-layer="300" to-port="1"/>
		<edge from-layer="300" from-port="2" to-layer="301" to-port="1"/>
		<edge from-layer="301" from-port="2" to-layer="303" to-port="0"/>
		<edge from-layer="301" from-port="2" to-layer="309" to-port="0"/>
		<edge from-layer="301" from-port="2" to-layer="322" to-port="1"/>
		<edge from-layer="302" from-port="0" to-layer="308" to-port="0"/>
		<edge from-layer="303" from-port="1" to-layer="304" to-port="0"/>
		<edge from-layer="304" from-port="1" to-layer="306" to-port="0"/>
		<edge from-layer="305" from-port="0" to-layer="306" to-port="1"/>
		<edge from-layer="306" from-port="2" to-layer="308" to-port="1"/>
		<edge from-layer="307" from-port="0" to-layer="308" to-port="2"/>
		<edge from-layer="308" from-port="3" to-layer="309" to-port="1"/>
		<edge from-layer="309" from-port="2" to-layer="311" to-port="0"/>
		<edge from-layer="310" from-port="0" to-layer="311" to-port="1"/>
		<edge from-layer="311" from-port="2" to-layer="313" to-port="0"/>
		<edge from-layer="312" from-port="0" to-layer="313" to-port="1"/>
		<edge from-layer="313" from-port="2" to-layer="314" to-port="0"/>
		<edge from-layer="314" from-port="1" to-layer="316" to-port="0"/>
		<edge from-layer="315" from-port="0" to-layer="316" to-port="1"/>
		<edge from-layer="316" from-port="2" to-layer="318" to-port="0"/>
		<edge from-layer="317" from-port="0" to-layer="318" to-port="1"/>
		<edge from-layer="318" from-port="2" to-layer="321" to-port="0"/>
		<edge from-layer="319" from-port="0" to-layer="321" to-port="1"/>
		<edge from-layer="320" from-port="0" to-layer="321" to-port="2"/>
		<edge from-layer="321" from-port="3" to-layer="322" to-port="0"/>
		<edge from-layer="322" from-port="2" to-layer="324" to-port="0"/>
		<edge from-layer="323" from-port="0" to-layer="324" to-port="1"/>
		<edge from-layer="324" from-port="2" to-layer="326" to-port="0"/>
		<edge from-layer="325" from-port="0" to-layer="326" to-port="1"/>
		<edge from-layer="326" from-port="2" to-layer="372" to-port="1"/>
		<edge from-layer="326" from-port="2" to-layer="328" to-port="0"/>
		<edge from-layer="327" from-port="0" to-layer="328" to-port="1"/>
		<edge from-layer="328" from-port="2" to-layer="330" to-port="0"/>
		<edge from-layer="329" from-port="0" to-layer="330" to-port="1"/>
		<edge from-layer="330" from-port="2" to-layer="336" to-port="0"/>
		<edge from-layer="330" from-port="2" to-layer="332" to-port="0"/>
		<edge from-layer="331" from-port="0" to-layer="332" to-port="1"/>
		<edge from-layer="332" from-port="2" to-layer="333" to-port="0"/>
		<edge from-layer="333" from-port="1" to-layer="335" to-port="0"/>
		<edge from-layer="334" from-port="0" to-layer="335" to-port="1"/>
		<edge from-layer="335" from-port="2" to-layer="336" to-port="1"/>
		<edge from-layer="336" from-port="2" to-layer="338" to-port="0"/>
		<edge from-layer="337" from-port="0" to-layer="338" to-port="1"/>
		<edge from-layer="338" from-port="2" to-layer="340" to-port="0"/>
		<edge from-layer="339" from-port="0" to-layer="340" to-port="1"/>
		<edge from-layer="340" from-port="2" to-layer="342" to-port="0"/>
		<edge from-layer="340" from-port="2" to-layer="346" to-port="0"/>
		<edge from-layer="341" from-port="0" to-layer="342" to-port="1"/>
		<edge from-layer="342" from-port="2" to-layer="343" to-port="0"/>
		<edge from-layer="343" from-port="1" to-layer="345" to-port="0"/>
		<edge from-layer="344" from-port="0" to-layer="345" to-port="1"/>
		<edge from-layer="345" from-port="2" to-layer="346" to-port="1"/>
		<edge from-layer="346" from-port="2" to-layer="354" to-port="0"/>
		<edge from-layer="346" from-port="2" to-layer="367" to-port="1"/>
		<edge from-layer="346" from-port="2" to-layer="348" to-port="0"/>
		<edge from-layer="347" from-port="0" to-layer="353" to-port="0"/>
		<edge from-layer="348" from-port="1" to-layer="349" to-port="0"/>
		<edge from-layer="349" from-port="1" to-layer="351" to-port="0"/>
		<edge from-layer="350" from-port="0" to-layer="351" to-port="1"/>
		<edge from-layer="351" from-port="2" to-layer="353" to-port="1"/>
		<edge from-layer="352" from-port="0" to-layer="353" to-port="2"/>
		<edge from-layer="353" from-port="3" to-layer="354" to-port="1"/>
		<edge from-layer="354" from-port="2" to-layer="356" to-port="0"/>
		<edge from-layer="355" from-port="0" to-layer="356" to-port="1"/>
		<edge from-layer="356" from-port="2" to-layer="358" to-port="0"/>
		<edge from-layer="357" from-port="0" to-layer="358" to-port="1"/>
		<edge from-layer="358" from-port="2" to-layer="359" to-port="0"/>
		<edge from-layer="359" from-port="1" to-layer="361" to-port="0"/>
		<edge from-layer="360" from-port="0" to-layer="361" to-port="1"/>
		<edge from-layer="361" from-port="2" to-layer="363" to-port="0"/>
		<edge from-layer="362" from-port="0" to-layer="363" to-port="1"/>
		<edge from-layer="363" from-port="2" to-layer="366" to-port="0"/>
		<edge from-layer="364" from-port="0" to-layer="366" to-port="1"/>
		<edge from-layer="365" from-port="0" to-layer="366" to-port="2"/>
		<edge from-layer="366" from-port="3" to-layer="367" to-port="0"/>
		<edge from-layer="367" from-port="2" to-layer="369" to-port="0"/>
		<edge from-layer="368" from-port="0" to-layer="369" to-port="1"/>
		<edge from-layer="369" from-port="2" to-layer="371" to-port="0"/>
		<edge from-layer="370" from-port="0" to-layer="371" to-port="1"/>
		<edge from-layer="371" from-port="2" to-layer="372" to-port="0"/>
		<edge from-layer="372" from-port="2" to-layer="374" to-port="0"/>
		<edge from-layer="373" from-port="0" to-layer="374" to-port="1"/>
		<edge from-layer="374" from-port="2" to-layer="376" to-port="0"/>
		<edge from-layer="375" from-port="0" to-layer="376" to-port="1"/>
		<edge from-layer="376" from-port="2" to-layer="382" to-port="0"/>
		<edge from-layer="376" from-port="2" to-layer="378" to-port="0"/>
		<edge from-layer="377" from-port="0" to-layer="378" to-port="1"/>
		<edge from-layer="378" from-port="2" to-layer="379" to-port="0"/>
		<edge from-layer="379" from-port="1" to-layer="381" to-port="0"/>
		<edge from-layer="380" from-port="0" to-layer="381" to-port="1"/>
		<edge from-layer="381" from-port="2" to-layer="382" to-port="1"/>
		<edge from-layer="382" from-port="2" to-layer="384" to-port="0"/>
		<edge from-layer="383" from-port="0" to-layer="384" to-port="1"/>
		<edge from-layer="384" from-port="2" to-layer="386" to-port="0"/>
		<edge from-layer="385" from-port="0" to-layer="386" to-port="1"/>
		<edge from-layer="386" from-port="2" to-layer="392" to-port="0"/>
		<edge from-layer="386" from-port="2" to-layer="388" to-port="0"/>
		<edge from-layer="387" from-port="0" to-layer="388" to-port="1"/>
		<edge from-layer="388" from-port="2" to-layer="389" to-port="0"/>
		<edge from-layer="389" from-port="1" to-layer="391" to-port="0"/>
		<edge from-layer="390" from-port="0" to-layer="391" to-port="1"/>
		<edge from-layer="391" from-port="2" to-layer="392" to-port="1"/>
		<edge from-layer="392" from-port="2" to-layer="394" to-port="0"/>
		<edge from-layer="392" from-port="2" to-layer="413" to-port="1"/>
		<edge from-layer="392" from-port="2" to-layer="400" to-port="0"/>
		<edge from-layer="393" from-port="0" to-layer="399" to-port="0"/>
		<edge from-layer="394" from-port="1" to-layer="395" to-port="0"/>
		<edge from-layer="395" from-port="1" to-layer="397" to-port="0"/>
		<edge from-layer="396" from-port="0" to-layer="397" to-port="1"/>
		<edge from-layer="397" from-port="2" to-layer="399" to-port="1"/>
		<edge from-layer="398" from-port="0" to-layer="399" to-port="2"/>
		<edge from-layer="399" from-port="3" to-layer="400" to-port="1"/>
		<edge from-layer="400" from-port="2" to-layer="402" to-port="0"/>
		<edge from-layer="401" from-port="0" to-layer="402" to-port="1"/>
		<edge from-layer="402" from-port="2" to-layer="404" to-port="0"/>
		<edge from-layer="403" from-port="0" to-layer="404" to-port="1"/>
		<edge from-layer="404" from-port="2" to-layer="405" to-port="0"/>
		<edge from-layer="405" from-port="1" to-layer="407" to-port="0"/>
		<edge from-layer="406" from-port="0" to-layer="407" to-port="1"/>
		<edge from-layer="407" from-port="2" to-layer="409" to-port="0"/>
		<edge from-layer="408" from-port="0" to-layer="409" to-port="1"/>
		<edge from-layer="409" from-port="2" to-layer="412" to-port="0"/>
		<edge from-layer="410" from-port="0" to-layer="412" to-port="1"/>
		<edge from-layer="411" from-port="0" to-layer="412" to-port="2"/>
		<edge from-layer="412" from-port="3" to-layer="413" to-port="0"/>
		<edge from-layer="413" from-port="2" to-layer="415" to-port="0"/>
		<edge from-layer="414" from-port="0" to-layer="415" to-port="1"/>
		<edge from-layer="415" from-port="2" to-layer="417" to-port="0"/>
		<edge from-layer="416" from-port="0" to-layer="417" to-port="1"/>
		<edge from-layer="417" from-port="2" to-layer="463" to-port="1"/>
		<edge from-layer="417" from-port="2" to-layer="419" to-port="0"/>
		<edge from-layer="418" from-port="0" to-layer="419" to-port="1"/>
		<edge from-layer="419" from-port="2" to-layer="421" to-port="0"/>
		<edge from-layer="420" from-port="0" to-layer="421" to-port="1"/>
		<edge from-layer="421" from-port="2" to-layer="427" to-port="0"/>
		<edge from-layer="421" from-port="2" to-layer="423" to-port="0"/>
		<edge from-layer="422" from-port="0" to-layer="423" to-port="1"/>
		<edge from-layer="423" from-port="2" to-layer="424" to-port="0"/>
		<edge from-layer="424" from-port="1" to-layer="426" to-port="0"/>
		<edge from-layer="425" from-port="0" to-layer="426" to-port="1"/>
		<edge from-layer="426" from-port="2" to-layer="427" to-port="1"/>
		<edge from-layer="427" from-port="2" to-layer="429" to-port="0"/>
		<edge from-layer="428" from-port="0" to-layer="429" to-port="1"/>
		<edge from-layer="429" from-port="2" to-layer="431" to-port="0"/>
		<edge from-layer="430" from-port="0" to-layer="431" to-port="1"/>
		<edge from-layer="431" from-port="2" to-layer="437" to-port="0"/>
		<edge from-layer="431" from-port="2" to-layer="433" to-port="0"/>
		<edge from-layer="432" from-port="0" to-layer="433" to-port="1"/>
		<edge from-layer="433" from-port="2" to-layer="434" to-port="0"/>
		<edge from-layer="434" from-port="1" to-layer="436" to-port="0"/>
		<edge from-layer="435" from-port="0" to-layer="436" to-port="1"/>
		<edge from-layer="436" from-port="2" to-layer="437" to-port="1"/>
		<edge from-layer="437" from-port="2" to-layer="439" to-port="0"/>
		<edge from-layer="437" from-port="2" to-layer="445" to-port="0"/>
		<edge from-layer="437" from-port="2" to-layer="458" to-port="1"/>
		<edge from-layer="438" from-port="0" to-layer="444" to-port="0"/>
		<edge from-layer="439" from-port="1" to-layer="440" to-port="0"/>
		<edge from-layer="440" from-port="1" to-layer="442" to-port="0"/>
		<edge from-layer="441" from-port="0" to-layer="442" to-port="1"/>
		<edge from-layer="442" from-port="2" to-layer="444" to-port="1"/>
		<edge from-layer="443" from-port="0" to-layer="444" to-port="2"/>
		<edge from-layer="444" from-port="3" to-layer="445" to-port="1"/>
		<edge from-layer="445" from-port="2" to-layer="447" to-port="0"/>
		<edge from-layer="446" from-port="0" to-layer="447" to-port="1"/>
		<edge from-layer="447" from-port="2" to-layer="449" to-port="0"/>
		<edge from-layer="448" from-port="0" to-layer="449" to-port="1"/>
		<edge from-layer="449" from-port="2" to-layer="450" to-port="0"/>
		<edge from-layer="450" from-port="1" to-layer="452" to-port="0"/>
		<edge from-layer="451" from-port="0" to-layer="452" to-port="1"/>
		<edge from-layer="452" from-port="2" to-layer="454" to-port="0"/>
		<edge from-layer="453" from-port="0" to-layer="454" to-port="1"/>
		<edge from-layer="454" from-port="2" to-layer="457" to-port="0"/>
		<edge from-layer="455" from-port="0" to-layer="457" to-port="1"/>
		<edge from-layer="456" from-port="0" to-layer="457" to-port="2"/>
		<edge from-layer="457" from-port="3" to-layer="458" to-port="0"/>
		<edge from-layer="458" from-port="2" to-layer="460" to-port="0"/>
		<edge from-layer="459" from-port="0" to-layer="460" to-port="1"/>
		<edge from-layer="460" from-port="2" to-layer="462" to-port="0"/>
		<edge from-layer="461" from-port="0" to-layer="462" to-port="1"/>
		<edge from-layer="462" from-port="2" to-layer="463" to-port="0"/>
		<edge from-layer="463" from-port="2" to-layer="509" to-port="1"/>
		<edge from-layer="463" from-port="2" to-layer="465" to-port="0"/>
		<edge from-layer="464" from-port="0" to-layer="465" to-port="1"/>
		<edge from-layer="465" from-port="2" to-layer="467" to-port="0"/>
		<edge from-layer="466" from-port="0" to-layer="467" to-port="1"/>
		<edge from-layer="467" from-port="2" to-layer="473" to-port="0"/>
		<edge from-layer="467" from-port="2" to-layer="469" to-port="0"/>
		<edge from-layer="468" from-port="0" to-layer="469" to-port="1"/>
		<edge from-layer="469" from-port="2" to-layer="470" to-port="0"/>
		<edge from-layer="470" from-port="1" to-layer="472" to-port="0"/>
		<edge from-layer="471" from-port="0" to-layer="472" to-port="1"/>
		<edge from-layer="472" from-port="2" to-layer="473" to-port="1"/>
		<edge from-layer="473" from-port="2" to-layer="475" to-port="0"/>
		<edge from-layer="474" from-port="0" to-layer="475" to-port="1"/>
		<edge from-layer="475" from-port="2" to-layer="477" to-port="0"/>
		<edge from-layer="476" from-port="0" to-layer="477" to-port="1"/>
		<edge from-layer="477" from-port="2" to-layer="479" to-port="0"/>
		<edge from-layer="477" from-port="2" to-layer="483" to-port="0"/>
		<edge from-layer="478" from-port="0" to-layer="479" to-port="1"/>
		<edge from-layer="479" from-port="2" to-layer="480" to-port="0"/>
		<edge from-layer="480" from-port="1" to-layer="482" to-port="0"/>
		<edge from-layer="481" from-port="0" to-layer="482" to-port="1"/>
		<edge from-layer="482" from-port="2" to-layer="483" to-port="1"/>
		<edge from-layer="483" from-port="2" to-layer="504" to-port="1"/>
		<edge from-layer="483" from-port="2" to-layer="485" to-port="0"/>
		<edge from-layer="483" from-port="2" to-layer="491" to-port="0"/>
		<edge from-layer="484" from-port="0" to-layer="490" to-port="0"/>
		<edge from-layer="485" from-port="1" to-layer="486" to-port="0"/>
		<edge from-layer="486" from-port="1" to-layer="488" to-port="0"/>
		<edge from-layer="487" from-port="0" to-layer="488" to-port="1"/>
		<edge from-layer="488" from-port="2" to-layer="490" to-port="1"/>
		<edge from-layer="489" from-port="0" to-layer="490" to-port="2"/>
		<edge from-layer="490" from-port="3" to-layer="491" to-port="1"/>
		<edge from-layer="491" from-port="2" to-layer="493" to-port="0"/>
		<edge from-layer="492" from-port="0" to-layer="493" to-port="1"/>
		<edge from-layer="493" from-port="2" to-layer="495" to-port="0"/>
		<edge from-layer="494" from-port="0" to-layer="495" to-port="1"/>
		<edge from-layer="495" from-port="2" to-layer="496" to-port="0"/>
		<edge from-layer="496" from-port="1" to-layer="498" to-port="0"/>
		<edge from-layer="497" from-port="0" to-layer="498" to-port="1"/>
		<edge from-layer="498" from-port="2" to-layer="500" to-port="0"/>
		<edge from-layer="499" from-port="0" to-layer="500" to-port="1"/>
		<edge from-layer="500" from-port="2" to-layer="503" to-port="0"/>
		<edge from-layer="501" from-port="0" to-layer="503" to-port="1"/>
		<edge from-layer="502" from-port="0" to-layer="503" to-port="2"/>
		<edge from-layer="503" from-port="3" to-layer="504" to-port="0"/>
		<edge from-layer="504" from-port="2" to-layer="506" to-port="0"/>
		<edge from-layer="505" from-port="0" to-layer="506" to-port="1"/>
		<edge from-layer="506" from-port="2" to-layer="508" to-port="0"/>
		<edge from-layer="507" from-port="0" to-layer="508" to-port="1"/>
		<edge from-layer="508" from-port="2" to-layer="509" to-port="0"/>
		<edge from-layer="509" from-port="2" to-layer="511" to-port="0"/>
		<edge from-layer="510" from-port="0" to-layer="511" to-port="1"/>
		<edge from-layer="511" from-port="2" to-layer="513" to-port="0"/>
		<edge from-layer="512" from-port="0" to-layer="513" to-port="1"/>
		<edge from-layer="513" from-port="2" to-layer="519" to-port="0"/>
		<edge from-layer="513" from-port="2" to-layer="515" to-port="0"/>
		<edge from-layer="514" from-port="0" to-layer="515" to-port="1"/>
		<edge from-layer="515" from-port="2" to-layer="516" to-port="0"/>
		<edge from-layer="516" from-port="1" to-layer="518" to-port="0"/>
		<edge from-layer="517" from-port="0" to-layer="518" to-port="1"/>
		<edge from-layer="518" from-port="2" to-layer="519" to-port="1"/>
		<edge from-layer="519" from-port="2" to-layer="532" to-port="0"/>
		<edge from-layer="519" from-port="2" to-layer="526" to-port="0"/>
		<edge from-layer="519" from-port="2" to-layer="521" to-port="0"/>
		<edge from-layer="520" from-port="0" to-layer="521" to-port="1"/>
		<edge from-layer="521" from-port="2" to-layer="523" to-port="0"/>
		<edge from-layer="522" from-port="0" to-layer="523" to-port="1"/>
		<edge from-layer="523" from-port="2" to-layer="524" to-port="0"/>
		<edge from-layer="524" from-port="1" to-layer="536" to-port="0"/>
		<edge from-layer="525" from-port="0" to-layer="531" to-port="0"/>
		<edge from-layer="526" from-port="1" to-layer="527" to-port="0"/>
		<edge from-layer="527" from-port="1" to-layer="529" to-port="0"/>
		<edge from-layer="528" from-port="0" to-layer="529" to-port="1"/>
		<edge from-layer="529" from-port="2" to-layer="531" to-port="1"/>
		<edge from-layer="530" from-port="0" to-layer="531" to-port="2"/>
		<edge from-layer="531" from-port="3" to-layer="532" to-port="1"/>
		<edge from-layer="532" from-port="2" to-layer="534" to-port="0"/>
		<edge from-layer="533" from-port="0" to-layer="534" to-port="1"/>
		<edge from-layer="534" from-port="2" to-layer="535" to-port="0"/>
		<edge from-layer="535" from-port="1" to-layer="536" to-port="1"/>
		<edge from-layer="536" from-port="2" to-layer="539" to-port="0"/>
		<edge from-layer="537" from-port="0" to-layer="539" to-port="1"/>
		<edge from-layer="538" from-port="0" to-layer="539" to-port="2"/>
		<edge from-layer="539" from-port="4" to-layer="541" to-port="0"/>
		<edge from-layer="539" from-port="4" to-layer="543" to-port="0"/>
		<edge from-layer="539" from-port="3" to-layer="563" to-port="0"/>
		<edge from-layer="539" from-port="4" to-layer="555" to-port="0"/>
		<edge from-layer="540" from-port="0" to-layer="552" to-port="0"/>
		<edge from-layer="541" from-port="1" to-layer="542" to-port="1"/>
		<edge from-layer="542" from-port="2" to-layer="543" to-port="1"/>
		<edge from-layer="542" from-port="2" to-layer="553" to-port="1"/>
		<edge from-layer="542" from-port="2" to-layer="554" to-port="1"/>
		<edge from-layer="543" from-port="2" to-layer="545" to-port="0"/>
		<edge from-layer="544" from-port="0" to-layer="545" to-port="1"/>
		<edge from-layer="545" from-port="2" to-layer="547" to-port="0"/>
		<edge from-layer="546" from-port="0" to-layer="547" to-port="1"/>
		<edge from-layer="547" from-port="2" to-layer="548" to-port="0"/>
		<edge from-layer="548" from-port="1" to-layer="551" to-port="0"/>
		<edge from-layer="549" from-port="0" to-layer="551" to-port="1"/>
		<edge from-layer="550" from-port="0" to-layer="551" to-port="2"/>
		<edge from-layer="551" from-port="4" to-layer="561" to-port="0"/>
		<edge from-layer="551" from-port="4" to-layer="552" to-port="1"/>
		<edge from-layer="551" from-port="3" to-layer="554" to-port="0"/>
		<edge from-layer="552" from-port="2" to-layer="553" to-port="0"/>
		<edge from-layer="553" from-port="2" to-layer="562" to-port="0"/>
		<edge from-layer="554" from-port="2" to-layer="555" to-port="1"/>
		<edge from-layer="555" from-port="2" to-layer="557" to-port="0"/>
		<edge from-layer="556" from-port="0" to-layer="557" to-port="1"/>
		<edge from-layer="557" from-port="2" to-layer="559" to-port="0"/>
		<edge from-layer="558" from-port="0" to-layer="559" to-port="1"/>
		<edge from-layer="559" from-port="2" to-layer="560" to-port="0"/>
		<edge from-layer="560" from-port="1" to-layer="561" to-port="1"/>
		<edge from-layer="561" from-port="2" to-layer="562" to-port="1"/>
		<edge from-layer="562" from-port="2" to-layer="563" to-port="1"/>
		<edge from-layer="562" from-port="2" to-layer="918" to-port="0"/>
		<edge from-layer="563" from-port="2" to-layer="564" to-port="0"/>
		<edge from-layer="563" from-port="2" to-layer="578" to-port="0"/>
		<edge from-layer="564" from-port="1" to-layer="565" to-port="0"/>
		<edge from-layer="565" from-port="1" to-layer="567" to-port="0"/>
		<edge from-layer="566" from-port="0" to-layer="567" to-port="1"/>
		<edge from-layer="567" from-port="2" to-layer="569" to-port="0"/>
		<edge from-layer="568" from-port="0" to-layer="569" to-port="1"/>
		<edge from-layer="569" from-port="2" to-layer="570" to-port="0"/>
		<edge from-layer="570" from-port="1" to-layer="571" to-port="0"/>
		<edge from-layer="571" from-port="1" to-layer="575" to-port="0"/>
		<edge from-layer="572" from-port="0" to-layer="575" to-port="1"/>
		<edge from-layer="573" from-port="0" to-layer="575" to-port="2"/>
		<edge from-layer="574" from-port="0" to-layer="575" to-port="3"/>
		<edge from-layer="575" from-port="4" to-layer="578" to-port="1"/>
		<edge from-layer="576" from-port="0" to-layer="578" to-port="2"/>
		<edge from-layer="577" from-port="0" to-layer="578" to-port="3"/>
		<edge from-layer="578" from-port="4" to-layer="599" to-port="0"/>
		<edge from-layer="579" from-port="0" to-layer="599" to-port="1"/>
		<edge from-layer="580" from-port="0" to-layer="597" to-port="0"/>
		<edge from-layer="581" from-port="0" to-layer="597" to-port="1"/>
		<edge from-layer="582" from-port="1" to-layer="583" to-port="0"/>
		<edge from-layer="582" from-port="1" to-layer="732" to-port="2"/>
		<edge from-layer="582" from-port="1" to-layer="717" to-port="0"/>
		<edge from-layer="583" from-port="1" to-layer="651" to-port="0"/>
		<edge from-layer="583" from-port="1" to-layer="584" to-port="0"/>
		<edge from-layer="583" from-port="1" to-layer="666" to-port="2"/>
		<edge from-layer="584" from-port="1" to-layer="585" to-port="0"/>
		<edge from-layer="584" from-port="1" to-layer="600" to-port="2"/>
		<edge from-layer="585" from-port="1" to-layer="589" to-port="0"/>
		<edge from-layer="586" from-port="0" to-layer="589" to-port="1"/>
		<edge from-layer="587" from-port="0" to-layer="589" to-port="2"/>
		<edge from-layer="588" from-port="0" to-layer="589" to-port="3"/>
		<edge from-layer="589" from-port="4" to-layer="590" to-port="0"/>
		<edge from-layer="590" from-port="1" to-layer="593" to-port="0"/>
		<edge from-layer="590" from-port="1" to-layer="596" to-port="0"/>
		<edge from-layer="591" from-port="0" to-layer="593" to-port="1"/>
		<edge from-layer="592" from-port="0" to-layer="593" to-port="2"/>
		<edge from-layer="593" from-port="3" to-layer="597" to-port="2"/>
		<edge from-layer="594" from-port="0" to-layer="596" to-port="1"/>
		<edge from-layer="595" from-port="0" to-layer="596" to-port="2"/>
		<edge from-layer="596" from-port="3" to-layer="597" to-port="3"/>
		<edge from-layer="597" from-port="4" to-layer="599" to-port="2"/>
		<edge from-layer="598" from-port="0" to-layer="599" to-port="3"/>
		<edge from-layer="599" from-port="4" to-layer="600" to-port="0"/>
		<edge from-layer="600" from-port="3" to-layer="602" to-port="0"/>
		<edge from-layer="601" from-port="0" to-layer="602" to-port="1"/>
		<edge from-layer="602" from-port="2" to-layer="604" to-port="0"/>
		<edge from-layer="603" from-port="0" to-layer="604" to-port="1"/>
		<edge from-layer="604" from-port="2" to-layer="605" to-port="0"/>
		<edge from-layer="605" from-port="1" to-layer="608" to-port="0"/>
		<edge from-layer="606" from-port="0" to-layer="608" to-port="1"/>
		<edge from-layer="607" from-port="0" to-layer="608" to-port="2"/>
		<edge from-layer="608" from-port="4" to-layer="624" to-port="0"/>
		<edge from-layer="608" from-port="3" to-layer="632" to-port="0"/>
		<edge from-layer="608" from-port="4" to-layer="610" to-port="0"/>
		<edge from-layer="608" from-port="4" to-layer="612" to-port="0"/>
		<edge from-layer="609" from-port="0" to-layer="621" to-port="0"/>
		<edge from-layer="610" from-port="1" to-layer="611" to-port="1"/>
		<edge from-layer="611" from-port="2" to-layer="612" to-port="1"/>
		<edge from-layer="611" from-port="2" to-layer="622" to-port="1"/>
		<edge from-layer="611" from-port="2" to-layer="623" to-port="1"/>
		<edge from-layer="612" from-port="2" to-layer="614" to-port="0"/>
		<edge from-layer="613" from-port="0" to-layer="614" to-port="1"/>
		<edge from-layer="614" from-port="2" to-layer="616" to-port="0"/>
		<edge from-layer="615" from-port="0" to-layer="616" to-port="1"/>
		<edge from-layer="616" from-port="2" to-layer="617" to-port="0"/>
		<edge from-layer="617" from-port="1" to-layer="620" to-port="0"/>
		<edge from-layer="618" from-port="0" to-layer="620" to-port="1"/>
		<edge from-layer="619" from-port="0" to-layer="620" to-port="2"/>
		<edge from-layer="620" from-port="3" to-layer="623" to-port="0"/>
		<edge from-layer="620" from-port="4" to-layer="621" to-port="1"/>
		<edge from-layer="620" from-port="4" to-layer="630" to-port="0"/>
		<edge from-layer="621" from-port="2" to-layer="622" to-port="0"/>
		<edge from-layer="622" from-port="2" to-layer="631" to-port="0"/>
		<edge from-layer="623" from-port="2" to-layer="624" to-port="1"/>
		<edge from-layer="624" from-port="2" to-layer="626" to-port="0"/>
		<edge from-layer="625" from-port="0" to-layer="626" to-port="1"/>
		<edge from-layer="626" from-port="2" to-layer="628" to-port="0"/>
		<edge from-layer="627" from-port="0" to-layer="628" to-port="1"/>
		<edge from-layer="628" from-port="2" to-layer="629" to-port="0"/>
		<edge from-layer="629" from-port="1" to-layer="630" to-port="1"/>
		<edge from-layer="630" from-port="2" to-layer="631" to-port="1"/>
		<edge from-layer="631" from-port="2" to-layer="917" to-port="0"/>
		<edge from-layer="631" from-port="2" to-layer="632" to-port="1"/>
		<edge from-layer="632" from-port="2" to-layer="633" to-port="0"/>
		<edge from-layer="632" from-port="2" to-layer="647" to-port="0"/>
		<edge from-layer="633" from-port="1" to-layer="634" to-port="0"/>
		<edge from-layer="634" from-port="1" to-layer="636" to-port="0"/>
		<edge from-layer="635" from-port="0" to-layer="636" to-port="1"/>
		<edge from-layer="636" from-port="2" to-layer="638" to-port="0"/>
		<edge from-layer="637" from-port="0" to-layer="638" to-port="1"/>
		<edge from-layer="638" from-port="2" to-layer="639" to-port="0"/>
		<edge from-layer="639" from-port="1" to-layer="640" to-port="0"/>
		<edge from-layer="640" from-port="1" to-layer="644" to-port="0"/>
		<edge from-layer="641" from-port="0" to-layer="644" to-port="1"/>
		<edge from-layer="642" from-port="0" to-layer="644" to-port="2"/>
		<edge from-layer="643" from-port="0" to-layer="644" to-port="3"/>
		<edge from-layer="644" from-port="4" to-layer="647" to-port="1"/>
		<edge from-layer="645" from-port="0" to-layer="647" to-port="2"/>
		<edge from-layer="646" from-port="0" to-layer="647" to-port="3"/>
		<edge from-layer="647" from-port="4" to-layer="665" to-port="0"/>
		<edge from-layer="648" from-port="0" to-layer="665" to-port="1"/>
		<edge from-layer="649" from-port="0" to-layer="663" to-port="0"/>
		<edge from-layer="650" from-port="0" to-layer="663" to-port="1"/>
		<edge from-layer="651" from-port="1" to-layer="655" to-port="0"/>
		<edge from-layer="652" from-port="0" to-layer="655" to-port="1"/>
		<edge from-layer="653" from-port="0" to-layer="655" to-port="2"/>
		<edge from-layer="654" from-port="0" to-layer="655" to-port="3"/>
		<edge from-layer="655" from-port="4" to-layer="656" to-port="0"/>
		<edge from-layer="656" from-port="1" to-layer="662" to-port="0"/>
		<edge from-layer="656" from-port="1" to-layer="659" to-port="0"/>
		<edge from-layer="657" from-port="0" to-layer="659" to-port="1"/>
		<edge from-layer="658" from-port="0" to-layer="659" to-port="2"/>
		<edge from-layer="659" from-port="3" to-layer="663" to-port="2"/>
		<edge from-layer="660" from-port="0" to-layer="662" to-port="1"/>
		<edge from-layer="661" from-port="0" to-layer="662" to-port="2"/>
		<edge from-layer="662" from-port="3" to-layer="663" to-port="3"/>
		<edge from-layer="663" from-port="4" to-layer="665" to-port="2"/>
		<edge from-layer="664" from-port="0" to-layer="665" to-port="3"/>
		<edge from-layer="665" from-port="4" to-layer="666" to-port="0"/>
		<edge from-layer="666" from-port="3" to-layer="668" to-port="0"/>
		<edge from-layer="667" from-port="0" to-layer="668" to-port="1"/>
		<edge from-layer="668" from-port="2" to-layer="670" to-port="0"/>
		<edge from-layer="669" from-port="0" to-layer="670" to-port="1"/>
		<edge from-layer="670" from-port="2" to-layer="671" to-port="0"/>
		<edge from-layer="671" from-port="1" to-layer="674" to-port="0"/>
		<edge from-layer="672" from-port="0" to-layer="674" to-port="1"/>
		<edge from-layer="673" from-port="0" to-layer="674" to-port="2"/>
		<edge from-layer="674" from-port="4" to-layer="678" to-port="0"/>
		<edge from-layer="674" from-port="3" to-layer="698" to-port="0"/>
		<edge from-layer="674" from-port="4" to-layer="676" to-port="0"/>
		<edge from-layer="674" from-port="4" to-layer="690" to-port="0"/>
		<edge from-layer="675" from-port="0" to-layer="687" to-port="0"/>
		<edge from-layer="676" from-port="1" to-layer="677" to-port="1"/>
		<edge from-layer="677" from-port="2" to-layer="688" to-port="1"/>
		<edge from-layer="677" from-port="2" to-layer="689" to-port="1"/>
		<edge from-layer="677" from-port="2" to-layer="678" to-port="1"/>
		<edge from-layer="678" from-port="2" to-layer="680" to-port="0"/>
		<edge from-layer="679" from-port="0" to-layer="680" to-port="1"/>
		<edge from-layer="680" from-port="2" to-layer="682" to-port="0"/>
		<edge from-layer="681" from-port="0" to-layer="682" to-port="1"/>
		<edge from-layer="682" from-port="2" to-layer="683" to-port="0"/>
		<edge from-layer="683" from-port="1" to-layer="686" to-port="0"/>
		<edge from-layer="684" from-port="0" to-layer="686" to-port="1"/>
		<edge from-layer="685" from-port="0" to-layer="686" to-port="2"/>
		<edge from-layer="686" from-port="3" to-layer="689" to-port="0"/>
		<edge from-layer="686" from-port="4" to-layer="696" to-port="0"/>
		<edge from-layer="686" from-port="4" to-layer="687" to-port="1"/>
		<edge from-layer="687" from-port="2" to-layer="688" to-port="0"/>
		<edge from-layer="688" from-port="2" to-layer="697" to-port="0"/>
		<edge from-layer="689" from-port="2" to-layer="690" to-port="1"/>
		<edge from-layer="690" from-port="2" to-layer="692" to-port="0"/>
		<edge from-layer="691" from-port="0" to-layer="692" to-port="1"/>
		<edge from-layer="692" from-port="2" to-layer="694" to-port="0"/>
		<edge from-layer="693" from-port="0" to-layer="694" to-port="1"/>
		<edge from-layer="694" from-port="2" to-layer="695" to-port="0"/>
		<edge from-layer="695" from-port="1" to-layer="696" to-port="1"/>
		<edge from-layer="696" from-port="2" to-layer="697" to-port="1"/>
		<edge from-layer="697" from-port="2" to-layer="698" to-port="1"/>
		<edge from-layer="697" from-port="2" to-layer="916" to-port="0"/>
		<edge from-layer="698" from-port="2" to-layer="699" to-port="0"/>
		<edge from-layer="698" from-port="2" to-layer="713" to-port="0"/>
		<edge from-layer="699" from-port="1" to-layer="700" to-port="0"/>
		<edge from-layer="700" from-port="1" to-layer="702" to-port="0"/>
		<edge from-layer="701" from-port="0" to-layer="702" to-port="1"/>
		<edge from-layer="702" from-port="2" to-layer="704" to-port="0"/>
		<edge from-layer="703" from-port="0" to-layer="704" to-port="1"/>
		<edge from-layer="704" from-port="2" to-layer="705" to-port="0"/>
		<edge from-layer="705" from-port="1" to-layer="706" to-port="0"/>
		<edge from-layer="706" from-port="1" to-layer="710" to-port="0"/>
		<edge from-layer="707" from-port="0" to-layer="710" to-port="1"/>
		<edge from-layer="708" from-port="0" to-layer="710" to-port="2"/>
		<edge from-layer="709" from-port="0" to-layer="710" to-port="3"/>
		<edge from-layer="710" from-port="4" to-layer="713" to-port="1"/>
		<edge from-layer="711" from-port="0" to-layer="713" to-port="2"/>
		<edge from-layer="712" from-port="0" to-layer="713" to-port="3"/>
		<edge from-layer="713" from-port="4" to-layer="731" to-port="0"/>
		<edge from-layer="714" from-port="0" to-layer="731" to-port="1"/>
		<edge from-layer="715" from-port="0" to-layer="729" to-port="0"/>
		<edge from-layer="716" from-port="0" to-layer="729" to-port="1"/>
		<edge from-layer="717" from-port="1" to-layer="721" to-port="0"/>
		<edge from-layer="718" from-port="0" to-layer="721" to-port="1"/>
		<edge from-layer="719" from-port="0" to-layer="721" to-port="2"/>
		<edge from-layer="720" from-port="0" to-layer="721" to-port="3"/>
		<edge from-layer="721" from-port="4" to-layer="722" to-port="0"/>
		<edge from-layer="722" from-port="1" to-layer="728" to-port="0"/>
		<edge from-layer="722" from-port="1" to-layer="725" to-port="0"/>
		<edge from-layer="723" from-port="0" to-layer="725" to-port="1"/>
		<edge from-layer="724" from-port="0" to-layer="725" to-port="2"/>
		<edge from-layer="725" from-port="3" to-layer="729" to-port="2"/>
		<edge from-layer="726" from-port="0" to-layer="728" to-port="1"/>
		<edge from-layer="727" from-port="0" to-layer="728" to-port="2"/>
		<edge from-layer="728" from-port="3" to-layer="729" to-port="3"/>
		<edge from-layer="729" from-port="4" to-layer="731" to-port="2"/>
		<edge from-layer="730" from-port="0" to-layer="731" to-port="3"/>
		<edge from-layer="731" from-port="4" to-layer="732" to-port="0"/>
		<edge from-layer="732" from-port="3" to-layer="734" to-port="0"/>
		<edge from-layer="733" from-port="0" to-layer="734" to-port="1"/>
		<edge from-layer="734" from-port="2" to-layer="736" to-port="0"/>
		<edge from-layer="735" from-port="0" to-layer="736" to-port="1"/>
		<edge from-layer="736" from-port="2" to-layer="737" to-port="0"/>
		<edge from-layer="737" from-port="1" to-layer="740" to-port="0"/>
		<edge from-layer="738" from-port="0" to-layer="740" to-port="1"/>
		<edge from-layer="739" from-port="0" to-layer="740" to-port="2"/>
		<edge from-layer="740" from-port="4" to-layer="742" to-port="0"/>
		<edge from-layer="740" from-port="4" to-layer="744" to-port="0"/>
		<edge from-layer="740" from-port="3" to-layer="764" to-port="0"/>
		<edge from-layer="740" from-port="4" to-layer="756" to-port="0"/>
		<edge from-layer="741" from-port="0" to-layer="753" to-port="0"/>
		<edge from-layer="742" from-port="1" to-layer="743" to-port="1"/>
		<edge from-layer="743" from-port="2" to-layer="744" to-port="1"/>
		<edge from-layer="743" from-port="2" to-layer="754" to-port="1"/>
		<edge from-layer="743" from-port="2" to-layer="755" to-port="1"/>
		<edge from-layer="744" from-port="2" to-layer="746" to-port="0"/>
		<edge from-layer="745" from-port="0" to-layer="746" to-port="1"/>
		<edge from-layer="746" from-port="2" to-layer="748" to-port="0"/>
		<edge from-layer="747" from-port="0" to-layer="748" to-port="1"/>
		<edge from-layer="748" from-port="2" to-layer="749" to-port="0"/>
		<edge from-layer="749" from-port="1" to-layer="752" to-port="0"/>
		<edge from-layer="750" from-port="0" to-layer="752" to-port="1"/>
		<edge from-layer="751" from-port="0" to-layer="752" to-port="2"/>
		<edge from-layer="752" from-port="4" to-layer="762" to-port="0"/>
		<edge from-layer="752" from-port="4" to-layer="753" to-port="1"/>
		<edge from-layer="752" from-port="3" to-layer="755" to-port="0"/>
		<edge from-layer="753" from-port="2" to-layer="754" to-port="0"/>
		<edge from-layer="754" from-port="2" to-layer="763" to-port="0"/>
		<edge from-layer="755" from-port="2" to-layer="756" to-port="1"/>
		<edge from-layer="756" from-port="2" to-layer="758" to-port="0"/>
		<edge from-layer="757" from-port="0" to-layer="758" to-port="1"/>
		<edge from-layer="758" from-port="2" to-layer="760" to-port="0"/>
		<edge from-layer="759" from-port="0" to-layer="760" to-port="1"/>
		<edge from-layer="760" from-port="2" to-layer="761" to-port="0"/>
		<edge from-layer="761" from-port="1" to-layer="762" to-port="1"/>
		<edge from-layer="762" from-port="2" to-layer="763" to-port="1"/>
		<edge from-layer="763" from-port="2" to-layer="764" to-port="1"/>
		<edge from-layer="763" from-port="2" to-layer="915" to-port="0"/>
		<edge from-layer="764" from-port="2" to-layer="779" to-port="0"/>
		<edge from-layer="764" from-port="2" to-layer="765" to-port="0"/>
		<edge from-layer="765" from-port="1" to-layer="766" to-port="0"/>
		<edge from-layer="766" from-port="1" to-layer="768" to-port="0"/>
		<edge from-layer="767" from-port="0" to-layer="768" to-port="1"/>
		<edge from-layer="768" from-port="2" to-layer="770" to-port="0"/>
		<edge from-layer="769" from-port="0" to-layer="770" to-port="1"/>
		<edge from-layer="770" from-port="2" to-layer="771" to-port="0"/>
		<edge from-layer="771" from-port="1" to-layer="772" to-port="0"/>
		<edge from-layer="772" from-port="1" to-layer="776" to-port="0"/>
		<edge from-layer="773" from-port="0" to-layer="776" to-port="1"/>
		<edge from-layer="774" from-port="0" to-layer="776" to-port="2"/>
		<edge from-layer="775" from-port="0" to-layer="776" to-port="3"/>
		<edge from-layer="776" from-port="4" to-layer="779" to-port="1"/>
		<edge from-layer="777" from-port="0" to-layer="779" to-port="2"/>
		<edge from-layer="778" from-port="0" to-layer="779" to-port="3"/>
		<edge from-layer="779" from-port="4" to-layer="797" to-port="0"/>
		<edge from-layer="780" from-port="0" to-layer="797" to-port="1"/>
		<edge from-layer="781" from-port="0" to-layer="795" to-port="0"/>
		<edge from-layer="782" from-port="0" to-layer="795" to-port="1"/>
		<edge from-layer="783" from-port="1" to-layer="787" to-port="0"/>
		<edge from-layer="784" from-port="0" to-layer="787" to-port="1"/>
		<edge from-layer="785" from-port="0" to-layer="787" to-port="2"/>
		<edge from-layer="786" from-port="0" to-layer="787" to-port="3"/>
		<edge from-layer="787" from-port="4" to-layer="788" to-port="0"/>
		<edge from-layer="788" from-port="1" to-layer="791" to-port="0"/>
		<edge from-layer="788" from-port="1" to-layer="794" to-port="0"/>
		<edge from-layer="789" from-port="0" to-layer="791" to-port="1"/>
		<edge from-layer="790" from-port="0" to-layer="791" to-port="2"/>
		<edge from-layer="791" from-port="3" to-layer="795" to-port="2"/>
		<edge from-layer="792" from-port="0" to-layer="794" to-port="1"/>
		<edge from-layer="793" from-port="0" to-layer="794" to-port="2"/>
		<edge from-layer="794" from-port="3" to-layer="795" to-port="3"/>
		<edge from-layer="795" from-port="4" to-layer="797" to-port="2"/>
		<edge from-layer="796" from-port="0" to-layer="797" to-port="3"/>
		<edge from-layer="797" from-port="4" to-layer="798" to-port="0"/>
		<edge from-layer="798" from-port="2" to-layer="800" to-port="0"/>
		<edge from-layer="799" from-port="0" to-layer="800" to-port="1"/>
		<edge from-layer="800" from-port="2" to-layer="802" to-port="0"/>
		<edge from-layer="801" from-port="0" to-layer="802" to-port="1"/>
		<edge from-layer="802" from-port="2" to-layer="803" to-port="0"/>
		<edge from-layer="803" from-port="1" to-layer="805" to-port="0"/>
		<edge from-layer="804" from-port="0" to-layer="805" to-port="1"/>
		<edge from-layer="805" from-port="2" to-layer="807" to-port="0"/>
		<edge from-layer="806" from-port="0" to-layer="807" to-port="1"/>
		<edge from-layer="807" from-port="2" to-layer="808" to-port="0"/>
		<edge from-layer="808" from-port="1" to-layer="831" to-port="2"/>
		<edge from-layer="808" from-port="1" to-layer="810" to-port="0"/>
		<edge from-layer="809" from-port="0" to-layer="810" to-port="1"/>
		<edge from-layer="810" from-port="2" to-layer="812" to-port="0"/>
		<edge from-layer="811" from-port="0" to-layer="812" to-port="1"/>
		<edge from-layer="812" from-port="2" to-layer="815" to-port="0"/>
		<edge from-layer="813" from-port="0" to-layer="815" to-port="1"/>
		<edge from-layer="814" from-port="0" to-layer="815" to-port="2"/>
		<edge from-layer="815" from-port="3" to-layer="816" to-port="0"/>
		<edge from-layer="815" from-port="4" to-layer="816" to-port="1"/>
		<edge from-layer="816" from-port="2" to-layer="817" to-port="1"/>
		<edge from-layer="816" from-port="2" to-layer="823" to-port="0"/>
		<edge from-layer="817" from-port="2" to-layer="819" to-port="0"/>
		<edge from-layer="818" from-port="0" to-layer="819" to-port="1"/>
		<edge from-layer="819" from-port="2" to-layer="825" to-port="0"/>
		<edge from-layer="820" from-port="0" to-layer="821" to-port="1"/>
		<edge from-layer="821" from-port="2" to-layer="829" to-port="1"/>
		<edge from-layer="821" from-port="2" to-layer="829" to-port="0"/>
		<edge from-layer="821" from-port="2" to-layer="877" to-port="1"/>
		<edge from-layer="821" from-port="2" to-layer="824" to-port="0"/>
		<edge from-layer="822" from-port="0" to-layer="823" to-port="1"/>
		<edge from-layer="823" from-port="2" to-layer="878" to-port="0"/>
		<edge from-layer="823" from-port="2" to-layer="824" to-port="1"/>
		<edge from-layer="824" from-port="2" to-layer="825" to-port="1"/>
		<edge from-layer="825" from-port="2" to-layer="831" to-port="0"/>
		<edge from-layer="826" from-port="2" to-layer="828" to-port="0"/>
		<edge from-layer="827" from-port="0" to-layer="828" to-port="1"/>
		<edge from-layer="828" from-port="2" to-layer="830" to-port="0"/>
		<edge from-layer="829" from-port="2" to-layer="830" to-port="1"/>
		<edge from-layer="830" from-port="2" to-layer="831" to-port="1"/>
		<edge from-layer="831" from-port="3" to-layer="833" to-port="0"/>
		<edge from-layer="832" from-port="0" to-layer="833" to-port="1"/>
		<edge from-layer="833" from-port="2" to-layer="835" to-port="0"/>
		<edge from-layer="834" from-port="0" to-layer="835" to-port="1"/>
		<edge from-layer="835" from-port="2" to-layer="836" to-port="0"/>
		<edge from-layer="836" from-port="1" to-layer="838" to-port="0"/>
		<edge from-layer="837" from-port="0" to-layer="838" to-port="1"/>
		<edge from-layer="838" from-port="2" to-layer="840" to-port="0"/>
		<edge from-layer="839" from-port="0" to-layer="840" to-port="1"/>
		<edge from-layer="840" from-port="2" to-layer="841" to-port="0"/>
		<edge from-layer="841" from-port="1" to-layer="843" to-port="0"/>
		<edge from-layer="842" from-port="0" to-layer="843" to-port="1"/>
		<edge from-layer="843" from-port="2" to-layer="845" to-port="0"/>
		<edge from-layer="844" from-port="0" to-layer="845" to-port="1"/>
		<edge from-layer="845" from-port="2" to-layer="846" to-port="0"/>
		<edge from-layer="845" from-port="2" to-layer="862" to-port="0"/>
		<edge from-layer="845" from-port="2" to-layer="872" to-port="0"/>
		<edge from-layer="845" from-port="2" to-layer="877" to-port="0"/>
		<edge from-layer="846" from-port="1" to-layer="850" to-port="0"/>
		<edge from-layer="847" from-port="0" to-layer="850" to-port="1"/>
		<edge from-layer="848" from-port="0" to-layer="850" to-port="2"/>
		<edge from-layer="849" from-port="0" to-layer="850" to-port="3"/>
		<edge from-layer="850" from-port="4" to-layer="856" to-port="0"/>
		<edge from-layer="851" from-port="1" to-layer="855" to-port="0"/>
		<edge from-layer="852" from-port="0" to-layer="855" to-port="1"/>
		<edge from-layer="853" from-port="0" to-layer="855" to-port="2"/>
		<edge from-layer="854" from-port="0" to-layer="855" to-port="3"/>
		<edge from-layer="855" from-port="4" to-layer="856" to-port="1"/>
		<edge from-layer="856" from-port="2" to-layer="861" to-port="0"/>
		<edge from-layer="856" from-port="2" to-layer="860" to-port="0"/>
		<edge from-layer="857" from-port="0" to-layer="860" to-port="1"/>
		<edge from-layer="858" from-port="0" to-layer="860" to-port="2"/>
		<edge from-layer="859" from-port="0" to-layer="860" to-port="3"/>
		<edge from-layer="860" from-port="4" to-layer="872" to-port="1"/>
		<edge from-layer="861" from-port="1" to-layer="864" to-port="0"/>
		<edge from-layer="862" from-port="1" to-layer="863" to-port="0"/>
		<edge from-layer="863" from-port="1" to-layer="864" to-port="1"/>
		<edge from-layer="864" from-port="2" to-layer="866" to-port="0"/>
		<edge from-layer="865" from-port="0" to-layer="866" to-port="1"/>
		<edge from-layer="866" from-port="2" to-layer="870" to-port="0"/>
		<edge from-layer="867" from-port="0" to-layer="870" to-port="1"/>
		<edge from-layer="868" from-port="0" to-layer="870" to-port="2"/>
		<edge from-layer="869" from-port="0" to-layer="870" to-port="3"/>
		<edge from-layer="870" from-port="4" to-layer="872" to-port="2"/>
		<edge from-layer="871" from-port="0" to-layer="872" to-port="3"/>
		<edge from-layer="872" from-port="4" to-layer="876" to-port="0"/>
		<edge from-layer="873" from-port="0" to-layer="874" to-port="1"/>
		<edge from-layer="874" from-port="2" to-layer="875" to-port="1"/>
		<edge from-layer="875" from-port="2" to-layer="876" to-port="1"/>
		<edge from-layer="876" from-port="2" to-layer="906" to-port="0"/>
		<edge from-layer="877" from-port="2" to-layer="878" to-port="1"/>
		<edge from-layer="878" from-port="2" to-layer="879" to-port="0"/>
		<edge from-layer="878" from-port="2" to-layer="905" to-port="0"/>
		<edge from-layer="878" from-port="2" to-layer="895" to-port="0"/>
		<edge from-layer="879" from-port="1" to-layer="883" to-port="0"/>
		<edge from-layer="880" from-port="0" to-layer="883" to-port="1"/>
		<edge from-layer="881" from-port="0" to-layer="883" to-port="2"/>
		<edge from-layer="882" from-port="0" to-layer="883" to-port="3"/>
		<edge from-layer="883" from-port="4" to-layer="889" to-port="0"/>
		<edge from-layer="884" from-port="1" to-layer="888" to-port="0"/>
		<edge from-layer="885" from-port="0" to-layer="888" to-port="1"/>
		<edge from-layer="886" from-port="0" to-layer="888" to-port="2"/>
		<edge from-layer="887" from-port="0" to-layer="888" to-port="3"/>
		<edge from-layer="888" from-port="4" to-layer="889" to-port="1"/>
		<edge from-layer="889" from-port="2" to-layer="893" to-port="0"/>
		<edge from-layer="889" from-port="2" to-layer="894" to-port="0"/>
		<edge from-layer="890" from-port="0" to-layer="893" to-port="1"/>
		<edge from-layer="891" from-port="0" to-layer="893" to-port="2"/>
		<edge from-layer="892" from-port="0" to-layer="893" to-port="3"/>
		<edge from-layer="893" from-port="4" to-layer="905" to-port="1"/>
		<edge from-layer="894" from-port="1" to-layer="897" to-port="0"/>
		<edge from-layer="895" from-port="1" to-layer="896" to-port="0"/>
		<edge from-layer="896" from-port="1" to-layer="897" to-port="1"/>
		<edge from-layer="897" from-port="2" to-layer="899" to-port="0"/>
		<edge from-layer="898" from-port="0" to-layer="899" to-port="1"/>
		<edge from-layer="899" from-port="2" to-layer="903" to-port="0"/>
		<edge from-layer="900" from-port="0" to-layer="903" to-port="1"/>
		<edge from-layer="901" from-port="0" to-layer="903" to-port="2"/>
		<edge from-layer="902" from-port="0" to-layer="903" to-port="3"/>
		<edge from-layer="903" from-port="4" to-layer="905" to-port="2"/>
		<edge from-layer="904" from-port="0" to-layer="905" to-port="3"/>
		<edge from-layer="905" from-port="4" to-layer="906" to-port="1"/>
		<edge from-layer="906" from-port="2" to-layer="909" to-port="0"/>
		<edge from-layer="907" from-port="0" to-layer="909" to-port="1"/>
		<edge from-layer="908" from-port="0" to-layer="909" to-port="2"/>
		<edge from-layer="909" from-port="4" to-layer="910" to-port="0"/>
		<edge from-layer="909" from-port="3" to-layer="912" to-port="0"/>
		<edge from-layer="910" from-port="1" to-layer="911" to-port="0"/>
		<edge from-layer="912" from-port="2" to-layer="913" to-port="0"/>
		<edge from-layer="913" from-port="1" to-layer="914" to-port="0"/>
	</edges>
	<meta_data>
		<MO_version value="2021.4.2-3974-e2a469a3450-releases/2021/4"/>
		<cli_parameters>
			<data_type value="FP16"/>
			<disable_resnet_optimization value="False"/>
			<disable_weights_compression value="False"/>
			<enable_concat_optimization value="False"/>
			<extensions value="DIR"/>
			<framework value="onnx"/>
			<freeze_placeholder_with_value value="{}"/>
			<generate_deprecated_IR_V7 value="False"/>
			<input value="src,r1i,r2i,r3i,r4i"/>
			<input_model value="DIR\automatic-tensorrt.onnx"/>
			<keep_shape_ops value="True"/>
			<legacy_ir_generation value="False"/>
			<log_level value="ERROR"/>
			<mean_scale_values value="{}"/>
			<mean_values value="()"/>
			<model_name value="automatic-tensorrt"/>
			<output_dir value="DIR"/>
			<placeholder_data_types value="{}"/>
			<placeholder_shapes value="{'src': array([  1,   3, 180, 320], dtype=int64), 'r1i': array([ 1, 16, 45, 80], dtype=int64), 'r2i': array([ 1, 20, 23, 40], dtype=int64), 'r3i': array([ 1, 40, 12, 20], dtype=int64), 'r4i': array([ 1, 64,  6, 10], dtype=int64)}"/>
			<progress value="False"/>
			<reverse_input_channels value="False"/>
			<scale_values value="()"/>
			<silent value="False"/>
			<static_shape value="False"/>
			<stream_output value="False"/>
			<transform value=""/>
			<unset unset_cli_parameters="batch, disable_fusing, disable_gfusing, finegrain_fusing, input_shape, move_to_preprocess, output, scale, transformations_config"/>
		</cli_parameters>
	</meta_data>
</net>
