<?xml version="1.0" ?>
<net name="epoch-8" version="10">
	<layers>
		<layer id="0" name="r1i" type="Parameter" version="opset1">
			<data element_type="f32" shape="1, 16, 270, 480"/>
			<output>
				<port id="0" names="r1i" precision="FP32">
					<dim>1</dim>
					<dim>16</dim>
					<dim>270</dim>
					<dim>480</dim>
				</port>
			</output>
		</layer>
		<layer id="1" name="r2i" type="Parameter" version="opset1">
			<data element_type="f32" shape="1, 20, 135, 240"/>
			<output>
				<port id="0" names="r2i" precision="FP32">
					<dim>1</dim>
					<dim>20</dim>
					<dim>135</dim>
					<dim>240</dim>
				</port>
			</output>
		</layer>
		<layer id="2" name="r3i" type="Parameter" version="opset1">
			<data element_type="f32" shape="1, 40, 68, 120"/>
			<output>
				<port id="0" names="r3i" precision="FP32">
					<dim>1</dim>
					<dim>40</dim>
					<dim>68</dim>
					<dim>120</dim>
				</port>
			</output>
		</layer>
		<layer id="3" name="r4i" type="Parameter" version="opset1">
			<data element_type="f32" shape="1, 64, 34, 60"/>
			<output>
				<port id="0" names="r4i" precision="FP32">
					<dim>1</dim>
					<dim>64</dim>
					<dim>34</dim>
					<dim>60</dim>
				</port>
			</output>
		</layer>
		<layer id="4" name="src" type="Parameter" version="opset1">
			<data element_type="f32" shape="1, 3, 1080, 1920"/>
			<output>
				<port id="0" names="src" precision="FP32">
					<dim>1</dim>
					<dim>3</dim>
					<dim>1080</dim>
					<dim>1920</dim>
				</port>
			</output>
		</layer>
		<layer id="5" name="Resize_1/ShapeOf" type="ShapeOf" version="opset3">
			<data output_type="i64"/>
			<input>
				<port id="0" precision="FP32">
					<dim>1</dim>
					<dim>3</dim>
					<dim>1080</dim>
					<dim>1920</dim>
				</port>
			</input>
			<output>
				<port id="1" precision="I64">
					<dim>4</dim>
				</port>
			</output>
		</layer>
		<layer id="6" name="9883" type="Convert" version="opset1">
			<data destination_type="f32"/>
			<input>
				<port id="0" precision="I64">
					<dim>4</dim>
				</port>
			</input>
			<output>
				<port id="1" precision="FP32">
					<dim>4</dim>
				</port>
			</output>
		</layer>
		<layer id="7" name="2011" type="Const" version="opset1">
			<data element_type="f32" offset="0" shape="4" size="16"/>
			<output>
				<port id="0" names="2011" precision="FP32">
					<dim>4</dim>
				</port>
			</output>
		</layer>
		<layer id="8" name="Resize_1/Mul" type="Multiply" version="opset1">
			<data auto_broadcast="numpy"/>
			<input>
				<port id="0" precision="FP32">
					<dim>4</dim>
				</port>
				<port id="1" precision="FP32">
					<dim>4</dim>
				</port>
			</input>
			<output>
				<port id="2" precision="FP32">
					<dim>4</dim>
				</port>
			</output>
		</layer>
		<layer id="9" name="Resize_1/Add_input_port_1/value988256390" type="Const" version="opset1">
			<data element_type="f32" offset="16" shape="1" size="4"/>
			<output>
				<port id="0" precision="FP32">
					<dim>1</dim>
				</port>
			</output>
		</layer>
		<layer id="10" name="Resize_1/Add" type="Add" version="opset1">
			<data auto_broadcast="numpy"/>
			<input>
				<port id="0" precision="FP32">
					<dim>4</dim>
				</port>
				<port id="1" precision="FP32">
					<dim>1</dim>
				</port>
			</input>
			<output>
				<port id="2" precision="FP32">
					<dim>4</dim>
				</port>
			</output>
		</layer>
		<layer id="11" name="Resize_1/Floor" type="Floor" version="opset1">
			<input>
				<port id="0" precision="FP32">
					<dim>4</dim>
				</port>
			</input>
			<output>
				<port id="1" precision="FP32">
					<dim>4</dim>
				</port>
			</output>
		</layer>
		<layer id="12" name="9887" type="Convert" version="opset1">
			<data destination_type="i64"/>
			<input>
				<port id="0" precision="FP32">
					<dim>4</dim>
				</port>
			</input>
			<output>
				<port id="1" precision="I64">
					<dim>4</dim>
				</port>
			</output>
		</layer>
		<layer id="13" name="Resize_1/StridedSlice_sizes_input_port_1/value986455919" type="Const" version="opset1">
			<data element_type="i64" offset="20" shape="1" size="8"/>
			<output>
				<port id="0" precision="I64">
					<dim>1</dim>
				</port>
			</output>
		</layer>
		<layer id="14" name="Resize_1/StridedSlice_sizes_input_port_2/value986654932" type="Const" version="opset1">
			<data element_type="i64" offset="28" shape="1" size="8"/>
			<output>
				<port id="0" precision="I64">
					<dim>1</dim>
				</port>
			</output>
		</layer>
		<layer id="15" name="Resize_1/StridedSlice_sizes_input_port_3/value986854902" type="Const" version="opset1">
			<data element_type="i64" offset="36" shape="1" size="8"/>
			<output>
				<port id="0" precision="I64">
					<dim>1</dim>
				</port>
			</output>
		</layer>
		<layer id="16" name="Resize_1/StridedSlice_sizes" type="StridedSlice" version="opset1">
			<data begin_mask="0" ellipsis_mask="0" end_mask="0" new_axis_mask="0" shrink_axis_mask="0"/>
			<input>
				<port id="0" precision="I64">
					<dim>4</dim>
				</port>
				<port id="1" precision="I64">
					<dim>1</dim>
				</port>
				<port id="2" precision="I64">
					<dim>1</dim>
				</port>
				<port id="3" precision="I64">
					<dim>1</dim>
				</port>
			</input>
			<output>
				<port id="4" precision="I64">
					<dim>2</dim>
				</port>
			</output>
		</layer>
		<layer id="17" name="Resize_1/StridedSlice_scales989454827" type="Const" version="opset1">
			<data element_type="f32" offset="44" shape="2" size="8"/>
			<output>
				<port id="0" precision="FP32">
					<dim>2</dim>
				</port>
			</output>
		</layer>
		<layer id="18" name="Resize_1/axis987855289" type="Const" version="opset1">
			<data element_type="i64" offset="52" shape="2" size="16"/>
			<output>
				<port id="0" precision="I64">
					<dim>2</dim>
				</port>
			</output>
		</layer>
		<layer id="19" name="Resize_1" type="Interpolate" version="opset4">
			<data antialias="false" coordinate_transformation_mode="pytorch_half_pixel" cube_coeff="-0.75" mode="linear_onnx" nearest_mode="floor" pads_begin="0, 0, 0, 0" pads_end="0, 0, 0, 0" shape_calculation_mode="scales"/>
			<input>
				<port id="0" precision="FP32">
					<dim>1</dim>
					<dim>3</dim>
					<dim>1080</dim>
					<dim>1920</dim>
				</port>
				<port id="1" precision="I64">
					<dim>2</dim>
				</port>
				<port id="2" precision="FP32">
					<dim>2</dim>
				</port>
				<port id="3" precision="I64">
					<dim>2</dim>
				</port>
			</input>
			<output>
				<port id="4" names="717" precision="FP32">
					<dim>1</dim>
					<dim>3</dim>
					<dim>540</dim>
					<dim>960</dim>
				</port>
			</output>
		</layer>
		<layer id="20" name="ReduceMean_786/axis" type="Const" version="opset1">
			<data element_type="i64" offset="36" shape="1" size="8"/>
			<output>
				<port id="0" precision="I64">
					<dim>1</dim>
				</port>
			</output>
		</layer>
		<layer id="21" name="ReduceMean_786" type="ReduceMean" version="opset1">
			<data keep_dims="true"/>
			<input>
				<port id="0" precision="FP32">
					<dim>1</dim>
					<dim>3</dim>
					<dim>540</dim>
					<dim>960</dim>
				</port>
				<port id="1" precision="I64">
					<dim>1</dim>
				</port>
			</input>
			<output>
				<port id="2" names="1645" precision="FP32">
					<dim>1</dim>
					<dim>1</dim>
					<dim>540</dim>
					<dim>960</dim>
				</port>
			</output>
		</layer>
		<layer id="22" name="Concat_787" type="Concat" version="opset1">
			<data axis="1"/>
			<input>
				<port id="0" precision="FP32">
					<dim>1</dim>
					<dim>3</dim>
					<dim>540</dim>
					<dim>960</dim>
				</port>
				<port id="1" precision="FP32">
					<dim>1</dim>
					<dim>1</dim>
					<dim>540</dim>
					<dim>960</dim>
				</port>
			</input>
			<output>
				<port id="2" names="1646" precision="FP32">
					<dim>1</dim>
					<dim>4</dim>
					<dim>540</dim>
					<dim>960</dim>
				</port>
			</output>
		</layer>
		<layer id="23" name="data_mul_22366" type="Const" version="opset1">
			<data element_type="f32" offset="68" shape="1, 3, 1, 1" size="12"/>
			<output>
				<port id="0" precision="FP32">
					<dim>1</dim>
					<dim>3</dim>
					<dim>1</dim>
					<dim>1</dim>
				</port>
			</output>
		</layer>
		<layer id="24" name="Div_5/Fused_Mul_" type="Multiply" version="opset1">
			<data auto_broadcast="numpy"/>
			<input>
				<port id="0" precision="FP32">
					<dim>1</dim>
					<dim>3</dim>
					<dim>540</dim>
					<dim>960</dim>
				</port>
				<port id="1" precision="FP32">
					<dim>1</dim>
					<dim>3</dim>
					<dim>1</dim>
					<dim>1</dim>
				</port>
			</input>
			<output>
				<port id="2" precision="FP32">
					<dim>1</dim>
					<dim>3</dim>
					<dim>540</dim>
					<dim>960</dim>
				</port>
			</output>
		</layer>
		<layer id="25" name="data_add_22368" type="Const" version="opset1">
			<data element_type="f32" offset="80" shape="1, 3, 1, 1" size="12"/>
			<output>
				<port id="0" precision="FP32">
					<dim>1</dim>
					<dim>3</dim>
					<dim>1</dim>
					<dim>1</dim>
				</port>
			</output>
		</layer>
		<layer id="26" name="Sub_3/Fused_Add_" type="Add" version="opset1">
			<data auto_broadcast="numpy"/>
			<input>
				<port id="0" precision="FP32">
					<dim>1</dim>
					<dim>3</dim>
					<dim>540</dim>
					<dim>960</dim>
				</port>
				<port id="1" precision="FP32">
					<dim>1</dim>
					<dim>3</dim>
					<dim>1</dim>
					<dim>1</dim>
				</port>
			</input>
			<output>
				<port id="2" names="721" precision="FP32">
					<dim>1</dim>
					<dim>3</dim>
					<dim>540</dim>
					<dim>960</dim>
				</port>
			</output>
		</layer>
		<layer id="27" name="1712" type="Const" version="opset1">
			<data element_type="f32" offset="92" shape="16, 3, 3, 3" size="1728"/>
			<output>
				<port id="0" names="1712" precision="FP32">
					<dim>16</dim>
					<dim>3</dim>
					<dim>3</dim>
					<dim>3</dim>
				</port>
			</output>
		</layer>
		<layer id="28" name="Conv_6/WithoutBiases" type="Convolution" version="opset1">
			<data auto_pad="explicit" dilations="1, 1" pads_begin="1, 1" pads_end="1, 1" strides="2, 2"/>
			<input>
				<port id="0" precision="FP32">
					<dim>1</dim>
					<dim>3</dim>
					<dim>540</dim>
					<dim>960</dim>
				</port>
				<port id="1" precision="FP32">
					<dim>16</dim>
					<dim>3</dim>
					<dim>3</dim>
					<dim>3</dim>
				</port>
			</input>
			<output>
				<port id="2" precision="FP32">
					<dim>1</dim>
					<dim>16</dim>
					<dim>270</dim>
					<dim>480</dim>
				</port>
			</output>
		</layer>
		<layer id="29" name="Conv_6/Dims12885" type="Const" version="opset1">
			<data element_type="f32" offset="1820" shape="1, 16, 1, 1" size="64"/>
			<output>
				<port id="0" precision="FP32">
					<dim>1</dim>
					<dim>16</dim>
					<dim>1</dim>
					<dim>1</dim>
				</port>
			</output>
		</layer>
		<layer id="30" name="Conv_6" type="Add" version="opset1">
			<data auto_broadcast="numpy"/>
			<input>
				<port id="0" precision="FP32">
					<dim>1</dim>
					<dim>16</dim>
					<dim>270</dim>
					<dim>480</dim>
				</port>
				<port id="1" precision="FP32">
					<dim>1</dim>
					<dim>16</dim>
					<dim>1</dim>
					<dim>1</dim>
				</port>
			</input>
			<output>
				<port id="2" names="1711" precision="FP32">
					<dim>1</dim>
					<dim>16</dim>
					<dim>270</dim>
					<dim>480</dim>
				</port>
			</output>
		</layer>
		<layer id="31" name="Constant_7" type="Const" version="opset1">
			<data element_type="f32" offset="1884" shape="1, 1, 1, 1" size="4"/>
			<output>
				<port id="0" names="724" precision="FP32">
					<dim>1</dim>
					<dim>1</dim>
					<dim>1</dim>
					<dim>1</dim>
				</port>
			</output>
		</layer>
		<layer id="32" name="Add_8" type="Add" version="opset1">
			<data auto_broadcast="numpy"/>
			<input>
				<port id="0" precision="FP32">
					<dim>1</dim>
					<dim>16</dim>
					<dim>270</dim>
					<dim>480</dim>
				</port>
				<port id="1" precision="FP32">
					<dim>1</dim>
					<dim>1</dim>
					<dim>1</dim>
					<dim>1</dim>
				</port>
			</input>
			<output>
				<port id="2" names="725" precision="FP32">
					<dim>1</dim>
					<dim>16</dim>
					<dim>270</dim>
					<dim>480</dim>
				</port>
			</output>
		</layer>
		<layer id="33" name="Clip_11" type="Clamp" version="opset1">
			<data max="6" min="0"/>
			<input>
				<port id="0" precision="FP32">
					<dim>1</dim>
					<dim>16</dim>
					<dim>270</dim>
					<dim>480</dim>
				</port>
			</input>
			<output>
				<port id="1" names="728" precision="FP32">
					<dim>1</dim>
					<dim>16</dim>
					<dim>270</dim>
					<dim>480</dim>
				</port>
			</output>
		</layer>
		<layer id="34" name="Constant_12" type="Const" version="opset1">
			<data element_type="f32" offset="1888" shape="1, 1, 1, 1" size="4"/>
			<output>
				<port id="0" names="729" precision="FP32">
					<dim>1</dim>
					<dim>1</dim>
					<dim>1</dim>
					<dim>1</dim>
				</port>
			</output>
		</layer>
		<layer id="35" name="Div_13" type="Multiply" version="opset1">
			<data auto_broadcast="numpy"/>
			<input>
				<port id="0" precision="FP32">
					<dim>1</dim>
					<dim>16</dim>
					<dim>270</dim>
					<dim>480</dim>
				</port>
				<port id="1" precision="FP32">
					<dim>1</dim>
					<dim>1</dim>
					<dim>1</dim>
					<dim>1</dim>
				</port>
			</input>
			<output>
				<port id="2" names="730" precision="FP32">
					<dim>1</dim>
					<dim>16</dim>
					<dim>270</dim>
					<dim>480</dim>
				</port>
			</output>
		</layer>
		<layer id="36" name="Mul_14" type="Multiply" version="opset1">
			<data auto_broadcast="numpy"/>
			<input>
				<port id="0" precision="FP32">
					<dim>1</dim>
					<dim>16</dim>
					<dim>270</dim>
					<dim>480</dim>
				</port>
				<port id="1" precision="FP32">
					<dim>1</dim>
					<dim>16</dim>
					<dim>270</dim>
					<dim>480</dim>
				</port>
			</input>
			<output>
				<port id="2" names="731" precision="FP32">
					<dim>1</dim>
					<dim>16</dim>
					<dim>270</dim>
					<dim>480</dim>
				</port>
			</output>
		</layer>
		<layer id="37" name="1715" type="Const" version="opset1">
			<data element_type="f32" offset="1892" shape="16, 1, 1, 3, 3" size="576"/>
			<output>
				<port id="0" names="1715" precision="FP32">
					<dim>16</dim>
					<dim>1</dim>
					<dim>1</dim>
					<dim>3</dim>
					<dim>3</dim>
				</port>
			</output>
		</layer>
		<layer id="38" name="Conv_15/WithoutBiases" type="GroupConvolution" version="opset1">
			<data auto_pad="explicit" dilations="1, 1" pads_begin="1, 1" pads_end="1, 1" strides="1, 1"/>
			<input>
				<port id="0" precision="FP32">
					<dim>1</dim>
					<dim>16</dim>
					<dim>270</dim>
					<dim>480</dim>
				</port>
				<port id="1" precision="FP32">
					<dim>16</dim>
					<dim>1</dim>
					<dim>1</dim>
					<dim>3</dim>
					<dim>3</dim>
				</port>
			</input>
			<output>
				<port id="2" precision="FP32">
					<dim>1</dim>
					<dim>16</dim>
					<dim>270</dim>
					<dim>480</dim>
				</port>
			</output>
		</layer>
		<layer id="39" name="Conv_15/Dims12933" type="Const" version="opset1">
			<data element_type="f32" offset="2468" shape="1, 16, 1, 1" size="64"/>
			<output>
				<port id="0" precision="FP32">
					<dim>1</dim>
					<dim>16</dim>
					<dim>1</dim>
					<dim>1</dim>
				</port>
			</output>
		</layer>
		<layer id="40" name="Conv_15" type="Add" version="opset1">
			<data auto_broadcast="numpy"/>
			<input>
				<port id="0" precision="FP32">
					<dim>1</dim>
					<dim>16</dim>
					<dim>270</dim>
					<dim>480</dim>
				</port>
				<port id="1" precision="FP32">
					<dim>1</dim>
					<dim>16</dim>
					<dim>1</dim>
					<dim>1</dim>
				</port>
			</input>
			<output>
				<port id="2" names="1714" precision="FP32">
					<dim>1</dim>
					<dim>16</dim>
					<dim>270</dim>
					<dim>480</dim>
				</port>
			</output>
		</layer>
		<layer id="41" name="Relu_16" type="ReLU" version="opset1">
			<input>
				<port id="0" precision="FP32">
					<dim>1</dim>
					<dim>16</dim>
					<dim>270</dim>
					<dim>480</dim>
				</port>
			</input>
			<output>
				<port id="1" names="734" precision="FP32">
					<dim>1</dim>
					<dim>16</dim>
					<dim>270</dim>
					<dim>480</dim>
				</port>
			</output>
		</layer>
		<layer id="42" name="1718" type="Const" version="opset1">
			<data element_type="f32" offset="2532" shape="16, 16, 1, 1" size="1024"/>
			<output>
				<port id="0" names="1718" precision="FP32">
					<dim>16</dim>
					<dim>16</dim>
					<dim>1</dim>
					<dim>1</dim>
				</port>
			</output>
		</layer>
		<layer id="43" name="Conv_17/WithoutBiases" type="Convolution" version="opset1">
			<data auto_pad="explicit" dilations="1, 1" pads_begin="0, 0" pads_end="0, 0" strides="1, 1"/>
			<input>
				<port id="0" precision="FP32">
					<dim>1</dim>
					<dim>16</dim>
					<dim>270</dim>
					<dim>480</dim>
				</port>
				<port id="1" precision="FP32">
					<dim>16</dim>
					<dim>16</dim>
					<dim>1</dim>
					<dim>1</dim>
				</port>
			</input>
			<output>
				<port id="2" precision="FP32">
					<dim>1</dim>
					<dim>16</dim>
					<dim>270</dim>
					<dim>480</dim>
				</port>
			</output>
		</layer>
		<layer id="44" name="Conv_17/Dims12849" type="Const" version="opset1">
			<data element_type="f32" offset="3556" shape="1, 16, 1, 1" size="64"/>
			<output>
				<port id="0" precision="FP32">
					<dim>1</dim>
					<dim>16</dim>
					<dim>1</dim>
					<dim>1</dim>
				</port>
			</output>
		</layer>
		<layer id="45" name="Conv_17" type="Add" version="opset1">
			<data auto_broadcast="numpy"/>
			<input>
				<port id="0" precision="FP32">
					<dim>1</dim>
					<dim>16</dim>
					<dim>270</dim>
					<dim>480</dim>
				</port>
				<port id="1" precision="FP32">
					<dim>1</dim>
					<dim>16</dim>
					<dim>1</dim>
					<dim>1</dim>
				</port>
			</input>
			<output>
				<port id="2" names="1717" precision="FP32">
					<dim>1</dim>
					<dim>16</dim>
					<dim>270</dim>
					<dim>480</dim>
				</port>
			</output>
		</layer>
		<layer id="46" name="Add_18" type="Add" version="opset1">
			<data auto_broadcast="numpy"/>
			<input>
				<port id="0" precision="FP32">
					<dim>1</dim>
					<dim>16</dim>
					<dim>270</dim>
					<dim>480</dim>
				</port>
				<port id="1" precision="FP32">
					<dim>1</dim>
					<dim>16</dim>
					<dim>270</dim>
					<dim>480</dim>
				</port>
			</input>
			<output>
				<port id="2" names="737" precision="FP32">
					<dim>1</dim>
					<dim>16</dim>
					<dim>270</dim>
					<dim>480</dim>
				</port>
			</output>
		</layer>
		<layer id="47" name="1721" type="Const" version="opset1">
			<data element_type="f32" offset="3620" shape="64, 16, 1, 1" size="4096"/>
			<output>
				<port id="0" names="1721" precision="FP32">
					<dim>64</dim>
					<dim>16</dim>
					<dim>1</dim>
					<dim>1</dim>
				</port>
			</output>
		</layer>
		<layer id="48" name="Conv_19/WithoutBiases" type="Convolution" version="opset1">
			<data auto_pad="explicit" dilations="1, 1" pads_begin="0, 0" pads_end="0, 0" strides="1, 1"/>
			<input>
				<port id="0" precision="FP32">
					<dim>1</dim>
					<dim>16</dim>
					<dim>270</dim>
					<dim>480</dim>
				</port>
				<port id="1" precision="FP32">
					<dim>64</dim>
					<dim>16</dim>
					<dim>1</dim>
					<dim>1</dim>
				</port>
			</input>
			<output>
				<port id="2" precision="FP32">
					<dim>1</dim>
					<dim>64</dim>
					<dim>270</dim>
					<dim>480</dim>
				</port>
			</output>
		</layer>
		<layer id="49" name="Conv_19/Dims12981" type="Const" version="opset1">
			<data element_type="f32" offset="7716" shape="1, 64, 1, 1" size="256"/>
			<output>
				<port id="0" precision="FP32">
					<dim>1</dim>
					<dim>64</dim>
					<dim>1</dim>
					<dim>1</dim>
				</port>
			</output>
		</layer>
		<layer id="50" name="Conv_19" type="Add" version="opset1">
			<data auto_broadcast="numpy"/>
			<input>
				<port id="0" precision="FP32">
					<dim>1</dim>
					<dim>64</dim>
					<dim>270</dim>
					<dim>480</dim>
				</port>
				<port id="1" precision="FP32">
					<dim>1</dim>
					<dim>64</dim>
					<dim>1</dim>
					<dim>1</dim>
				</port>
			</input>
			<output>
				<port id="2" names="1720" precision="FP32">
					<dim>1</dim>
					<dim>64</dim>
					<dim>270</dim>
					<dim>480</dim>
				</port>
			</output>
		</layer>
		<layer id="51" name="Relu_20" type="ReLU" version="opset1">
			<input>
				<port id="0" precision="FP32">
					<dim>1</dim>
					<dim>64</dim>
					<dim>270</dim>
					<dim>480</dim>
				</port>
			</input>
			<output>
				<port id="1" names="740" precision="FP32">
					<dim>1</dim>
					<dim>64</dim>
					<dim>270</dim>
					<dim>480</dim>
				</port>
			</output>
		</layer>
		<layer id="52" name="1724" type="Const" version="opset1">
			<data element_type="f32" offset="7972" shape="64, 1, 1, 3, 3" size="2304"/>
			<output>
				<port id="0" names="1724" precision="FP32">
					<dim>64</dim>
					<dim>1</dim>
					<dim>1</dim>
					<dim>3</dim>
					<dim>3</dim>
				</port>
			</output>
		</layer>
		<layer id="53" name="Conv_21/WithoutBiases" type="GroupConvolution" version="opset1">
			<data auto_pad="explicit" dilations="1, 1" pads_begin="1, 1" pads_end="1, 1" strides="2, 2"/>
			<input>
				<port id="0" precision="FP32">
					<dim>1</dim>
					<dim>64</dim>
					<dim>270</dim>
					<dim>480</dim>
				</port>
				<port id="1" precision="FP32">
					<dim>64</dim>
					<dim>1</dim>
					<dim>1</dim>
					<dim>3</dim>
					<dim>3</dim>
				</port>
			</input>
			<output>
				<port id="2" precision="FP32">
					<dim>1</dim>
					<dim>64</dim>
					<dim>135</dim>
					<dim>240</dim>
				</port>
			</output>
		</layer>
		<layer id="54" name="Conv_21/Dims13239" type="Const" version="opset1">
			<data element_type="f32" offset="10276" shape="1, 64, 1, 1" size="256"/>
			<output>
				<port id="0" precision="FP32">
					<dim>1</dim>
					<dim>64</dim>
					<dim>1</dim>
					<dim>1</dim>
				</port>
			</output>
		</layer>
		<layer id="55" name="Conv_21" type="Add" version="opset1">
			<data auto_broadcast="numpy"/>
			<input>
				<port id="0" precision="FP32">
					<dim>1</dim>
					<dim>64</dim>
					<dim>135</dim>
					<dim>240</dim>
				</port>
				<port id="1" precision="FP32">
					<dim>1</dim>
					<dim>64</dim>
					<dim>1</dim>
					<dim>1</dim>
				</port>
			</input>
			<output>
				<port id="2" names="1723" precision="FP32">
					<dim>1</dim>
					<dim>64</dim>
					<dim>135</dim>
					<dim>240</dim>
				</port>
			</output>
		</layer>
		<layer id="56" name="Relu_22" type="ReLU" version="opset1">
			<input>
				<port id="0" precision="FP32">
					<dim>1</dim>
					<dim>64</dim>
					<dim>135</dim>
					<dim>240</dim>
				</port>
			</input>
			<output>
				<port id="1" names="743" precision="FP32">
					<dim>1</dim>
					<dim>64</dim>
					<dim>135</dim>
					<dim>240</dim>
				</port>
			</output>
		</layer>
		<layer id="57" name="1727" type="Const" version="opset1">
			<data element_type="f32" offset="10532" shape="24, 64, 1, 1" size="6144"/>
			<output>
				<port id="0" names="1727" precision="FP32">
					<dim>24</dim>
					<dim>64</dim>
					<dim>1</dim>
					<dim>1</dim>
				</port>
			</output>
		</layer>
		<layer id="58" name="Conv_23/WithoutBiases" type="Convolution" version="opset1">
			<data auto_pad="explicit" dilations="1, 1" pads_begin="0, 0" pads_end="0, 0" strides="1, 1"/>
			<input>
				<port id="0" precision="FP32">
					<dim>1</dim>
					<dim>64</dim>
					<dim>135</dim>
					<dim>240</dim>
				</port>
				<port id="1" precision="FP32">
					<dim>24</dim>
					<dim>64</dim>
					<dim>1</dim>
					<dim>1</dim>
				</port>
			</input>
			<output>
				<port id="2" precision="FP32">
					<dim>1</dim>
					<dim>24</dim>
					<dim>135</dim>
					<dim>240</dim>
				</port>
			</output>
		</layer>
		<layer id="59" name="Conv_23/Dims12507" type="Const" version="opset1">
			<data element_type="f32" offset="16676" shape="1, 24, 1, 1" size="96"/>
			<output>
				<port id="0" precision="FP32">
					<dim>1</dim>
					<dim>24</dim>
					<dim>1</dim>
					<dim>1</dim>
				</port>
			</output>
		</layer>
		<layer id="60" name="Conv_23" type="Add" version="opset1">
			<data auto_broadcast="numpy"/>
			<input>
				<port id="0" precision="FP32">
					<dim>1</dim>
					<dim>24</dim>
					<dim>135</dim>
					<dim>240</dim>
				</port>
				<port id="1" precision="FP32">
					<dim>1</dim>
					<dim>24</dim>
					<dim>1</dim>
					<dim>1</dim>
				</port>
			</input>
			<output>
				<port id="2" names="1726" precision="FP32">
					<dim>1</dim>
					<dim>24</dim>
					<dim>135</dim>
					<dim>240</dim>
				</port>
			</output>
		</layer>
		<layer id="61" name="1730" type="Const" version="opset1">
			<data element_type="f32" offset="16772" shape="72, 24, 1, 1" size="6912"/>
			<output>
				<port id="0" names="1730" precision="FP32">
					<dim>72</dim>
					<dim>24</dim>
					<dim>1</dim>
					<dim>1</dim>
				</port>
			</output>
		</layer>
		<layer id="62" name="Conv_24/WithoutBiases" type="Convolution" version="opset1">
			<data auto_pad="explicit" dilations="1, 1" pads_begin="0, 0" pads_end="0, 0" strides="1, 1"/>
			<input>
				<port id="0" precision="FP32">
					<dim>1</dim>
					<dim>24</dim>
					<dim>135</dim>
					<dim>240</dim>
				</port>
				<port id="1" precision="FP32">
					<dim>72</dim>
					<dim>24</dim>
					<dim>1</dim>
					<dim>1</dim>
				</port>
			</input>
			<output>
				<port id="2" precision="FP32">
					<dim>1</dim>
					<dim>72</dim>
					<dim>135</dim>
					<dim>240</dim>
				</port>
			</output>
		</layer>
		<layer id="63" name="Conv_24/Dims13065" type="Const" version="opset1">
			<data element_type="f32" offset="23684" shape="1, 72, 1, 1" size="288"/>
			<output>
				<port id="0" precision="FP32">
					<dim>1</dim>
					<dim>72</dim>
					<dim>1</dim>
					<dim>1</dim>
				</port>
			</output>
		</layer>
		<layer id="64" name="Conv_24" type="Add" version="opset1">
			<data auto_broadcast="numpy"/>
			<input>
				<port id="0" precision="FP32">
					<dim>1</dim>
					<dim>72</dim>
					<dim>135</dim>
					<dim>240</dim>
				</port>
				<port id="1" precision="FP32">
					<dim>1</dim>
					<dim>72</dim>
					<dim>1</dim>
					<dim>1</dim>
				</port>
			</input>
			<output>
				<port id="2" names="1729" precision="FP32">
					<dim>1</dim>
					<dim>72</dim>
					<dim>135</dim>
					<dim>240</dim>
				</port>
			</output>
		</layer>
		<layer id="65" name="Relu_25" type="ReLU" version="opset1">
			<input>
				<port id="0" precision="FP32">
					<dim>1</dim>
					<dim>72</dim>
					<dim>135</dim>
					<dim>240</dim>
				</port>
			</input>
			<output>
				<port id="1" names="748" precision="FP32">
					<dim>1</dim>
					<dim>72</dim>
					<dim>135</dim>
					<dim>240</dim>
				</port>
			</output>
		</layer>
		<layer id="66" name="1733" type="Const" version="opset1">
			<data element_type="f32" offset="23972" shape="72, 1, 1, 3, 3" size="2592"/>
			<output>
				<port id="0" names="1733" precision="FP32">
					<dim>72</dim>
					<dim>1</dim>
					<dim>1</dim>
					<dim>3</dim>
					<dim>3</dim>
				</port>
			</output>
		</layer>
		<layer id="67" name="Conv_26/WithoutBiases" type="GroupConvolution" version="opset1">
			<data auto_pad="explicit" dilations="1, 1" pads_begin="1, 1" pads_end="1, 1" strides="1, 1"/>
			<input>
				<port id="0" precision="FP32">
					<dim>1</dim>
					<dim>72</dim>
					<dim>135</dim>
					<dim>240</dim>
				</port>
				<port id="1" precision="FP32">
					<dim>72</dim>
					<dim>1</dim>
					<dim>1</dim>
					<dim>3</dim>
					<dim>3</dim>
				</port>
			</input>
			<output>
				<port id="2" precision="FP32">
					<dim>1</dim>
					<dim>72</dim>
					<dim>135</dim>
					<dim>240</dim>
				</port>
			</output>
		</layer>
		<layer id="68" name="Conv_26/Dims12975" type="Const" version="opset1">
			<data element_type="f32" offset="26564" shape="1, 72, 1, 1" size="288"/>
			<output>
				<port id="0" precision="FP32">
					<dim>1</dim>
					<dim>72</dim>
					<dim>1</dim>
					<dim>1</dim>
				</port>
			</output>
		</layer>
		<layer id="69" name="Conv_26" type="Add" version="opset1">
			<data auto_broadcast="numpy"/>
			<input>
				<port id="0" precision="FP32">
					<dim>1</dim>
					<dim>72</dim>
					<dim>135</dim>
					<dim>240</dim>
				</port>
				<port id="1" precision="FP32">
					<dim>1</dim>
					<dim>72</dim>
					<dim>1</dim>
					<dim>1</dim>
				</port>
			</input>
			<output>
				<port id="2" names="1732" precision="FP32">
					<dim>1</dim>
					<dim>72</dim>
					<dim>135</dim>
					<dim>240</dim>
				</port>
			</output>
		</layer>
		<layer id="70" name="Relu_27" type="ReLU" version="opset1">
			<input>
				<port id="0" precision="FP32">
					<dim>1</dim>
					<dim>72</dim>
					<dim>135</dim>
					<dim>240</dim>
				</port>
			</input>
			<output>
				<port id="1" names="751" precision="FP32">
					<dim>1</dim>
					<dim>72</dim>
					<dim>135</dim>
					<dim>240</dim>
				</port>
			</output>
		</layer>
		<layer id="71" name="1736" type="Const" version="opset1">
			<data element_type="f32" offset="26852" shape="24, 72, 1, 1" size="6912"/>
			<output>
				<port id="0" names="1736" precision="FP32">
					<dim>24</dim>
					<dim>72</dim>
					<dim>1</dim>
					<dim>1</dim>
				</port>
			</output>
		</layer>
		<layer id="72" name="Conv_28/WithoutBiases" type="Convolution" version="opset1">
			<data auto_pad="explicit" dilations="1, 1" pads_begin="0, 0" pads_end="0, 0" strides="1, 1"/>
			<input>
				<port id="0" precision="FP32">
					<dim>1</dim>
					<dim>72</dim>
					<dim>135</dim>
					<dim>240</dim>
				</port>
				<port id="1" precision="FP32">
					<dim>24</dim>
					<dim>72</dim>
					<dim>1</dim>
					<dim>1</dim>
				</port>
			</input>
			<output>
				<port id="2" precision="FP32">
					<dim>1</dim>
					<dim>24</dim>
					<dim>135</dim>
					<dim>240</dim>
				</port>
			</output>
		</layer>
		<layer id="73" name="Conv_28/Dims12735" type="Const" version="opset1">
			<data element_type="f32" offset="33764" shape="1, 24, 1, 1" size="96"/>
			<output>
				<port id="0" precision="FP32">
					<dim>1</dim>
					<dim>24</dim>
					<dim>1</dim>
					<dim>1</dim>
				</port>
			</output>
		</layer>
		<layer id="74" name="Conv_28" type="Add" version="opset1">
			<data auto_broadcast="numpy"/>
			<input>
				<port id="0" precision="FP32">
					<dim>1</dim>
					<dim>24</dim>
					<dim>135</dim>
					<dim>240</dim>
				</port>
				<port id="1" precision="FP32">
					<dim>1</dim>
					<dim>24</dim>
					<dim>1</dim>
					<dim>1</dim>
				</port>
			</input>
			<output>
				<port id="2" names="1735" precision="FP32">
					<dim>1</dim>
					<dim>24</dim>
					<dim>135</dim>
					<dim>240</dim>
				</port>
			</output>
		</layer>
		<layer id="75" name="Add_29" type="Add" version="opset1">
			<data auto_broadcast="numpy"/>
			<input>
				<port id="0" precision="FP32">
					<dim>1</dim>
					<dim>24</dim>
					<dim>135</dim>
					<dim>240</dim>
				</port>
				<port id="1" precision="FP32">
					<dim>1</dim>
					<dim>24</dim>
					<dim>135</dim>
					<dim>240</dim>
				</port>
			</input>
			<output>
				<port id="2" names="754" precision="FP32">
					<dim>1</dim>
					<dim>24</dim>
					<dim>135</dim>
					<dim>240</dim>
				</port>
			</output>
		</layer>
		<layer id="76" name="1739" type="Const" version="opset1">
			<data element_type="f32" offset="33860" shape="72, 24, 1, 1" size="6912"/>
			<output>
				<port id="0" names="1739" precision="FP32">
					<dim>72</dim>
					<dim>24</dim>
					<dim>1</dim>
					<dim>1</dim>
				</port>
			</output>
		</layer>
		<layer id="77" name="Conv_30/WithoutBiases" type="Convolution" version="opset1">
			<data auto_pad="explicit" dilations="1, 1" pads_begin="0, 0" pads_end="0, 0" strides="1, 1"/>
			<input>
				<port id="0" precision="FP32">
					<dim>1</dim>
					<dim>24</dim>
					<dim>135</dim>
					<dim>240</dim>
				</port>
				<port id="1" precision="FP32">
					<dim>72</dim>
					<dim>24</dim>
					<dim>1</dim>
					<dim>1</dim>
				</port>
			</input>
			<output>
				<port id="2" precision="FP32">
					<dim>1</dim>
					<dim>72</dim>
					<dim>135</dim>
					<dim>240</dim>
				</port>
			</output>
		</layer>
		<layer id="78" name="Conv_30/Dims12519" type="Const" version="opset1">
			<data element_type="f32" offset="40772" shape="1, 72, 1, 1" size="288"/>
			<output>
				<port id="0" precision="FP32">
					<dim>1</dim>
					<dim>72</dim>
					<dim>1</dim>
					<dim>1</dim>
				</port>
			</output>
		</layer>
		<layer id="79" name="Conv_30" type="Add" version="opset1">
			<data auto_broadcast="numpy"/>
			<input>
				<port id="0" precision="FP32">
					<dim>1</dim>
					<dim>72</dim>
					<dim>135</dim>
					<dim>240</dim>
				</port>
				<port id="1" precision="FP32">
					<dim>1</dim>
					<dim>72</dim>
					<dim>1</dim>
					<dim>1</dim>
				</port>
			</input>
			<output>
				<port id="2" names="1738" precision="FP32">
					<dim>1</dim>
					<dim>72</dim>
					<dim>135</dim>
					<dim>240</dim>
				</port>
			</output>
		</layer>
		<layer id="80" name="Relu_31" type="ReLU" version="opset1">
			<input>
				<port id="0" precision="FP32">
					<dim>1</dim>
					<dim>72</dim>
					<dim>135</dim>
					<dim>240</dim>
				</port>
			</input>
			<output>
				<port id="1" names="757" precision="FP32">
					<dim>1</dim>
					<dim>72</dim>
					<dim>135</dim>
					<dim>240</dim>
				</port>
			</output>
		</layer>
		<layer id="81" name="1742" type="Const" version="opset1">
			<data element_type="f32" offset="41060" shape="72, 1, 1, 5, 5" size="7200"/>
			<output>
				<port id="0" names="1742" precision="FP32">
					<dim>72</dim>
					<dim>1</dim>
					<dim>1</dim>
					<dim>5</dim>
					<dim>5</dim>
				</port>
			</output>
		</layer>
		<layer id="82" name="Conv_32/WithoutBiases" type="GroupConvolution" version="opset1">
			<data auto_pad="explicit" dilations="1, 1" pads_begin="2, 2" pads_end="2, 2" strides="2, 2"/>
			<input>
				<port id="0" precision="FP32">
					<dim>1</dim>
					<dim>72</dim>
					<dim>135</dim>
					<dim>240</dim>
				</port>
				<port id="1" precision="FP32">
					<dim>72</dim>
					<dim>1</dim>
					<dim>1</dim>
					<dim>5</dim>
					<dim>5</dim>
				</port>
			</input>
			<output>
				<port id="2" precision="FP32">
					<dim>1</dim>
					<dim>72</dim>
					<dim>68</dim>
					<dim>120</dim>
				</port>
			</output>
		</layer>
		<layer id="83" name="Conv_32/Dims13005" type="Const" version="opset1">
			<data element_type="f32" offset="48260" shape="1, 72, 1, 1" size="288"/>
			<output>
				<port id="0" precision="FP32">
					<dim>1</dim>
					<dim>72</dim>
					<dim>1</dim>
					<dim>1</dim>
				</port>
			</output>
		</layer>
		<layer id="84" name="Conv_32" type="Add" version="opset1">
			<data auto_broadcast="numpy"/>
			<input>
				<port id="0" precision="FP32">
					<dim>1</dim>
					<dim>72</dim>
					<dim>68</dim>
					<dim>120</dim>
				</port>
				<port id="1" precision="FP32">
					<dim>1</dim>
					<dim>72</dim>
					<dim>1</dim>
					<dim>1</dim>
				</port>
			</input>
			<output>
				<port id="2" names="1741" precision="FP32">
					<dim>1</dim>
					<dim>72</dim>
					<dim>68</dim>
					<dim>120</dim>
				</port>
			</output>
		</layer>
		<layer id="85" name="Relu_33" type="ReLU" version="opset1">
			<input>
				<port id="0" precision="FP32">
					<dim>1</dim>
					<dim>72</dim>
					<dim>68</dim>
					<dim>120</dim>
				</port>
			</input>
			<output>
				<port id="1" names="760" precision="FP32">
					<dim>1</dim>
					<dim>72</dim>
					<dim>68</dim>
					<dim>120</dim>
				</port>
			</output>
		</layer>
		<layer id="86" name="1267" type="Const" version="opset1">
			<data element_type="i64" offset="20" shape="" size="8"/>
			<output>
				<port id="0" precision="I64"/>
			</output>
		</layer>
		<layer id="87" name="GlobalAveragePool_34/input_rank/shape_of" type="ShapeOf" version="opset3">
			<data output_type="i64"/>
			<input>
				<port id="0" precision="FP32">
					<dim>1</dim>
					<dim>72</dim>
					<dim>68</dim>
					<dim>120</dim>
				</port>
			</input>
			<output>
				<port id="1" precision="I64">
					<dim>4</dim>
				</port>
			</output>
		</layer>
		<layer id="88" name="GlobalAveragePool_34/input_rank/rank_of" type="ShapeOf" version="opset3">
			<data output_type="i64"/>
			<input>
				<port id="0" precision="I64">
					<dim>4</dim>
				</port>
			</input>
			<output>
				<port id="1" precision="I64">
					<dim>1</dim>
				</port>
			</output>
		</layer>
		<layer id="89" name="GlobalAveragePool_34/input_rank/0d_rank_of/value" type="Const" version="opset1">
			<data element_type="i64" offset="48548" shape="1" size="8"/>
			<output>
				<port id="0" precision="I64">
					<dim>1</dim>
				</port>
			</output>
		</layer>
		<layer id="90" name="GlobalAveragePool_34/input_rank" type="Squeeze" version="opset1">
			<input>
				<port id="0" precision="I64">
					<dim>1</dim>
				</port>
				<port id="1" precision="I64">
					<dim>1</dim>
				</port>
			</input>
			<output>
				<port id="2" precision="I64"/>
			</output>
		</layer>
		<layer id="91" name="1269" type="Const" version="opset1">
			<data element_type="i64" offset="36" shape="" size="8"/>
			<output>
				<port id="0" precision="I64"/>
			</output>
		</layer>
		<layer id="92" name="GlobalAveragePool_34/global_pooling_reduce_axis" type="Range" version="opset4">
			<data output_type="i64"/>
			<input>
				<port id="0" precision="I64"/>
				<port id="1" precision="I64"/>
				<port id="2" precision="I64"/>
			</input>
			<output>
				<port id="3" precision="I64">
					<dim>2</dim>
				</port>
			</output>
		</layer>
		<layer id="93" name="GlobalAveragePool_34/reduce" type="ReduceMean" version="opset1">
			<data keep_dims="true"/>
			<input>
				<port id="0" precision="FP32">
					<dim>1</dim>
					<dim>72</dim>
					<dim>68</dim>
					<dim>120</dim>
				</port>
				<port id="1" precision="I64">
					<dim>2</dim>
				</port>
			</input>
			<output>
				<port id="2" names="761" precision="FP32">
					<dim>1</dim>
					<dim>72</dim>
					<dim>1</dim>
					<dim>1</dim>
				</port>
			</output>
		</layer>
		<layer id="94" name="backbone.features.4.block.2.fc1.weight" type="Const" version="opset1">
			<data element_type="f32" offset="48556" shape="24, 72, 1, 1" size="6912"/>
			<output>
				<port id="0" names="backbone.features.4.block.2.fc1.weight" precision="FP32">
					<dim>24</dim>
					<dim>72</dim>
					<dim>1</dim>
					<dim>1</dim>
				</port>
			</output>
		</layer>
		<layer id="95" name="Conv_35/WithoutBiases" type="Convolution" version="opset1">
			<data auto_pad="explicit" dilations="1, 1" pads_begin="0, 0" pads_end="0, 0" strides="1, 1"/>
			<input>
				<port id="0" precision="FP32">
					<dim>1</dim>
					<dim>72</dim>
					<dim>1</dim>
					<dim>1</dim>
				</port>
				<port id="1" precision="FP32">
					<dim>24</dim>
					<dim>72</dim>
					<dim>1</dim>
					<dim>1</dim>
				</port>
			</input>
			<output>
				<port id="2" precision="FP32">
					<dim>1</dim>
					<dim>24</dim>
					<dim>1</dim>
					<dim>1</dim>
				</port>
			</output>
		</layer>
		<layer id="96" name="Conv_35/Dims12951" type="Const" version="opset1">
			<data element_type="f32" offset="55468" shape="1, 24, 1, 1" size="96"/>
			<output>
				<port id="0" precision="FP32">
					<dim>1</dim>
					<dim>24</dim>
					<dim>1</dim>
					<dim>1</dim>
				</port>
			</output>
		</layer>
		<layer id="97" name="Conv_35" type="Add" version="opset1">
			<data auto_broadcast="numpy"/>
			<input>
				<port id="0" precision="FP32">
					<dim>1</dim>
					<dim>24</dim>
					<dim>1</dim>
					<dim>1</dim>
				</port>
				<port id="1" precision="FP32">
					<dim>1</dim>
					<dim>24</dim>
					<dim>1</dim>
					<dim>1</dim>
				</port>
			</input>
			<output>
				<port id="2" names="762" precision="FP32">
					<dim>1</dim>
					<dim>24</dim>
					<dim>1</dim>
					<dim>1</dim>
				</port>
			</output>
		</layer>
		<layer id="98" name="Relu_36" type="ReLU" version="opset1">
			<input>
				<port id="0" precision="FP32">
					<dim>1</dim>
					<dim>24</dim>
					<dim>1</dim>
					<dim>1</dim>
				</port>
			</input>
			<output>
				<port id="1" names="763" precision="FP32">
					<dim>1</dim>
					<dim>24</dim>
					<dim>1</dim>
					<dim>1</dim>
				</port>
			</output>
		</layer>
		<layer id="99" name="backbone.features.4.block.2.fc2.weight" type="Const" version="opset1">
			<data element_type="f32" offset="55564" shape="72, 24, 1, 1" size="6912"/>
			<output>
				<port id="0" names="backbone.features.4.block.2.fc2.weight" precision="FP32">
					<dim>72</dim>
					<dim>24</dim>
					<dim>1</dim>
					<dim>1</dim>
				</port>
			</output>
		</layer>
		<layer id="100" name="Conv_37/WithoutBiases" type="Convolution" version="opset1">
			<data auto_pad="explicit" dilations="1, 1" pads_begin="0, 0" pads_end="0, 0" strides="1, 1"/>
			<input>
				<port id="0" precision="FP32">
					<dim>1</dim>
					<dim>24</dim>
					<dim>1</dim>
					<dim>1</dim>
				</port>
				<port id="1" precision="FP32">
					<dim>72</dim>
					<dim>24</dim>
					<dim>1</dim>
					<dim>1</dim>
				</port>
			</input>
			<output>
				<port id="2" precision="FP32">
					<dim>1</dim>
					<dim>72</dim>
					<dim>1</dim>
					<dim>1</dim>
				</port>
			</output>
		</layer>
		<layer id="101" name="Conv_37/Dims13107" type="Const" version="opset1">
			<data element_type="f32" offset="62476" shape="1, 72, 1, 1" size="288"/>
			<output>
				<port id="0" precision="FP32">
					<dim>1</dim>
					<dim>72</dim>
					<dim>1</dim>
					<dim>1</dim>
				</port>
			</output>
		</layer>
		<layer id="102" name="Conv_37" type="Add" version="opset1">
			<data auto_broadcast="numpy"/>
			<input>
				<port id="0" precision="FP32">
					<dim>1</dim>
					<dim>72</dim>
					<dim>1</dim>
					<dim>1</dim>
				</port>
				<port id="1" precision="FP32">
					<dim>1</dim>
					<dim>72</dim>
					<dim>1</dim>
					<dim>1</dim>
				</port>
			</input>
			<output>
				<port id="2" names="764" precision="FP32">
					<dim>1</dim>
					<dim>72</dim>
					<dim>1</dim>
					<dim>1</dim>
				</port>
			</output>
		</layer>
		<layer id="103" name="HardSigmoid_38/HardSigmoid__input_port_1/value" type="Const" version="opset1">
			<data element_type="f32" offset="1888" shape="" size="4"/>
			<output>
				<port id="0" precision="FP32"/>
			</output>
		</layer>
		<layer id="104" name="HardSigmoid_38/HardSigmoid__input_port_2/value" type="Const" version="opset1">
			<data element_type="f32" offset="62764" shape="" size="4"/>
			<output>
				<port id="0" precision="FP32"/>
			</output>
		</layer>
		<layer id="105" name="HardSigmoid_38/HardSigmoid_" type="HardSigmoid" version="opset1">
			<input>
				<port id="0" precision="FP32">
					<dim>1</dim>
					<dim>72</dim>
					<dim>1</dim>
					<dim>1</dim>
				</port>
				<port id="1" precision="FP32"/>
				<port id="2" precision="FP32"/>
			</input>
			<output>
				<port id="3" names="765" precision="FP32">
					<dim>1</dim>
					<dim>72</dim>
					<dim>1</dim>
					<dim>1</dim>
				</port>
			</output>
		</layer>
		<layer id="106" name="Mul_39" type="Multiply" version="opset1">
			<data auto_broadcast="numpy"/>
			<input>
				<port id="0" precision="FP32">
					<dim>1</dim>
					<dim>72</dim>
					<dim>1</dim>
					<dim>1</dim>
				</port>
				<port id="1" precision="FP32">
					<dim>1</dim>
					<dim>72</dim>
					<dim>68</dim>
					<dim>120</dim>
				</port>
			</input>
			<output>
				<port id="2" names="766" precision="FP32">
					<dim>1</dim>
					<dim>72</dim>
					<dim>68</dim>
					<dim>120</dim>
				</port>
			</output>
		</layer>
		<layer id="107" name="1745" type="Const" version="opset1">
			<data element_type="f32" offset="62768" shape="40, 72, 1, 1" size="11520"/>
			<output>
				<port id="0" names="1745" precision="FP32">
					<dim>40</dim>
					<dim>72</dim>
					<dim>1</dim>
					<dim>1</dim>
				</port>
			</output>
		</layer>
		<layer id="108" name="Conv_40/WithoutBiases" type="Convolution" version="opset1">
			<data auto_pad="explicit" dilations="1, 1" pads_begin="0, 0" pads_end="0, 0" strides="1, 1"/>
			<input>
				<port id="0" precision="FP32">
					<dim>1</dim>
					<dim>72</dim>
					<dim>68</dim>
					<dim>120</dim>
				</port>
				<port id="1" precision="FP32">
					<dim>40</dim>
					<dim>72</dim>
					<dim>1</dim>
					<dim>1</dim>
				</port>
			</input>
			<output>
				<port id="2" precision="FP32">
					<dim>1</dim>
					<dim>40</dim>
					<dim>68</dim>
					<dim>120</dim>
				</port>
			</output>
		</layer>
		<layer id="109" name="Conv_40/Dims12615" type="Const" version="opset1">
			<data element_type="f32" offset="74288" shape="1, 40, 1, 1" size="160"/>
			<output>
				<port id="0" precision="FP32">
					<dim>1</dim>
					<dim>40</dim>
					<dim>1</dim>
					<dim>1</dim>
				</port>
			</output>
		</layer>
		<layer id="110" name="Conv_40" type="Add" version="opset1">
			<data auto_broadcast="numpy"/>
			<input>
				<port id="0" precision="FP32">
					<dim>1</dim>
					<dim>40</dim>
					<dim>68</dim>
					<dim>120</dim>
				</port>
				<port id="1" precision="FP32">
					<dim>1</dim>
					<dim>40</dim>
					<dim>1</dim>
					<dim>1</dim>
				</port>
			</input>
			<output>
				<port id="2" names="1744" precision="FP32">
					<dim>1</dim>
					<dim>40</dim>
					<dim>68</dim>
					<dim>120</dim>
				</port>
			</output>
		</layer>
		<layer id="111" name="1748" type="Const" version="opset1">
			<data element_type="f32" offset="74448" shape="120, 40, 1, 1" size="19200"/>
			<output>
				<port id="0" names="1748" precision="FP32">
					<dim>120</dim>
					<dim>40</dim>
					<dim>1</dim>
					<dim>1</dim>
				</port>
			</output>
		</layer>
		<layer id="112" name="Conv_41/WithoutBiases" type="Convolution" version="opset1">
			<data auto_pad="explicit" dilations="1, 1" pads_begin="0, 0" pads_end="0, 0" strides="1, 1"/>
			<input>
				<port id="0" precision="FP32">
					<dim>1</dim>
					<dim>40</dim>
					<dim>68</dim>
					<dim>120</dim>
				</port>
				<port id="1" precision="FP32">
					<dim>120</dim>
					<dim>40</dim>
					<dim>1</dim>
					<dim>1</dim>
				</port>
			</input>
			<output>
				<port id="2" precision="FP32">
					<dim>1</dim>
					<dim>120</dim>
					<dim>68</dim>
					<dim>120</dim>
				</port>
			</output>
		</layer>
		<layer id="113" name="Conv_41/Dims13113" type="Const" version="opset1">
			<data element_type="f32" offset="93648" shape="1, 120, 1, 1" size="480"/>
			<output>
				<port id="0" precision="FP32">
					<dim>1</dim>
					<dim>120</dim>
					<dim>1</dim>
					<dim>1</dim>
				</port>
			</output>
		</layer>
		<layer id="114" name="Conv_41" type="Add" version="opset1">
			<data auto_broadcast="numpy"/>
			<input>
				<port id="0" precision="FP32">
					<dim>1</dim>
					<dim>120</dim>
					<dim>68</dim>
					<dim>120</dim>
				</port>
				<port id="1" precision="FP32">
					<dim>1</dim>
					<dim>120</dim>
					<dim>1</dim>
					<dim>1</dim>
				</port>
			</input>
			<output>
				<port id="2" names="1747" precision="FP32">
					<dim>1</dim>
					<dim>120</dim>
					<dim>68</dim>
					<dim>120</dim>
				</port>
			</output>
		</layer>
		<layer id="115" name="Relu_42" type="ReLU" version="opset1">
			<input>
				<port id="0" precision="FP32">
					<dim>1</dim>
					<dim>120</dim>
					<dim>68</dim>
					<dim>120</dim>
				</port>
			</input>
			<output>
				<port id="1" names="771" precision="FP32">
					<dim>1</dim>
					<dim>120</dim>
					<dim>68</dim>
					<dim>120</dim>
				</port>
			</output>
		</layer>
		<layer id="116" name="1751" type="Const" version="opset1">
			<data element_type="f32" offset="94128" shape="120, 1, 1, 5, 5" size="12000"/>
			<output>
				<port id="0" names="1751" precision="FP32">
					<dim>120</dim>
					<dim>1</dim>
					<dim>1</dim>
					<dim>5</dim>
					<dim>5</dim>
				</port>
			</output>
		</layer>
		<layer id="117" name="Conv_43/WithoutBiases" type="GroupConvolution" version="opset1">
			<data auto_pad="explicit" dilations="1, 1" pads_begin="2, 2" pads_end="2, 2" strides="1, 1"/>
			<input>
				<port id="0" precision="FP32">
					<dim>1</dim>
					<dim>120</dim>
					<dim>68</dim>
					<dim>120</dim>
				</port>
				<port id="1" precision="FP32">
					<dim>120</dim>
					<dim>1</dim>
					<dim>1</dim>
					<dim>5</dim>
					<dim>5</dim>
				</port>
			</input>
			<output>
				<port id="2" precision="FP32">
					<dim>1</dim>
					<dim>120</dim>
					<dim>68</dim>
					<dim>120</dim>
				</port>
			</output>
		</layer>
		<layer id="118" name="Conv_43/Dims12909" type="Const" version="opset1">
			<data element_type="f32" offset="106128" shape="1, 120, 1, 1" size="480"/>
			<output>
				<port id="0" precision="FP32">
					<dim>1</dim>
					<dim>120</dim>
					<dim>1</dim>
					<dim>1</dim>
				</port>
			</output>
		</layer>
		<layer id="119" name="Conv_43" type="Add" version="opset1">
			<data auto_broadcast="numpy"/>
			<input>
				<port id="0" precision="FP32">
					<dim>1</dim>
					<dim>120</dim>
					<dim>68</dim>
					<dim>120</dim>
				</port>
				<port id="1" precision="FP32">
					<dim>1</dim>
					<dim>120</dim>
					<dim>1</dim>
					<dim>1</dim>
				</port>
			</input>
			<output>
				<port id="2" names="1750" precision="FP32">
					<dim>1</dim>
					<dim>120</dim>
					<dim>68</dim>
					<dim>120</dim>
				</port>
			</output>
		</layer>
		<layer id="120" name="Relu_44" type="ReLU" version="opset1">
			<input>
				<port id="0" precision="FP32">
					<dim>1</dim>
					<dim>120</dim>
					<dim>68</dim>
					<dim>120</dim>
				</port>
			</input>
			<output>
				<port id="1" names="774" precision="FP32">
					<dim>1</dim>
					<dim>120</dim>
					<dim>68</dim>
					<dim>120</dim>
				</port>
			</output>
		</layer>
		<layer id="121" name="1272" type="Const" version="opset1">
			<data element_type="i64" offset="20" shape="" size="8"/>
			<output>
				<port id="0" precision="I64"/>
			</output>
		</layer>
		<layer id="122" name="GlobalAveragePool_45/input_rank/shape_of" type="ShapeOf" version="opset3">
			<data output_type="i64"/>
			<input>
				<port id="0" precision="FP32">
					<dim>1</dim>
					<dim>120</dim>
					<dim>68</dim>
					<dim>120</dim>
				</port>
			</input>
			<output>
				<port id="1" precision="I64">
					<dim>4</dim>
				</port>
			</output>
		</layer>
		<layer id="123" name="GlobalAveragePool_45/input_rank/rank_of" type="ShapeOf" version="opset3">
			<data output_type="i64"/>
			<input>
				<port id="0" precision="I64">
					<dim>4</dim>
				</port>
			</input>
			<output>
				<port id="1" precision="I64">
					<dim>1</dim>
				</port>
			</output>
		</layer>
		<layer id="124" name="GlobalAveragePool_45/input_rank/0d_rank_of/value" type="Const" version="opset1">
			<data element_type="i64" offset="48548" shape="1" size="8"/>
			<output>
				<port id="0" precision="I64">
					<dim>1</dim>
				</port>
			</output>
		</layer>
		<layer id="125" name="GlobalAveragePool_45/input_rank" type="Squeeze" version="opset1">
			<input>
				<port id="0" precision="I64">
					<dim>1</dim>
				</port>
				<port id="1" precision="I64">
					<dim>1</dim>
				</port>
			</input>
			<output>
				<port id="2" precision="I64"/>
			</output>
		</layer>
		<layer id="126" name="1274" type="Const" version="opset1">
			<data element_type="i64" offset="36" shape="" size="8"/>
			<output>
				<port id="0" precision="I64"/>
			</output>
		</layer>
		<layer id="127" name="GlobalAveragePool_45/global_pooling_reduce_axis" type="Range" version="opset4">
			<data output_type="i64"/>
			<input>
				<port id="0" precision="I64"/>
				<port id="1" precision="I64"/>
				<port id="2" precision="I64"/>
			</input>
			<output>
				<port id="3" precision="I64">
					<dim>2</dim>
				</port>
			</output>
		</layer>
		<layer id="128" name="GlobalAveragePool_45/reduce" type="ReduceMean" version="opset1">
			<data keep_dims="true"/>
			<input>
				<port id="0" precision="FP32">
					<dim>1</dim>
					<dim>120</dim>
					<dim>68</dim>
					<dim>120</dim>
				</port>
				<port id="1" precision="I64">
					<dim>2</dim>
				</port>
			</input>
			<output>
				<port id="2" names="775" precision="FP32">
					<dim>1</dim>
					<dim>120</dim>
					<dim>1</dim>
					<dim>1</dim>
				</port>
			</output>
		</layer>
		<layer id="129" name="backbone.features.5.block.2.fc1.weight" type="Const" version="opset1">
			<data element_type="f32" offset="106608" shape="32, 120, 1, 1" size="15360"/>
			<output>
				<port id="0" names="backbone.features.5.block.2.fc1.weight" precision="FP32">
					<dim>32</dim>
					<dim>120</dim>
					<dim>1</dim>
					<dim>1</dim>
				</port>
			</output>
		</layer>
		<layer id="130" name="Conv_46/WithoutBiases" type="Convolution" version="opset1">
			<data auto_pad="explicit" dilations="1, 1" pads_begin="0, 0" pads_end="0, 0" strides="1, 1"/>
			<input>
				<port id="0" precision="FP32">
					<dim>1</dim>
					<dim>120</dim>
					<dim>1</dim>
					<dim>1</dim>
				</port>
				<port id="1" precision="FP32">
					<dim>32</dim>
					<dim>120</dim>
					<dim>1</dim>
					<dim>1</dim>
				</port>
			</input>
			<output>
				<port id="2" precision="FP32">
					<dim>1</dim>
					<dim>32</dim>
					<dim>1</dim>
					<dim>1</dim>
				</port>
			</output>
		</layer>
		<layer id="131" name="Conv_46/Dims12969" type="Const" version="opset1">
			<data element_type="f32" offset="121968" shape="1, 32, 1, 1" size="128"/>
			<output>
				<port id="0" precision="FP32">
					<dim>1</dim>
					<dim>32</dim>
					<dim>1</dim>
					<dim>1</dim>
				</port>
			</output>
		</layer>
		<layer id="132" name="Conv_46" type="Add" version="opset1">
			<data auto_broadcast="numpy"/>
			<input>
				<port id="0" precision="FP32">
					<dim>1</dim>
					<dim>32</dim>
					<dim>1</dim>
					<dim>1</dim>
				</port>
				<port id="1" precision="FP32">
					<dim>1</dim>
					<dim>32</dim>
					<dim>1</dim>
					<dim>1</dim>
				</port>
			</input>
			<output>
				<port id="2" names="776" precision="FP32">
					<dim>1</dim>
					<dim>32</dim>
					<dim>1</dim>
					<dim>1</dim>
				</port>
			</output>
		</layer>
		<layer id="133" name="Relu_47" type="ReLU" version="opset1">
			<input>
				<port id="0" precision="FP32">
					<dim>1</dim>
					<dim>32</dim>
					<dim>1</dim>
					<dim>1</dim>
				</port>
			</input>
			<output>
				<port id="1" names="777" precision="FP32">
					<dim>1</dim>
					<dim>32</dim>
					<dim>1</dim>
					<dim>1</dim>
				</port>
			</output>
		</layer>
		<layer id="134" name="backbone.features.5.block.2.fc2.weight" type="Const" version="opset1">
			<data element_type="f32" offset="122096" shape="120, 32, 1, 1" size="15360"/>
			<output>
				<port id="0" names="backbone.features.5.block.2.fc2.weight" precision="FP32">
					<dim>120</dim>
					<dim>32</dim>
					<dim>1</dim>
					<dim>1</dim>
				</port>
			</output>
		</layer>
		<layer id="135" name="Conv_48/WithoutBiases" type="Convolution" version="opset1">
			<data auto_pad="explicit" dilations="1, 1" pads_begin="0, 0" pads_end="0, 0" strides="1, 1"/>
			<input>
				<port id="0" precision="FP32">
					<dim>1</dim>
					<dim>32</dim>
					<dim>1</dim>
					<dim>1</dim>
				</port>
				<port id="1" precision="FP32">
					<dim>120</dim>
					<dim>32</dim>
					<dim>1</dim>
					<dim>1</dim>
				</port>
			</input>
			<output>
				<port id="2" precision="FP32">
					<dim>1</dim>
					<dim>120</dim>
					<dim>1</dim>
					<dim>1</dim>
				</port>
			</output>
		</layer>
		<layer id="136" name="Conv_48/Dims13131" type="Const" version="opset1">
			<data element_type="f32" offset="137456" shape="1, 120, 1, 1" size="480"/>
			<output>
				<port id="0" precision="FP32">
					<dim>1</dim>
					<dim>120</dim>
					<dim>1</dim>
					<dim>1</dim>
				</port>
			</output>
		</layer>
		<layer id="137" name="Conv_48" type="Add" version="opset1">
			<data auto_broadcast="numpy"/>
			<input>
				<port id="0" precision="FP32">
					<dim>1</dim>
					<dim>120</dim>
					<dim>1</dim>
					<dim>1</dim>
				</port>
				<port id="1" precision="FP32">
					<dim>1</dim>
					<dim>120</dim>
					<dim>1</dim>
					<dim>1</dim>
				</port>
			</input>
			<output>
				<port id="2" names="778" precision="FP32">
					<dim>1</dim>
					<dim>120</dim>
					<dim>1</dim>
					<dim>1</dim>
				</port>
			</output>
		</layer>
		<layer id="138" name="HardSigmoid_49/HardSigmoid__input_port_1/value" type="Const" version="opset1">
			<data element_type="f32" offset="1888" shape="" size="4"/>
			<output>
				<port id="0" precision="FP32"/>
			</output>
		</layer>
		<layer id="139" name="HardSigmoid_49/HardSigmoid__input_port_2/value" type="Const" version="opset1">
			<data element_type="f32" offset="62764" shape="" size="4"/>
			<output>
				<port id="0" precision="FP32"/>
			</output>
		</layer>
		<layer id="140" name="HardSigmoid_49/HardSigmoid_" type="HardSigmoid" version="opset1">
			<input>
				<port id="0" precision="FP32">
					<dim>1</dim>
					<dim>120</dim>
					<dim>1</dim>
					<dim>1</dim>
				</port>
				<port id="1" precision="FP32"/>
				<port id="2" precision="FP32"/>
			</input>
			<output>
				<port id="3" names="779" precision="FP32">
					<dim>1</dim>
					<dim>120</dim>
					<dim>1</dim>
					<dim>1</dim>
				</port>
			</output>
		</layer>
		<layer id="141" name="Mul_50" type="Multiply" version="opset1">
			<data auto_broadcast="numpy"/>
			<input>
				<port id="0" precision="FP32">
					<dim>1</dim>
					<dim>120</dim>
					<dim>1</dim>
					<dim>1</dim>
				</port>
				<port id="1" precision="FP32">
					<dim>1</dim>
					<dim>120</dim>
					<dim>68</dim>
					<dim>120</dim>
				</port>
			</input>
			<output>
				<port id="2" names="780" precision="FP32">
					<dim>1</dim>
					<dim>120</dim>
					<dim>68</dim>
					<dim>120</dim>
				</port>
			</output>
		</layer>
		<layer id="142" name="1754" type="Const" version="opset1">
			<data element_type="f32" offset="137936" shape="40, 120, 1, 1" size="19200"/>
			<output>
				<port id="0" names="1754" precision="FP32">
					<dim>40</dim>
					<dim>120</dim>
					<dim>1</dim>
					<dim>1</dim>
				</port>
			</output>
		</layer>
		<layer id="143" name="Conv_51/WithoutBiases" type="Convolution" version="opset1">
			<data auto_pad="explicit" dilations="1, 1" pads_begin="0, 0" pads_end="0, 0" strides="1, 1"/>
			<input>
				<port id="0" precision="FP32">
					<dim>1</dim>
					<dim>120</dim>
					<dim>68</dim>
					<dim>120</dim>
				</port>
				<port id="1" precision="FP32">
					<dim>40</dim>
					<dim>120</dim>
					<dim>1</dim>
					<dim>1</dim>
				</port>
			</input>
			<output>
				<port id="2" precision="FP32">
					<dim>1</dim>
					<dim>40</dim>
					<dim>68</dim>
					<dim>120</dim>
				</port>
			</output>
		</layer>
		<layer id="144" name="Conv_51/Dims12819" type="Const" version="opset1">
			<data element_type="f32" offset="157136" shape="1, 40, 1, 1" size="160"/>
			<output>
				<port id="0" precision="FP32">
					<dim>1</dim>
					<dim>40</dim>
					<dim>1</dim>
					<dim>1</dim>
				</port>
			</output>
		</layer>
		<layer id="145" name="Conv_51" type="Add" version="opset1">
			<data auto_broadcast="numpy"/>
			<input>
				<port id="0" precision="FP32">
					<dim>1</dim>
					<dim>40</dim>
					<dim>68</dim>
					<dim>120</dim>
				</port>
				<port id="1" precision="FP32">
					<dim>1</dim>
					<dim>40</dim>
					<dim>1</dim>
					<dim>1</dim>
				</port>
			</input>
			<output>
				<port id="2" names="1753" precision="FP32">
					<dim>1</dim>
					<dim>40</dim>
					<dim>68</dim>
					<dim>120</dim>
				</port>
			</output>
		</layer>
		<layer id="146" name="Add_52" type="Add" version="opset1">
			<data auto_broadcast="numpy"/>
			<input>
				<port id="0" precision="FP32">
					<dim>1</dim>
					<dim>40</dim>
					<dim>68</dim>
					<dim>120</dim>
				</port>
				<port id="1" precision="FP32">
					<dim>1</dim>
					<dim>40</dim>
					<dim>68</dim>
					<dim>120</dim>
				</port>
			</input>
			<output>
				<port id="2" names="783" precision="FP32">
					<dim>1</dim>
					<dim>40</dim>
					<dim>68</dim>
					<dim>120</dim>
				</port>
			</output>
		</layer>
		<layer id="147" name="1757" type="Const" version="opset1">
			<data element_type="f32" offset="157296" shape="120, 40, 1, 1" size="19200"/>
			<output>
				<port id="0" names="1757" precision="FP32">
					<dim>120</dim>
					<dim>40</dim>
					<dim>1</dim>
					<dim>1</dim>
				</port>
			</output>
		</layer>
		<layer id="148" name="Conv_53/WithoutBiases" type="Convolution" version="opset1">
			<data auto_pad="explicit" dilations="1, 1" pads_begin="0, 0" pads_end="0, 0" strides="1, 1"/>
			<input>
				<port id="0" precision="FP32">
					<dim>1</dim>
					<dim>40</dim>
					<dim>68</dim>
					<dim>120</dim>
				</port>
				<port id="1" precision="FP32">
					<dim>120</dim>
					<dim>40</dim>
					<dim>1</dim>
					<dim>1</dim>
				</port>
			</input>
			<output>
				<port id="2" precision="FP32">
					<dim>1</dim>
					<dim>120</dim>
					<dim>68</dim>
					<dim>120</dim>
				</port>
			</output>
		</layer>
		<layer id="149" name="Conv_53/Dims12651" type="Const" version="opset1">
			<data element_type="f32" offset="176496" shape="1, 120, 1, 1" size="480"/>
			<output>
				<port id="0" precision="FP32">
					<dim>1</dim>
					<dim>120</dim>
					<dim>1</dim>
					<dim>1</dim>
				</port>
			</output>
		</layer>
		<layer id="150" name="Conv_53" type="Add" version="opset1">
			<data auto_broadcast="numpy"/>
			<input>
				<port id="0" precision="FP32">
					<dim>1</dim>
					<dim>120</dim>
					<dim>68</dim>
					<dim>120</dim>
				</port>
				<port id="1" precision="FP32">
					<dim>1</dim>
					<dim>120</dim>
					<dim>1</dim>
					<dim>1</dim>
				</port>
			</input>
			<output>
				<port id="2" names="1756" precision="FP32">
					<dim>1</dim>
					<dim>120</dim>
					<dim>68</dim>
					<dim>120</dim>
				</port>
			</output>
		</layer>
		<layer id="151" name="Relu_54" type="ReLU" version="opset1">
			<input>
				<port id="0" precision="FP32">
					<dim>1</dim>
					<dim>120</dim>
					<dim>68</dim>
					<dim>120</dim>
				</port>
			</input>
			<output>
				<port id="1" names="786" precision="FP32">
					<dim>1</dim>
					<dim>120</dim>
					<dim>68</dim>
					<dim>120</dim>
				</port>
			</output>
		</layer>
		<layer id="152" name="1760" type="Const" version="opset1">
			<data element_type="f32" offset="176976" shape="120, 1, 1, 5, 5" size="12000"/>
			<output>
				<port id="0" names="1760" precision="FP32">
					<dim>120</dim>
					<dim>1</dim>
					<dim>1</dim>
					<dim>5</dim>
					<dim>5</dim>
				</port>
			</output>
		</layer>
		<layer id="153" name="Conv_55/WithoutBiases" type="GroupConvolution" version="opset1">
			<data auto_pad="explicit" dilations="1, 1" pads_begin="2, 2" pads_end="2, 2" strides="1, 1"/>
			<input>
				<port id="0" precision="FP32">
					<dim>1</dim>
					<dim>120</dim>
					<dim>68</dim>
					<dim>120</dim>
				</port>
				<port id="1" precision="FP32">
					<dim>120</dim>
					<dim>1</dim>
					<dim>1</dim>
					<dim>5</dim>
					<dim>5</dim>
				</port>
			</input>
			<output>
				<port id="2" precision="FP32">
					<dim>1</dim>
					<dim>120</dim>
					<dim>68</dim>
					<dim>120</dim>
				</port>
			</output>
		</layer>
		<layer id="154" name="Conv_55/Dims12807" type="Const" version="opset1">
			<data element_type="f32" offset="188976" shape="1, 120, 1, 1" size="480"/>
			<output>
				<port id="0" precision="FP32">
					<dim>1</dim>
					<dim>120</dim>
					<dim>1</dim>
					<dim>1</dim>
				</port>
			</output>
		</layer>
		<layer id="155" name="Conv_55" type="Add" version="opset1">
			<data auto_broadcast="numpy"/>
			<input>
				<port id="0" precision="FP32">
					<dim>1</dim>
					<dim>120</dim>
					<dim>68</dim>
					<dim>120</dim>
				</port>
				<port id="1" precision="FP32">
					<dim>1</dim>
					<dim>120</dim>
					<dim>1</dim>
					<dim>1</dim>
				</port>
			</input>
			<output>
				<port id="2" names="1759" precision="FP32">
					<dim>1</dim>
					<dim>120</dim>
					<dim>68</dim>
					<dim>120</dim>
				</port>
			</output>
		</layer>
		<layer id="156" name="Relu_56" type="ReLU" version="opset1">
			<input>
				<port id="0" precision="FP32">
					<dim>1</dim>
					<dim>120</dim>
					<dim>68</dim>
					<dim>120</dim>
				</port>
			</input>
			<output>
				<port id="1" names="789" precision="FP32">
					<dim>1</dim>
					<dim>120</dim>
					<dim>68</dim>
					<dim>120</dim>
				</port>
			</output>
		</layer>
		<layer id="157" name="1277" type="Const" version="opset1">
			<data element_type="i64" offset="20" shape="" size="8"/>
			<output>
				<port id="0" precision="I64"/>
			</output>
		</layer>
		<layer id="158" name="GlobalAveragePool_57/input_rank/shape_of" type="ShapeOf" version="opset3">
			<data output_type="i64"/>
			<input>
				<port id="0" precision="FP32">
					<dim>1</dim>
					<dim>120</dim>
					<dim>68</dim>
					<dim>120</dim>
				</port>
			</input>
			<output>
				<port id="1" precision="I64">
					<dim>4</dim>
				</port>
			</output>
		</layer>
		<layer id="159" name="GlobalAveragePool_57/input_rank/rank_of" type="ShapeOf" version="opset3">
			<data output_type="i64"/>
			<input>
				<port id="0" precision="I64">
					<dim>4</dim>
				</port>
			</input>
			<output>
				<port id="1" precision="I64">
					<dim>1</dim>
				</port>
			</output>
		</layer>
		<layer id="160" name="GlobalAveragePool_57/input_rank/0d_rank_of/value" type="Const" version="opset1">
			<data element_type="i64" offset="48548" shape="1" size="8"/>
			<output>
				<port id="0" precision="I64">
					<dim>1</dim>
				</port>
			</output>
		</layer>
		<layer id="161" name="GlobalAveragePool_57/input_rank" type="Squeeze" version="opset1">
			<input>
				<port id="0" precision="I64">
					<dim>1</dim>
				</port>
				<port id="1" precision="I64">
					<dim>1</dim>
				</port>
			</input>
			<output>
				<port id="2" precision="I64"/>
			</output>
		</layer>
		<layer id="162" name="1279" type="Const" version="opset1">
			<data element_type="i64" offset="36" shape="" size="8"/>
			<output>
				<port id="0" precision="I64"/>
			</output>
		</layer>
		<layer id="163" name="GlobalAveragePool_57/global_pooling_reduce_axis" type="Range" version="opset4">
			<data output_type="i64"/>
			<input>
				<port id="0" precision="I64"/>
				<port id="1" precision="I64"/>
				<port id="2" precision="I64"/>
			</input>
			<output>
				<port id="3" precision="I64">
					<dim>2</dim>
				</port>
			</output>
		</layer>
		<layer id="164" name="GlobalAveragePool_57/reduce" type="ReduceMean" version="opset1">
			<data keep_dims="true"/>
			<input>
				<port id="0" precision="FP32">
					<dim>1</dim>
					<dim>120</dim>
					<dim>68</dim>
					<dim>120</dim>
				</port>
				<port id="1" precision="I64">
					<dim>2</dim>
				</port>
			</input>
			<output>
				<port id="2" names="790" precision="FP32">
					<dim>1</dim>
					<dim>120</dim>
					<dim>1</dim>
					<dim>1</dim>
				</port>
			</output>
		</layer>
		<layer id="165" name="backbone.features.6.block.2.fc1.weight" type="Const" version="opset1">
			<data element_type="f32" offset="189456" shape="32, 120, 1, 1" size="15360"/>
			<output>
				<port id="0" names="backbone.features.6.block.2.fc1.weight" precision="FP32">
					<dim>32</dim>
					<dim>120</dim>
					<dim>1</dim>
					<dim>1</dim>
				</port>
			</output>
		</layer>
		<layer id="166" name="Conv_58/WithoutBiases" type="Convolution" version="opset1">
			<data auto_pad="explicit" dilations="1, 1" pads_begin="0, 0" pads_end="0, 0" strides="1, 1"/>
			<input>
				<port id="0" precision="FP32">
					<dim>1</dim>
					<dim>120</dim>
					<dim>1</dim>
					<dim>1</dim>
				</port>
				<port id="1" precision="FP32">
					<dim>32</dim>
					<dim>120</dim>
					<dim>1</dim>
					<dim>1</dim>
				</port>
			</input>
			<output>
				<port id="2" precision="FP32">
					<dim>1</dim>
					<dim>32</dim>
					<dim>1</dim>
					<dim>1</dim>
				</port>
			</output>
		</layer>
		<layer id="167" name="Conv_58/Dims13173" type="Const" version="opset1">
			<data element_type="f32" offset="204816" shape="1, 32, 1, 1" size="128"/>
			<output>
				<port id="0" precision="FP32">
					<dim>1</dim>
					<dim>32</dim>
					<dim>1</dim>
					<dim>1</dim>
				</port>
			</output>
		</layer>
		<layer id="168" name="Conv_58" type="Add" version="opset1">
			<data auto_broadcast="numpy"/>
			<input>
				<port id="0" precision="FP32">
					<dim>1</dim>
					<dim>32</dim>
					<dim>1</dim>
					<dim>1</dim>
				</port>
				<port id="1" precision="FP32">
					<dim>1</dim>
					<dim>32</dim>
					<dim>1</dim>
					<dim>1</dim>
				</port>
			</input>
			<output>
				<port id="2" names="791" precision="FP32">
					<dim>1</dim>
					<dim>32</dim>
					<dim>1</dim>
					<dim>1</dim>
				</port>
			</output>
		</layer>
		<layer id="169" name="Relu_59" type="ReLU" version="opset1">
			<input>
				<port id="0" precision="FP32">
					<dim>1</dim>
					<dim>32</dim>
					<dim>1</dim>
					<dim>1</dim>
				</port>
			</input>
			<output>
				<port id="1" names="792" precision="FP32">
					<dim>1</dim>
					<dim>32</dim>
					<dim>1</dim>
					<dim>1</dim>
				</port>
			</output>
		</layer>
		<layer id="170" name="backbone.features.6.block.2.fc2.weight" type="Const" version="opset1">
			<data element_type="f32" offset="204944" shape="120, 32, 1, 1" size="15360"/>
			<output>
				<port id="0" names="backbone.features.6.block.2.fc2.weight" precision="FP32">
					<dim>120</dim>
					<dim>32</dim>
					<dim>1</dim>
					<dim>1</dim>
				</port>
			</output>
		</layer>
		<layer id="171" name="Conv_60/WithoutBiases" type="Convolution" version="opset1">
			<data auto_pad="explicit" dilations="1, 1" pads_begin="0, 0" pads_end="0, 0" strides="1, 1"/>
			<input>
				<port id="0" precision="FP32">
					<dim>1</dim>
					<dim>32</dim>
					<dim>1</dim>
					<dim>1</dim>
				</port>
				<port id="1" precision="FP32">
					<dim>120</dim>
					<dim>32</dim>
					<dim>1</dim>
					<dim>1</dim>
				</port>
			</input>
			<output>
				<port id="2" precision="FP32">
					<dim>1</dim>
					<dim>120</dim>
					<dim>1</dim>
					<dim>1</dim>
				</port>
			</output>
		</layer>
		<layer id="172" name="Conv_60/Dims12585" type="Const" version="opset1">
			<data element_type="f32" offset="220304" shape="1, 120, 1, 1" size="480"/>
			<output>
				<port id="0" precision="FP32">
					<dim>1</dim>
					<dim>120</dim>
					<dim>1</dim>
					<dim>1</dim>
				</port>
			</output>
		</layer>
		<layer id="173" name="Conv_60" type="Add" version="opset1">
			<data auto_broadcast="numpy"/>
			<input>
				<port id="0" precision="FP32">
					<dim>1</dim>
					<dim>120</dim>
					<dim>1</dim>
					<dim>1</dim>
				</port>
				<port id="1" precision="FP32">
					<dim>1</dim>
					<dim>120</dim>
					<dim>1</dim>
					<dim>1</dim>
				</port>
			</input>
			<output>
				<port id="2" names="793" precision="FP32">
					<dim>1</dim>
					<dim>120</dim>
					<dim>1</dim>
					<dim>1</dim>
				</port>
			</output>
		</layer>
		<layer id="174" name="HardSigmoid_61/HardSigmoid__input_port_1/value" type="Const" version="opset1">
			<data element_type="f32" offset="1888" shape="" size="4"/>
			<output>
				<port id="0" precision="FP32"/>
			</output>
		</layer>
		<layer id="175" name="HardSigmoid_61/HardSigmoid__input_port_2/value" type="Const" version="opset1">
			<data element_type="f32" offset="62764" shape="" size="4"/>
			<output>
				<port id="0" precision="FP32"/>
			</output>
		</layer>
		<layer id="176" name="HardSigmoid_61/HardSigmoid_" type="HardSigmoid" version="opset1">
			<input>
				<port id="0" precision="FP32">
					<dim>1</dim>
					<dim>120</dim>
					<dim>1</dim>
					<dim>1</dim>
				</port>
				<port id="1" precision="FP32"/>
				<port id="2" precision="FP32"/>
			</input>
			<output>
				<port id="3" names="794" precision="FP32">
					<dim>1</dim>
					<dim>120</dim>
					<dim>1</dim>
					<dim>1</dim>
				</port>
			</output>
		</layer>
		<layer id="177" name="Mul_62" type="Multiply" version="opset1">
			<data auto_broadcast="numpy"/>
			<input>
				<port id="0" precision="FP32">
					<dim>1</dim>
					<dim>120</dim>
					<dim>1</dim>
					<dim>1</dim>
				</port>
				<port id="1" precision="FP32">
					<dim>1</dim>
					<dim>120</dim>
					<dim>68</dim>
					<dim>120</dim>
				</port>
			</input>
			<output>
				<port id="2" names="795" precision="FP32">
					<dim>1</dim>
					<dim>120</dim>
					<dim>68</dim>
					<dim>120</dim>
				</port>
			</output>
		</layer>
		<layer id="178" name="1763" type="Const" version="opset1">
			<data element_type="f32" offset="220784" shape="40, 120, 1, 1" size="19200"/>
			<output>
				<port id="0" names="1763" precision="FP32">
					<dim>40</dim>
					<dim>120</dim>
					<dim>1</dim>
					<dim>1</dim>
				</port>
			</output>
		</layer>
		<layer id="179" name="Conv_63/WithoutBiases" type="Convolution" version="opset1">
			<data auto_pad="explicit" dilations="1, 1" pads_begin="0, 0" pads_end="0, 0" strides="1, 1"/>
			<input>
				<port id="0" precision="FP32">
					<dim>1</dim>
					<dim>120</dim>
					<dim>68</dim>
					<dim>120</dim>
				</port>
				<port id="1" precision="FP32">
					<dim>40</dim>
					<dim>120</dim>
					<dim>1</dim>
					<dim>1</dim>
				</port>
			</input>
			<output>
				<port id="2" precision="FP32">
					<dim>1</dim>
					<dim>40</dim>
					<dim>68</dim>
					<dim>120</dim>
				</port>
			</output>
		</layer>
		<layer id="180" name="Conv_63/Dims12561" type="Const" version="opset1">
			<data element_type="f32" offset="239984" shape="1, 40, 1, 1" size="160"/>
			<output>
				<port id="0" precision="FP32">
					<dim>1</dim>
					<dim>40</dim>
					<dim>1</dim>
					<dim>1</dim>
				</port>
			</output>
		</layer>
		<layer id="181" name="Conv_63" type="Add" version="opset1">
			<data auto_broadcast="numpy"/>
			<input>
				<port id="0" precision="FP32">
					<dim>1</dim>
					<dim>40</dim>
					<dim>68</dim>
					<dim>120</dim>
				</port>
				<port id="1" precision="FP32">
					<dim>1</dim>
					<dim>40</dim>
					<dim>1</dim>
					<dim>1</dim>
				</port>
			</input>
			<output>
				<port id="2" names="1762" precision="FP32">
					<dim>1</dim>
					<dim>40</dim>
					<dim>68</dim>
					<dim>120</dim>
				</port>
			</output>
		</layer>
		<layer id="182" name="Add_64" type="Add" version="opset1">
			<data auto_broadcast="numpy"/>
			<input>
				<port id="0" precision="FP32">
					<dim>1</dim>
					<dim>40</dim>
					<dim>68</dim>
					<dim>120</dim>
				</port>
				<port id="1" precision="FP32">
					<dim>1</dim>
					<dim>40</dim>
					<dim>68</dim>
					<dim>120</dim>
				</port>
			</input>
			<output>
				<port id="2" names="798" precision="FP32">
					<dim>1</dim>
					<dim>40</dim>
					<dim>68</dim>
					<dim>120</dim>
				</port>
			</output>
		</layer>
		<layer id="183" name="1766" type="Const" version="opset1">
			<data element_type="f32" offset="240144" shape="240, 40, 1, 1" size="38400"/>
			<output>
				<port id="0" names="1766" precision="FP32">
					<dim>240</dim>
					<dim>40</dim>
					<dim>1</dim>
					<dim>1</dim>
				</port>
			</output>
		</layer>
		<layer id="184" name="Conv_65/WithoutBiases" type="Convolution" version="opset1">
			<data auto_pad="explicit" dilations="1, 1" pads_begin="0, 0" pads_end="0, 0" strides="1, 1"/>
			<input>
				<port id="0" precision="FP32">
					<dim>1</dim>
					<dim>40</dim>
					<dim>68</dim>
					<dim>120</dim>
				</port>
				<port id="1" precision="FP32">
					<dim>240</dim>
					<dim>40</dim>
					<dim>1</dim>
					<dim>1</dim>
				</port>
			</input>
			<output>
				<port id="2" precision="FP32">
					<dim>1</dim>
					<dim>240</dim>
					<dim>68</dim>
					<dim>120</dim>
				</port>
			</output>
		</layer>
		<layer id="185" name="Conv_65/Dims12639" type="Const" version="opset1">
			<data element_type="f32" offset="278544" shape="1, 240, 1, 1" size="960"/>
			<output>
				<port id="0" precision="FP32">
					<dim>1</dim>
					<dim>240</dim>
					<dim>1</dim>
					<dim>1</dim>
				</port>
			</output>
		</layer>
		<layer id="186" name="Conv_65" type="Add" version="opset1">
			<data auto_broadcast="numpy"/>
			<input>
				<port id="0" precision="FP32">
					<dim>1</dim>
					<dim>240</dim>
					<dim>68</dim>
					<dim>120</dim>
				</port>
				<port id="1" precision="FP32">
					<dim>1</dim>
					<dim>240</dim>
					<dim>1</dim>
					<dim>1</dim>
				</port>
			</input>
			<output>
				<port id="2" names="1765" precision="FP32">
					<dim>1</dim>
					<dim>240</dim>
					<dim>68</dim>
					<dim>120</dim>
				</port>
			</output>
		</layer>
		<layer id="187" name="Constant_66" type="Const" version="opset1">
			<data element_type="f32" offset="1884" shape="1, 1, 1, 1" size="4"/>
			<output>
				<port id="0" names="801" precision="FP32">
					<dim>1</dim>
					<dim>1</dim>
					<dim>1</dim>
					<dim>1</dim>
				</port>
			</output>
		</layer>
		<layer id="188" name="Add_67" type="Add" version="opset1">
			<data auto_broadcast="numpy"/>
			<input>
				<port id="0" precision="FP32">
					<dim>1</dim>
					<dim>240</dim>
					<dim>68</dim>
					<dim>120</dim>
				</port>
				<port id="1" precision="FP32">
					<dim>1</dim>
					<dim>1</dim>
					<dim>1</dim>
					<dim>1</dim>
				</port>
			</input>
			<output>
				<port id="2" names="802" precision="FP32">
					<dim>1</dim>
					<dim>240</dim>
					<dim>68</dim>
					<dim>120</dim>
				</port>
			</output>
		</layer>
		<layer id="189" name="Clip_70" type="Clamp" version="opset1">
			<data max="6" min="0"/>
			<input>
				<port id="0" precision="FP32">
					<dim>1</dim>
					<dim>240</dim>
					<dim>68</dim>
					<dim>120</dim>
				</port>
			</input>
			<output>
				<port id="1" names="805" precision="FP32">
					<dim>1</dim>
					<dim>240</dim>
					<dim>68</dim>
					<dim>120</dim>
				</port>
			</output>
		</layer>
		<layer id="190" name="Constant_71" type="Const" version="opset1">
			<data element_type="f32" offset="1888" shape="1, 1, 1, 1" size="4"/>
			<output>
				<port id="0" names="806" precision="FP32">
					<dim>1</dim>
					<dim>1</dim>
					<dim>1</dim>
					<dim>1</dim>
				</port>
			</output>
		</layer>
		<layer id="191" name="Div_72" type="Multiply" version="opset1">
			<data auto_broadcast="numpy"/>
			<input>
				<port id="0" precision="FP32">
					<dim>1</dim>
					<dim>240</dim>
					<dim>68</dim>
					<dim>120</dim>
				</port>
				<port id="1" precision="FP32">
					<dim>1</dim>
					<dim>1</dim>
					<dim>1</dim>
					<dim>1</dim>
				</port>
			</input>
			<output>
				<port id="2" names="807" precision="FP32">
					<dim>1</dim>
					<dim>240</dim>
					<dim>68</dim>
					<dim>120</dim>
				</port>
			</output>
		</layer>
		<layer id="192" name="Mul_73" type="Multiply" version="opset1">
			<data auto_broadcast="numpy"/>
			<input>
				<port id="0" precision="FP32">
					<dim>1</dim>
					<dim>240</dim>
					<dim>68</dim>
					<dim>120</dim>
				</port>
				<port id="1" precision="FP32">
					<dim>1</dim>
					<dim>240</dim>
					<dim>68</dim>
					<dim>120</dim>
				</port>
			</input>
			<output>
				<port id="2" names="808" precision="FP32">
					<dim>1</dim>
					<dim>240</dim>
					<dim>68</dim>
					<dim>120</dim>
				</port>
			</output>
		</layer>
		<layer id="193" name="1769" type="Const" version="opset1">
			<data element_type="f32" offset="279504" shape="240, 1, 1, 3, 3" size="8640"/>
			<output>
				<port id="0" names="1769" precision="FP32">
					<dim>240</dim>
					<dim>1</dim>
					<dim>1</dim>
					<dim>3</dim>
					<dim>3</dim>
				</port>
			</output>
		</layer>
		<layer id="194" name="Conv_74/WithoutBiases" type="GroupConvolution" version="opset1">
			<data auto_pad="explicit" dilations="1, 1" pads_begin="1, 1" pads_end="1, 1" strides="2, 2"/>
			<input>
				<port id="0" precision="FP32">
					<dim>1</dim>
					<dim>240</dim>
					<dim>68</dim>
					<dim>120</dim>
				</port>
				<port id="1" precision="FP32">
					<dim>240</dim>
					<dim>1</dim>
					<dim>1</dim>
					<dim>3</dim>
					<dim>3</dim>
				</port>
			</input>
			<output>
				<port id="2" precision="FP32">
					<dim>1</dim>
					<dim>240</dim>
					<dim>34</dim>
					<dim>60</dim>
				</port>
			</output>
		</layer>
		<layer id="195" name="Conv_74/Dims12759" type="Const" version="opset1">
			<data element_type="f32" offset="288144" shape="1, 240, 1, 1" size="960"/>
			<output>
				<port id="0" precision="FP32">
					<dim>1</dim>
					<dim>240</dim>
					<dim>1</dim>
					<dim>1</dim>
				</port>
			</output>
		</layer>
		<layer id="196" name="Conv_74" type="Add" version="opset1">
			<data auto_broadcast="numpy"/>
			<input>
				<port id="0" precision="FP32">
					<dim>1</dim>
					<dim>240</dim>
					<dim>34</dim>
					<dim>60</dim>
				</port>
				<port id="1" precision="FP32">
					<dim>1</dim>
					<dim>240</dim>
					<dim>1</dim>
					<dim>1</dim>
				</port>
			</input>
			<output>
				<port id="2" names="1768" precision="FP32">
					<dim>1</dim>
					<dim>240</dim>
					<dim>34</dim>
					<dim>60</dim>
				</port>
			</output>
		</layer>
		<layer id="197" name="Constant_75" type="Const" version="opset1">
			<data element_type="f32" offset="1884" shape="1, 1, 1, 1" size="4"/>
			<output>
				<port id="0" names="811" precision="FP32">
					<dim>1</dim>
					<dim>1</dim>
					<dim>1</dim>
					<dim>1</dim>
				</port>
			</output>
		</layer>
		<layer id="198" name="Add_76" type="Add" version="opset1">
			<data auto_broadcast="numpy"/>
			<input>
				<port id="0" precision="FP32">
					<dim>1</dim>
					<dim>240</dim>
					<dim>34</dim>
					<dim>60</dim>
				</port>
				<port id="1" precision="FP32">
					<dim>1</dim>
					<dim>1</dim>
					<dim>1</dim>
					<dim>1</dim>
				</port>
			</input>
			<output>
				<port id="2" names="812" precision="FP32">
					<dim>1</dim>
					<dim>240</dim>
					<dim>34</dim>
					<dim>60</dim>
				</port>
			</output>
		</layer>
		<layer id="199" name="Clip_79" type="Clamp" version="opset1">
			<data max="6" min="0"/>
			<input>
				<port id="0" precision="FP32">
					<dim>1</dim>
					<dim>240</dim>
					<dim>34</dim>
					<dim>60</dim>
				</port>
			</input>
			<output>
				<port id="1" names="815" precision="FP32">
					<dim>1</dim>
					<dim>240</dim>
					<dim>34</dim>
					<dim>60</dim>
				</port>
			</output>
		</layer>
		<layer id="200" name="Constant_80" type="Const" version="opset1">
			<data element_type="f32" offset="1888" shape="1, 1, 1, 1" size="4"/>
			<output>
				<port id="0" names="816" precision="FP32">
					<dim>1</dim>
					<dim>1</dim>
					<dim>1</dim>
					<dim>1</dim>
				</port>
			</output>
		</layer>
		<layer id="201" name="Div_81" type="Multiply" version="opset1">
			<data auto_broadcast="numpy"/>
			<input>
				<port id="0" precision="FP32">
					<dim>1</dim>
					<dim>240</dim>
					<dim>34</dim>
					<dim>60</dim>
				</port>
				<port id="1" precision="FP32">
					<dim>1</dim>
					<dim>1</dim>
					<dim>1</dim>
					<dim>1</dim>
				</port>
			</input>
			<output>
				<port id="2" names="817" precision="FP32">
					<dim>1</dim>
					<dim>240</dim>
					<dim>34</dim>
					<dim>60</dim>
				</port>
			</output>
		</layer>
		<layer id="202" name="Mul_82" type="Multiply" version="opset1">
			<data auto_broadcast="numpy"/>
			<input>
				<port id="0" precision="FP32">
					<dim>1</dim>
					<dim>240</dim>
					<dim>34</dim>
					<dim>60</dim>
				</port>
				<port id="1" precision="FP32">
					<dim>1</dim>
					<dim>240</dim>
					<dim>34</dim>
					<dim>60</dim>
				</port>
			</input>
			<output>
				<port id="2" names="818" precision="FP32">
					<dim>1</dim>
					<dim>240</dim>
					<dim>34</dim>
					<dim>60</dim>
				</port>
			</output>
		</layer>
		<layer id="203" name="1772" type="Const" version="opset1">
			<data element_type="f32" offset="289104" shape="80, 240, 1, 1" size="76800"/>
			<output>
				<port id="0" names="1772" precision="FP32">
					<dim>80</dim>
					<dim>240</dim>
					<dim>1</dim>
					<dim>1</dim>
				</port>
			</output>
		</layer>
		<layer id="204" name="Conv_83/WithoutBiases" type="Convolution" version="opset1">
			<data auto_pad="explicit" dilations="1, 1" pads_begin="0, 0" pads_end="0, 0" strides="1, 1"/>
			<input>
				<port id="0" precision="FP32">
					<dim>1</dim>
					<dim>240</dim>
					<dim>34</dim>
					<dim>60</dim>
				</port>
				<port id="1" precision="FP32">
					<dim>80</dim>
					<dim>240</dim>
					<dim>1</dim>
					<dim>1</dim>
				</port>
			</input>
			<output>
				<port id="2" precision="FP32">
					<dim>1</dim>
					<dim>80</dim>
					<dim>34</dim>
					<dim>60</dim>
				</port>
			</output>
		</layer>
		<layer id="205" name="Conv_83/Dims13077" type="Const" version="opset1">
			<data element_type="f32" offset="365904" shape="1, 80, 1, 1" size="320"/>
			<output>
				<port id="0" precision="FP32">
					<dim>1</dim>
					<dim>80</dim>
					<dim>1</dim>
					<dim>1</dim>
				</port>
			</output>
		</layer>
		<layer id="206" name="Conv_83" type="Add" version="opset1">
			<data auto_broadcast="numpy"/>
			<input>
				<port id="0" precision="FP32">
					<dim>1</dim>
					<dim>80</dim>
					<dim>34</dim>
					<dim>60</dim>
				</port>
				<port id="1" precision="FP32">
					<dim>1</dim>
					<dim>80</dim>
					<dim>1</dim>
					<dim>1</dim>
				</port>
			</input>
			<output>
				<port id="2" names="1771" precision="FP32">
					<dim>1</dim>
					<dim>80</dim>
					<dim>34</dim>
					<dim>60</dim>
				</port>
			</output>
		</layer>
		<layer id="207" name="1775" type="Const" version="opset1">
			<data element_type="f32" offset="366224" shape="200, 80, 1, 1" size="64000"/>
			<output>
				<port id="0" names="1775" precision="FP32">
					<dim>200</dim>
					<dim>80</dim>
					<dim>1</dim>
					<dim>1</dim>
				</port>
			</output>
		</layer>
		<layer id="208" name="Conv_84/WithoutBiases" type="Convolution" version="opset1">
			<data auto_pad="explicit" dilations="1, 1" pads_begin="0, 0" pads_end="0, 0" strides="1, 1"/>
			<input>
				<port id="0" precision="FP32">
					<dim>1</dim>
					<dim>80</dim>
					<dim>34</dim>
					<dim>60</dim>
				</port>
				<port id="1" precision="FP32">
					<dim>200</dim>
					<dim>80</dim>
					<dim>1</dim>
					<dim>1</dim>
				</port>
			</input>
			<output>
				<port id="2" precision="FP32">
					<dim>1</dim>
					<dim>200</dim>
					<dim>34</dim>
					<dim>60</dim>
				</port>
			</output>
		</layer>
		<layer id="209" name="Conv_84/Dims12645" type="Const" version="opset1">
			<data element_type="f32" offset="430224" shape="1, 200, 1, 1" size="800"/>
			<output>
				<port id="0" precision="FP32">
					<dim>1</dim>
					<dim>200</dim>
					<dim>1</dim>
					<dim>1</dim>
				</port>
			</output>
		</layer>
		<layer id="210" name="Conv_84" type="Add" version="opset1">
			<data auto_broadcast="numpy"/>
			<input>
				<port id="0" precision="FP32">
					<dim>1</dim>
					<dim>200</dim>
					<dim>34</dim>
					<dim>60</dim>
				</port>
				<port id="1" precision="FP32">
					<dim>1</dim>
					<dim>200</dim>
					<dim>1</dim>
					<dim>1</dim>
				</port>
			</input>
			<output>
				<port id="2" names="1774" precision="FP32">
					<dim>1</dim>
					<dim>200</dim>
					<dim>34</dim>
					<dim>60</dim>
				</port>
			</output>
		</layer>
		<layer id="211" name="Constant_85" type="Const" version="opset1">
			<data element_type="f32" offset="1884" shape="1, 1, 1, 1" size="4"/>
			<output>
				<port id="0" names="823" precision="FP32">
					<dim>1</dim>
					<dim>1</dim>
					<dim>1</dim>
					<dim>1</dim>
				</port>
			</output>
		</layer>
		<layer id="212" name="Add_86" type="Add" version="opset1">
			<data auto_broadcast="numpy"/>
			<input>
				<port id="0" precision="FP32">
					<dim>1</dim>
					<dim>200</dim>
					<dim>34</dim>
					<dim>60</dim>
				</port>
				<port id="1" precision="FP32">
					<dim>1</dim>
					<dim>1</dim>
					<dim>1</dim>
					<dim>1</dim>
				</port>
			</input>
			<output>
				<port id="2" names="824" precision="FP32">
					<dim>1</dim>
					<dim>200</dim>
					<dim>34</dim>
					<dim>60</dim>
				</port>
			</output>
		</layer>
		<layer id="213" name="Clip_89" type="Clamp" version="opset1">
			<data max="6" min="0"/>
			<input>
				<port id="0" precision="FP32">
					<dim>1</dim>
					<dim>200</dim>
					<dim>34</dim>
					<dim>60</dim>
				</port>
			</input>
			<output>
				<port id="1" names="827" precision="FP32">
					<dim>1</dim>
					<dim>200</dim>
					<dim>34</dim>
					<dim>60</dim>
				</port>
			</output>
		</layer>
		<layer id="214" name="Constant_90" type="Const" version="opset1">
			<data element_type="f32" offset="1888" shape="1, 1, 1, 1" size="4"/>
			<output>
				<port id="0" names="828" precision="FP32">
					<dim>1</dim>
					<dim>1</dim>
					<dim>1</dim>
					<dim>1</dim>
				</port>
			</output>
		</layer>
		<layer id="215" name="Div_91" type="Multiply" version="opset1">
			<data auto_broadcast="numpy"/>
			<input>
				<port id="0" precision="FP32">
					<dim>1</dim>
					<dim>200</dim>
					<dim>34</dim>
					<dim>60</dim>
				</port>
				<port id="1" precision="FP32">
					<dim>1</dim>
					<dim>1</dim>
					<dim>1</dim>
					<dim>1</dim>
				</port>
			</input>
			<output>
				<port id="2" names="829" precision="FP32">
					<dim>1</dim>
					<dim>200</dim>
					<dim>34</dim>
					<dim>60</dim>
				</port>
			</output>
		</layer>
		<layer id="216" name="Mul_92" type="Multiply" version="opset1">
			<data auto_broadcast="numpy"/>
			<input>
				<port id="0" precision="FP32">
					<dim>1</dim>
					<dim>200</dim>
					<dim>34</dim>
					<dim>60</dim>
				</port>
				<port id="1" precision="FP32">
					<dim>1</dim>
					<dim>200</dim>
					<dim>34</dim>
					<dim>60</dim>
				</port>
			</input>
			<output>
				<port id="2" names="830" precision="FP32">
					<dim>1</dim>
					<dim>200</dim>
					<dim>34</dim>
					<dim>60</dim>
				</port>
			</output>
		</layer>
		<layer id="217" name="1778" type="Const" version="opset1">
			<data element_type="f32" offset="431024" shape="200, 1, 1, 3, 3" size="7200"/>
			<output>
				<port id="0" names="1778" precision="FP32">
					<dim>200</dim>
					<dim>1</dim>
					<dim>1</dim>
					<dim>3</dim>
					<dim>3</dim>
				</port>
			</output>
		</layer>
		<layer id="218" name="Conv_93/WithoutBiases" type="GroupConvolution" version="opset1">
			<data auto_pad="explicit" dilations="1, 1" pads_begin="1, 1" pads_end="1, 1" strides="1, 1"/>
			<input>
				<port id="0" precision="FP32">
					<dim>1</dim>
					<dim>200</dim>
					<dim>34</dim>
					<dim>60</dim>
				</port>
				<port id="1" precision="FP32">
					<dim>200</dim>
					<dim>1</dim>
					<dim>1</dim>
					<dim>3</dim>
					<dim>3</dim>
				</port>
			</input>
			<output>
				<port id="2" precision="FP32">
					<dim>1</dim>
					<dim>200</dim>
					<dim>34</dim>
					<dim>60</dim>
				</port>
			</output>
		</layer>
		<layer id="219" name="Conv_93/Dims13179" type="Const" version="opset1">
			<data element_type="f32" offset="438224" shape="1, 200, 1, 1" size="800"/>
			<output>
				<port id="0" precision="FP32">
					<dim>1</dim>
					<dim>200</dim>
					<dim>1</dim>
					<dim>1</dim>
				</port>
			</output>
		</layer>
		<layer id="220" name="Conv_93" type="Add" version="opset1">
			<data auto_broadcast="numpy"/>
			<input>
				<port id="0" precision="FP32">
					<dim>1</dim>
					<dim>200</dim>
					<dim>34</dim>
					<dim>60</dim>
				</port>
				<port id="1" precision="FP32">
					<dim>1</dim>
					<dim>200</dim>
					<dim>1</dim>
					<dim>1</dim>
				</port>
			</input>
			<output>
				<port id="2" names="1777" precision="FP32">
					<dim>1</dim>
					<dim>200</dim>
					<dim>34</dim>
					<dim>60</dim>
				</port>
			</output>
		</layer>
		<layer id="221" name="Constant_94" type="Const" version="opset1">
			<data element_type="f32" offset="1884" shape="1, 1, 1, 1" size="4"/>
			<output>
				<port id="0" names="833" precision="FP32">
					<dim>1</dim>
					<dim>1</dim>
					<dim>1</dim>
					<dim>1</dim>
				</port>
			</output>
		</layer>
		<layer id="222" name="Add_95" type="Add" version="opset1">
			<data auto_broadcast="numpy"/>
			<input>
				<port id="0" precision="FP32">
					<dim>1</dim>
					<dim>200</dim>
					<dim>34</dim>
					<dim>60</dim>
				</port>
				<port id="1" precision="FP32">
					<dim>1</dim>
					<dim>1</dim>
					<dim>1</dim>
					<dim>1</dim>
				</port>
			</input>
			<output>
				<port id="2" names="834" precision="FP32">
					<dim>1</dim>
					<dim>200</dim>
					<dim>34</dim>
					<dim>60</dim>
				</port>
			</output>
		</layer>
		<layer id="223" name="Clip_98" type="Clamp" version="opset1">
			<data max="6" min="0"/>
			<input>
				<port id="0" precision="FP32">
					<dim>1</dim>
					<dim>200</dim>
					<dim>34</dim>
					<dim>60</dim>
				</port>
			</input>
			<output>
				<port id="1" names="837" precision="FP32">
					<dim>1</dim>
					<dim>200</dim>
					<dim>34</dim>
					<dim>60</dim>
				</port>
			</output>
		</layer>
		<layer id="224" name="Constant_99" type="Const" version="opset1">
			<data element_type="f32" offset="1888" shape="1, 1, 1, 1" size="4"/>
			<output>
				<port id="0" names="838" precision="FP32">
					<dim>1</dim>
					<dim>1</dim>
					<dim>1</dim>
					<dim>1</dim>
				</port>
			</output>
		</layer>
		<layer id="225" name="Div_100" type="Multiply" version="opset1">
			<data auto_broadcast="numpy"/>
			<input>
				<port id="0" precision="FP32">
					<dim>1</dim>
					<dim>200</dim>
					<dim>34</dim>
					<dim>60</dim>
				</port>
				<port id="1" precision="FP32">
					<dim>1</dim>
					<dim>1</dim>
					<dim>1</dim>
					<dim>1</dim>
				</port>
			</input>
			<output>
				<port id="2" names="839" precision="FP32">
					<dim>1</dim>
					<dim>200</dim>
					<dim>34</dim>
					<dim>60</dim>
				</port>
			</output>
		</layer>
		<layer id="226" name="Mul_101" type="Multiply" version="opset1">
			<data auto_broadcast="numpy"/>
			<input>
				<port id="0" precision="FP32">
					<dim>1</dim>
					<dim>200</dim>
					<dim>34</dim>
					<dim>60</dim>
				</port>
				<port id="1" precision="FP32">
					<dim>1</dim>
					<dim>200</dim>
					<dim>34</dim>
					<dim>60</dim>
				</port>
			</input>
			<output>
				<port id="2" names="840" precision="FP32">
					<dim>1</dim>
					<dim>200</dim>
					<dim>34</dim>
					<dim>60</dim>
				</port>
			</output>
		</layer>
		<layer id="227" name="1781" type="Const" version="opset1">
			<data element_type="f32" offset="439024" shape="80, 200, 1, 1" size="64000"/>
			<output>
				<port id="0" names="1781" precision="FP32">
					<dim>80</dim>
					<dim>200</dim>
					<dim>1</dim>
					<dim>1</dim>
				</port>
			</output>
		</layer>
		<layer id="228" name="Conv_102/WithoutBiases" type="Convolution" version="opset1">
			<data auto_pad="explicit" dilations="1, 1" pads_begin="0, 0" pads_end="0, 0" strides="1, 1"/>
			<input>
				<port id="0" precision="FP32">
					<dim>1</dim>
					<dim>200</dim>
					<dim>34</dim>
					<dim>60</dim>
				</port>
				<port id="1" precision="FP32">
					<dim>80</dim>
					<dim>200</dim>
					<dim>1</dim>
					<dim>1</dim>
				</port>
			</input>
			<output>
				<port id="2" precision="FP32">
					<dim>1</dim>
					<dim>80</dim>
					<dim>34</dim>
					<dim>60</dim>
				</port>
			</output>
		</layer>
		<layer id="229" name="Conv_102/Dims12891" type="Const" version="opset1">
			<data element_type="f32" offset="503024" shape="1, 80, 1, 1" size="320"/>
			<output>
				<port id="0" precision="FP32">
					<dim>1</dim>
					<dim>80</dim>
					<dim>1</dim>
					<dim>1</dim>
				</port>
			</output>
		</layer>
		<layer id="230" name="Conv_102" type="Add" version="opset1">
			<data auto_broadcast="numpy"/>
			<input>
				<port id="0" precision="FP32">
					<dim>1</dim>
					<dim>80</dim>
					<dim>34</dim>
					<dim>60</dim>
				</port>
				<port id="1" precision="FP32">
					<dim>1</dim>
					<dim>80</dim>
					<dim>1</dim>
					<dim>1</dim>
				</port>
			</input>
			<output>
				<port id="2" names="1780" precision="FP32">
					<dim>1</dim>
					<dim>80</dim>
					<dim>34</dim>
					<dim>60</dim>
				</port>
			</output>
		</layer>
		<layer id="231" name="Add_103" type="Add" version="opset1">
			<data auto_broadcast="numpy"/>
			<input>
				<port id="0" precision="FP32">
					<dim>1</dim>
					<dim>80</dim>
					<dim>34</dim>
					<dim>60</dim>
				</port>
				<port id="1" precision="FP32">
					<dim>1</dim>
					<dim>80</dim>
					<dim>34</dim>
					<dim>60</dim>
				</port>
			</input>
			<output>
				<port id="2" names="843" precision="FP32">
					<dim>1</dim>
					<dim>80</dim>
					<dim>34</dim>
					<dim>60</dim>
				</port>
			</output>
		</layer>
		<layer id="232" name="1784" type="Const" version="opset1">
			<data element_type="f32" offset="503344" shape="184, 80, 1, 1" size="58880"/>
			<output>
				<port id="0" names="1784" precision="FP32">
					<dim>184</dim>
					<dim>80</dim>
					<dim>1</dim>
					<dim>1</dim>
				</port>
			</output>
		</layer>
		<layer id="233" name="Conv_104/WithoutBiases" type="Convolution" version="opset1">
			<data auto_pad="explicit" dilations="1, 1" pads_begin="0, 0" pads_end="0, 0" strides="1, 1"/>
			<input>
				<port id="0" precision="FP32">
					<dim>1</dim>
					<dim>80</dim>
					<dim>34</dim>
					<dim>60</dim>
				</port>
				<port id="1" precision="FP32">
					<dim>184</dim>
					<dim>80</dim>
					<dim>1</dim>
					<dim>1</dim>
				</port>
			</input>
			<output>
				<port id="2" precision="FP32">
					<dim>1</dim>
					<dim>184</dim>
					<dim>34</dim>
					<dim>60</dim>
				</port>
			</output>
		</layer>
		<layer id="234" name="Conv_104/Dims13101" type="Const" version="opset1">
			<data element_type="f32" offset="562224" shape="1, 184, 1, 1" size="736"/>
			<output>
				<port id="0" precision="FP32">
					<dim>1</dim>
					<dim>184</dim>
					<dim>1</dim>
					<dim>1</dim>
				</port>
			</output>
		</layer>
		<layer id="235" name="Conv_104" type="Add" version="opset1">
			<data auto_broadcast="numpy"/>
			<input>
				<port id="0" precision="FP32">
					<dim>1</dim>
					<dim>184</dim>
					<dim>34</dim>
					<dim>60</dim>
				</port>
				<port id="1" precision="FP32">
					<dim>1</dim>
					<dim>184</dim>
					<dim>1</dim>
					<dim>1</dim>
				</port>
			</input>
			<output>
				<port id="2" names="1783" precision="FP32">
					<dim>1</dim>
					<dim>184</dim>
					<dim>34</dim>
					<dim>60</dim>
				</port>
			</output>
		</layer>
		<layer id="236" name="Constant_105" type="Const" version="opset1">
			<data element_type="f32" offset="1884" shape="1, 1, 1, 1" size="4"/>
			<output>
				<port id="0" names="846" precision="FP32">
					<dim>1</dim>
					<dim>1</dim>
					<dim>1</dim>
					<dim>1</dim>
				</port>
			</output>
		</layer>
		<layer id="237" name="Add_106" type="Add" version="opset1">
			<data auto_broadcast="numpy"/>
			<input>
				<port id="0" precision="FP32">
					<dim>1</dim>
					<dim>184</dim>
					<dim>34</dim>
					<dim>60</dim>
				</port>
				<port id="1" precision="FP32">
					<dim>1</dim>
					<dim>1</dim>
					<dim>1</dim>
					<dim>1</dim>
				</port>
			</input>
			<output>
				<port id="2" names="847" precision="FP32">
					<dim>1</dim>
					<dim>184</dim>
					<dim>34</dim>
					<dim>60</dim>
				</port>
			</output>
		</layer>
		<layer id="238" name="Clip_109" type="Clamp" version="opset1">
			<data max="6" min="0"/>
			<input>
				<port id="0" precision="FP32">
					<dim>1</dim>
					<dim>184</dim>
					<dim>34</dim>
					<dim>60</dim>
				</port>
			</input>
			<output>
				<port id="1" names="850" precision="FP32">
					<dim>1</dim>
					<dim>184</dim>
					<dim>34</dim>
					<dim>60</dim>
				</port>
			</output>
		</layer>
		<layer id="239" name="Constant_110" type="Const" version="opset1">
			<data element_type="f32" offset="1888" shape="1, 1, 1, 1" size="4"/>
			<output>
				<port id="0" names="851" precision="FP32">
					<dim>1</dim>
					<dim>1</dim>
					<dim>1</dim>
					<dim>1</dim>
				</port>
			</output>
		</layer>
		<layer id="240" name="Div_111" type="Multiply" version="opset1">
			<data auto_broadcast="numpy"/>
			<input>
				<port id="0" precision="FP32">
					<dim>1</dim>
					<dim>184</dim>
					<dim>34</dim>
					<dim>60</dim>
				</port>
				<port id="1" precision="FP32">
					<dim>1</dim>
					<dim>1</dim>
					<dim>1</dim>
					<dim>1</dim>
				</port>
			</input>
			<output>
				<port id="2" names="852" precision="FP32">
					<dim>1</dim>
					<dim>184</dim>
					<dim>34</dim>
					<dim>60</dim>
				</port>
			</output>
		</layer>
		<layer id="241" name="Mul_112" type="Multiply" version="opset1">
			<data auto_broadcast="numpy"/>
			<input>
				<port id="0" precision="FP32">
					<dim>1</dim>
					<dim>184</dim>
					<dim>34</dim>
					<dim>60</dim>
				</port>
				<port id="1" precision="FP32">
					<dim>1</dim>
					<dim>184</dim>
					<dim>34</dim>
					<dim>60</dim>
				</port>
			</input>
			<output>
				<port id="2" names="853" precision="FP32">
					<dim>1</dim>
					<dim>184</dim>
					<dim>34</dim>
					<dim>60</dim>
				</port>
			</output>
		</layer>
		<layer id="242" name="1787" type="Const" version="opset1">
			<data element_type="f32" offset="562960" shape="184, 1, 1, 3, 3" size="6624"/>
			<output>
				<port id="0" names="1787" precision="FP32">
					<dim>184</dim>
					<dim>1</dim>
					<dim>1</dim>
					<dim>3</dim>
					<dim>3</dim>
				</port>
			</output>
		</layer>
		<layer id="243" name="Conv_113/WithoutBiases" type="GroupConvolution" version="opset1">
			<data auto_pad="explicit" dilations="1, 1" pads_begin="1, 1" pads_end="1, 1" strides="1, 1"/>
			<input>
				<port id="0" precision="FP32">
					<dim>1</dim>
					<dim>184</dim>
					<dim>34</dim>
					<dim>60</dim>
				</port>
				<port id="1" precision="FP32">
					<dim>184</dim>
					<dim>1</dim>
					<dim>1</dim>
					<dim>3</dim>
					<dim>3</dim>
				</port>
			</input>
			<output>
				<port id="2" precision="FP32">
					<dim>1</dim>
					<dim>184</dim>
					<dim>34</dim>
					<dim>60</dim>
				</port>
			</output>
		</layer>
		<layer id="244" name="Conv_113/Dims12675" type="Const" version="opset1">
			<data element_type="f32" offset="569584" shape="1, 184, 1, 1" size="736"/>
			<output>
				<port id="0" precision="FP32">
					<dim>1</dim>
					<dim>184</dim>
					<dim>1</dim>
					<dim>1</dim>
				</port>
			</output>
		</layer>
		<layer id="245" name="Conv_113" type="Add" version="opset1">
			<data auto_broadcast="numpy"/>
			<input>
				<port id="0" precision="FP32">
					<dim>1</dim>
					<dim>184</dim>
					<dim>34</dim>
					<dim>60</dim>
				</port>
				<port id="1" precision="FP32">
					<dim>1</dim>
					<dim>184</dim>
					<dim>1</dim>
					<dim>1</dim>
				</port>
			</input>
			<output>
				<port id="2" names="1786" precision="FP32">
					<dim>1</dim>
					<dim>184</dim>
					<dim>34</dim>
					<dim>60</dim>
				</port>
			</output>
		</layer>
		<layer id="246" name="Constant_114" type="Const" version="opset1">
			<data element_type="f32" offset="1884" shape="1, 1, 1, 1" size="4"/>
			<output>
				<port id="0" names="856" precision="FP32">
					<dim>1</dim>
					<dim>1</dim>
					<dim>1</dim>
					<dim>1</dim>
				</port>
			</output>
		</layer>
		<layer id="247" name="Add_115" type="Add" version="opset1">
			<data auto_broadcast="numpy"/>
			<input>
				<port id="0" precision="FP32">
					<dim>1</dim>
					<dim>184</dim>
					<dim>34</dim>
					<dim>60</dim>
				</port>
				<port id="1" precision="FP32">
					<dim>1</dim>
					<dim>1</dim>
					<dim>1</dim>
					<dim>1</dim>
				</port>
			</input>
			<output>
				<port id="2" names="857" precision="FP32">
					<dim>1</dim>
					<dim>184</dim>
					<dim>34</dim>
					<dim>60</dim>
				</port>
			</output>
		</layer>
		<layer id="248" name="Clip_118" type="Clamp" version="opset1">
			<data max="6" min="0"/>
			<input>
				<port id="0" precision="FP32">
					<dim>1</dim>
					<dim>184</dim>
					<dim>34</dim>
					<dim>60</dim>
				</port>
			</input>
			<output>
				<port id="1" names="860" precision="FP32">
					<dim>1</dim>
					<dim>184</dim>
					<dim>34</dim>
					<dim>60</dim>
				</port>
			</output>
		</layer>
		<layer id="249" name="Constant_119" type="Const" version="opset1">
			<data element_type="f32" offset="1888" shape="1, 1, 1, 1" size="4"/>
			<output>
				<port id="0" names="861" precision="FP32">
					<dim>1</dim>
					<dim>1</dim>
					<dim>1</dim>
					<dim>1</dim>
				</port>
			</output>
		</layer>
		<layer id="250" name="Div_120" type="Multiply" version="opset1">
			<data auto_broadcast="numpy"/>
			<input>
				<port id="0" precision="FP32">
					<dim>1</dim>
					<dim>184</dim>
					<dim>34</dim>
					<dim>60</dim>
				</port>
				<port id="1" precision="FP32">
					<dim>1</dim>
					<dim>1</dim>
					<dim>1</dim>
					<dim>1</dim>
				</port>
			</input>
			<output>
				<port id="2" names="862" precision="FP32">
					<dim>1</dim>
					<dim>184</dim>
					<dim>34</dim>
					<dim>60</dim>
				</port>
			</output>
		</layer>
		<layer id="251" name="Mul_121" type="Multiply" version="opset1">
			<data auto_broadcast="numpy"/>
			<input>
				<port id="0" precision="FP32">
					<dim>1</dim>
					<dim>184</dim>
					<dim>34</dim>
					<dim>60</dim>
				</port>
				<port id="1" precision="FP32">
					<dim>1</dim>
					<dim>184</dim>
					<dim>34</dim>
					<dim>60</dim>
				</port>
			</input>
			<output>
				<port id="2" names="863" precision="FP32">
					<dim>1</dim>
					<dim>184</dim>
					<dim>34</dim>
					<dim>60</dim>
				</port>
			</output>
		</layer>
		<layer id="252" name="1790" type="Const" version="opset1">
			<data element_type="f32" offset="570320" shape="80, 184, 1, 1" size="58880"/>
			<output>
				<port id="0" names="1790" precision="FP32">
					<dim>80</dim>
					<dim>184</dim>
					<dim>1</dim>
					<dim>1</dim>
				</port>
			</output>
		</layer>
		<layer id="253" name="Conv_122/WithoutBiases" type="Convolution" version="opset1">
			<data auto_pad="explicit" dilations="1, 1" pads_begin="0, 0" pads_end="0, 0" strides="1, 1"/>
			<input>
				<port id="0" precision="FP32">
					<dim>1</dim>
					<dim>184</dim>
					<dim>34</dim>
					<dim>60</dim>
				</port>
				<port id="1" precision="FP32">
					<dim>80</dim>
					<dim>184</dim>
					<dim>1</dim>
					<dim>1</dim>
				</port>
			</input>
			<output>
				<port id="2" precision="FP32">
					<dim>1</dim>
					<dim>80</dim>
					<dim>34</dim>
					<dim>60</dim>
				</port>
			</output>
		</layer>
		<layer id="254" name="Conv_122/Dims12915" type="Const" version="opset1">
			<data element_type="f32" offset="629200" shape="1, 80, 1, 1" size="320"/>
			<output>
				<port id="0" precision="FP32">
					<dim>1</dim>
					<dim>80</dim>
					<dim>1</dim>
					<dim>1</dim>
				</port>
			</output>
		</layer>
		<layer id="255" name="Conv_122" type="Add" version="opset1">
			<data auto_broadcast="numpy"/>
			<input>
				<port id="0" precision="FP32">
					<dim>1</dim>
					<dim>80</dim>
					<dim>34</dim>
					<dim>60</dim>
				</port>
				<port id="1" precision="FP32">
					<dim>1</dim>
					<dim>80</dim>
					<dim>1</dim>
					<dim>1</dim>
				</port>
			</input>
			<output>
				<port id="2" names="1789" precision="FP32">
					<dim>1</dim>
					<dim>80</dim>
					<dim>34</dim>
					<dim>60</dim>
				</port>
			</output>
		</layer>
		<layer id="256" name="Add_123" type="Add" version="opset1">
			<data auto_broadcast="numpy"/>
			<input>
				<port id="0" precision="FP32">
					<dim>1</dim>
					<dim>80</dim>
					<dim>34</dim>
					<dim>60</dim>
				</port>
				<port id="1" precision="FP32">
					<dim>1</dim>
					<dim>80</dim>
					<dim>34</dim>
					<dim>60</dim>
				</port>
			</input>
			<output>
				<port id="2" names="866" precision="FP32">
					<dim>1</dim>
					<dim>80</dim>
					<dim>34</dim>
					<dim>60</dim>
				</port>
			</output>
		</layer>
		<layer id="257" name="1793" type="Const" version="opset1">
			<data element_type="f32" offset="629520" shape="184, 80, 1, 1" size="58880"/>
			<output>
				<port id="0" names="1793" precision="FP32">
					<dim>184</dim>
					<dim>80</dim>
					<dim>1</dim>
					<dim>1</dim>
				</port>
			</output>
		</layer>
		<layer id="258" name="Conv_124/WithoutBiases" type="Convolution" version="opset1">
			<data auto_pad="explicit" dilations="1, 1" pads_begin="0, 0" pads_end="0, 0" strides="1, 1"/>
			<input>
				<port id="0" precision="FP32">
					<dim>1</dim>
					<dim>80</dim>
					<dim>34</dim>
					<dim>60</dim>
				</port>
				<port id="1" precision="FP32">
					<dim>184</dim>
					<dim>80</dim>
					<dim>1</dim>
					<dim>1</dim>
				</port>
			</input>
			<output>
				<port id="2" precision="FP32">
					<dim>1</dim>
					<dim>184</dim>
					<dim>34</dim>
					<dim>60</dim>
				</port>
			</output>
		</layer>
		<layer id="259" name="Conv_124/Dims13083" type="Const" version="opset1">
			<data element_type="f32" offset="688400" shape="1, 184, 1, 1" size="736"/>
			<output>
				<port id="0" precision="FP32">
					<dim>1</dim>
					<dim>184</dim>
					<dim>1</dim>
					<dim>1</dim>
				</port>
			</output>
		</layer>
		<layer id="260" name="Conv_124" type="Add" version="opset1">
			<data auto_broadcast="numpy"/>
			<input>
				<port id="0" precision="FP32">
					<dim>1</dim>
					<dim>184</dim>
					<dim>34</dim>
					<dim>60</dim>
				</port>
				<port id="1" precision="FP32">
					<dim>1</dim>
					<dim>184</dim>
					<dim>1</dim>
					<dim>1</dim>
				</port>
			</input>
			<output>
				<port id="2" names="1792" precision="FP32">
					<dim>1</dim>
					<dim>184</dim>
					<dim>34</dim>
					<dim>60</dim>
				</port>
			</output>
		</layer>
		<layer id="261" name="Constant_125" type="Const" version="opset1">
			<data element_type="f32" offset="1884" shape="1, 1, 1, 1" size="4"/>
			<output>
				<port id="0" names="869" precision="FP32">
					<dim>1</dim>
					<dim>1</dim>
					<dim>1</dim>
					<dim>1</dim>
				</port>
			</output>
		</layer>
		<layer id="262" name="Add_126" type="Add" version="opset1">
			<data auto_broadcast="numpy"/>
			<input>
				<port id="0" precision="FP32">
					<dim>1</dim>
					<dim>184</dim>
					<dim>34</dim>
					<dim>60</dim>
				</port>
				<port id="1" precision="FP32">
					<dim>1</dim>
					<dim>1</dim>
					<dim>1</dim>
					<dim>1</dim>
				</port>
			</input>
			<output>
				<port id="2" names="870" precision="FP32">
					<dim>1</dim>
					<dim>184</dim>
					<dim>34</dim>
					<dim>60</dim>
				</port>
			</output>
		</layer>
		<layer id="263" name="Clip_129" type="Clamp" version="opset1">
			<data max="6" min="0"/>
			<input>
				<port id="0" precision="FP32">
					<dim>1</dim>
					<dim>184</dim>
					<dim>34</dim>
					<dim>60</dim>
				</port>
			</input>
			<output>
				<port id="1" names="873" precision="FP32">
					<dim>1</dim>
					<dim>184</dim>
					<dim>34</dim>
					<dim>60</dim>
				</port>
			</output>
		</layer>
		<layer id="264" name="Constant_130" type="Const" version="opset1">
			<data element_type="f32" offset="1888" shape="1, 1, 1, 1" size="4"/>
			<output>
				<port id="0" names="874" precision="FP32">
					<dim>1</dim>
					<dim>1</dim>
					<dim>1</dim>
					<dim>1</dim>
				</port>
			</output>
		</layer>
		<layer id="265" name="Div_131" type="Multiply" version="opset1">
			<data auto_broadcast="numpy"/>
			<input>
				<port id="0" precision="FP32">
					<dim>1</dim>
					<dim>184</dim>
					<dim>34</dim>
					<dim>60</dim>
				</port>
				<port id="1" precision="FP32">
					<dim>1</dim>
					<dim>1</dim>
					<dim>1</dim>
					<dim>1</dim>
				</port>
			</input>
			<output>
				<port id="2" names="875" precision="FP32">
					<dim>1</dim>
					<dim>184</dim>
					<dim>34</dim>
					<dim>60</dim>
				</port>
			</output>
		</layer>
		<layer id="266" name="Mul_132" type="Multiply" version="opset1">
			<data auto_broadcast="numpy"/>
			<input>
				<port id="0" precision="FP32">
					<dim>1</dim>
					<dim>184</dim>
					<dim>34</dim>
					<dim>60</dim>
				</port>
				<port id="1" precision="FP32">
					<dim>1</dim>
					<dim>184</dim>
					<dim>34</dim>
					<dim>60</dim>
				</port>
			</input>
			<output>
				<port id="2" names="876" precision="FP32">
					<dim>1</dim>
					<dim>184</dim>
					<dim>34</dim>
					<dim>60</dim>
				</port>
			</output>
		</layer>
		<layer id="267" name="1796" type="Const" version="opset1">
			<data element_type="f32" offset="689136" shape="184, 1, 1, 3, 3" size="6624"/>
			<output>
				<port id="0" names="1796" precision="FP32">
					<dim>184</dim>
					<dim>1</dim>
					<dim>1</dim>
					<dim>3</dim>
					<dim>3</dim>
				</port>
			</output>
		</layer>
		<layer id="268" name="Conv_133/WithoutBiases" type="GroupConvolution" version="opset1">
			<data auto_pad="explicit" dilations="1, 1" pads_begin="1, 1" pads_end="1, 1" strides="1, 1"/>
			<input>
				<port id="0" precision="FP32">
					<dim>1</dim>
					<dim>184</dim>
					<dim>34</dim>
					<dim>60</dim>
				</port>
				<port id="1" precision="FP32">
					<dim>184</dim>
					<dim>1</dim>
					<dim>1</dim>
					<dim>3</dim>
					<dim>3</dim>
				</port>
			</input>
			<output>
				<port id="2" precision="FP32">
					<dim>1</dim>
					<dim>184</dim>
					<dim>34</dim>
					<dim>60</dim>
				</port>
			</output>
		</layer>
		<layer id="269" name="Conv_133/Dims12795" type="Const" version="opset1">
			<data element_type="f32" offset="695760" shape="1, 184, 1, 1" size="736"/>
			<output>
				<port id="0" precision="FP32">
					<dim>1</dim>
					<dim>184</dim>
					<dim>1</dim>
					<dim>1</dim>
				</port>
			</output>
		</layer>
		<layer id="270" name="Conv_133" type="Add" version="opset1">
			<data auto_broadcast="numpy"/>
			<input>
				<port id="0" precision="FP32">
					<dim>1</dim>
					<dim>184</dim>
					<dim>34</dim>
					<dim>60</dim>
				</port>
				<port id="1" precision="FP32">
					<dim>1</dim>
					<dim>184</dim>
					<dim>1</dim>
					<dim>1</dim>
				</port>
			</input>
			<output>
				<port id="2" names="1795" precision="FP32">
					<dim>1</dim>
					<dim>184</dim>
					<dim>34</dim>
					<dim>60</dim>
				</port>
			</output>
		</layer>
		<layer id="271" name="Constant_134" type="Const" version="opset1">
			<data element_type="f32" offset="1884" shape="1, 1, 1, 1" size="4"/>
			<output>
				<port id="0" names="879" precision="FP32">
					<dim>1</dim>
					<dim>1</dim>
					<dim>1</dim>
					<dim>1</dim>
				</port>
			</output>
		</layer>
		<layer id="272" name="Add_135" type="Add" version="opset1">
			<data auto_broadcast="numpy"/>
			<input>
				<port id="0" precision="FP32">
					<dim>1</dim>
					<dim>184</dim>
					<dim>34</dim>
					<dim>60</dim>
				</port>
				<port id="1" precision="FP32">
					<dim>1</dim>
					<dim>1</dim>
					<dim>1</dim>
					<dim>1</dim>
				</port>
			</input>
			<output>
				<port id="2" names="880" precision="FP32">
					<dim>1</dim>
					<dim>184</dim>
					<dim>34</dim>
					<dim>60</dim>
				</port>
			</output>
		</layer>
		<layer id="273" name="Clip_138" type="Clamp" version="opset1">
			<data max="6" min="0"/>
			<input>
				<port id="0" precision="FP32">
					<dim>1</dim>
					<dim>184</dim>
					<dim>34</dim>
					<dim>60</dim>
				</port>
			</input>
			<output>
				<port id="1" names="883" precision="FP32">
					<dim>1</dim>
					<dim>184</dim>
					<dim>34</dim>
					<dim>60</dim>
				</port>
			</output>
		</layer>
		<layer id="274" name="Constant_139" type="Const" version="opset1">
			<data element_type="f32" offset="1888" shape="1, 1, 1, 1" size="4"/>
			<output>
				<port id="0" names="884" precision="FP32">
					<dim>1</dim>
					<dim>1</dim>
					<dim>1</dim>
					<dim>1</dim>
				</port>
			</output>
		</layer>
		<layer id="275" name="Div_140" type="Multiply" version="opset1">
			<data auto_broadcast="numpy"/>
			<input>
				<port id="0" precision="FP32">
					<dim>1</dim>
					<dim>184</dim>
					<dim>34</dim>
					<dim>60</dim>
				</port>
				<port id="1" precision="FP32">
					<dim>1</dim>
					<dim>1</dim>
					<dim>1</dim>
					<dim>1</dim>
				</port>
			</input>
			<output>
				<port id="2" names="885" precision="FP32">
					<dim>1</dim>
					<dim>184</dim>
					<dim>34</dim>
					<dim>60</dim>
				</port>
			</output>
		</layer>
		<layer id="276" name="Mul_141" type="Multiply" version="opset1">
			<data auto_broadcast="numpy"/>
			<input>
				<port id="0" precision="FP32">
					<dim>1</dim>
					<dim>184</dim>
					<dim>34</dim>
					<dim>60</dim>
				</port>
				<port id="1" precision="FP32">
					<dim>1</dim>
					<dim>184</dim>
					<dim>34</dim>
					<dim>60</dim>
				</port>
			</input>
			<output>
				<port id="2" names="886" precision="FP32">
					<dim>1</dim>
					<dim>184</dim>
					<dim>34</dim>
					<dim>60</dim>
				</port>
			</output>
		</layer>
		<layer id="277" name="1799" type="Const" version="opset1">
			<data element_type="f32" offset="696496" shape="80, 184, 1, 1" size="58880"/>
			<output>
				<port id="0" names="1799" precision="FP32">
					<dim>80</dim>
					<dim>184</dim>
					<dim>1</dim>
					<dim>1</dim>
				</port>
			</output>
		</layer>
		<layer id="278" name="Conv_142/WithoutBiases" type="Convolution" version="opset1">
			<data auto_pad="explicit" dilations="1, 1" pads_begin="0, 0" pads_end="0, 0" strides="1, 1"/>
			<input>
				<port id="0" precision="FP32">
					<dim>1</dim>
					<dim>184</dim>
					<dim>34</dim>
					<dim>60</dim>
				</port>
				<port id="1" precision="FP32">
					<dim>80</dim>
					<dim>184</dim>
					<dim>1</dim>
					<dim>1</dim>
				</port>
			</input>
			<output>
				<port id="2" precision="FP32">
					<dim>1</dim>
					<dim>80</dim>
					<dim>34</dim>
					<dim>60</dim>
				</port>
			</output>
		</layer>
		<layer id="279" name="Conv_142/Dims12855" type="Const" version="opset1">
			<data element_type="f32" offset="755376" shape="1, 80, 1, 1" size="320"/>
			<output>
				<port id="0" precision="FP32">
					<dim>1</dim>
					<dim>80</dim>
					<dim>1</dim>
					<dim>1</dim>
				</port>
			</output>
		</layer>
		<layer id="280" name="Conv_142" type="Add" version="opset1">
			<data auto_broadcast="numpy"/>
			<input>
				<port id="0" precision="FP32">
					<dim>1</dim>
					<dim>80</dim>
					<dim>34</dim>
					<dim>60</dim>
				</port>
				<port id="1" precision="FP32">
					<dim>1</dim>
					<dim>80</dim>
					<dim>1</dim>
					<dim>1</dim>
				</port>
			</input>
			<output>
				<port id="2" names="1798" precision="FP32">
					<dim>1</dim>
					<dim>80</dim>
					<dim>34</dim>
					<dim>60</dim>
				</port>
			</output>
		</layer>
		<layer id="281" name="Add_143" type="Add" version="opset1">
			<data auto_broadcast="numpy"/>
			<input>
				<port id="0" precision="FP32">
					<dim>1</dim>
					<dim>80</dim>
					<dim>34</dim>
					<dim>60</dim>
				</port>
				<port id="1" precision="FP32">
					<dim>1</dim>
					<dim>80</dim>
					<dim>34</dim>
					<dim>60</dim>
				</port>
			</input>
			<output>
				<port id="2" names="889" precision="FP32">
					<dim>1</dim>
					<dim>80</dim>
					<dim>34</dim>
					<dim>60</dim>
				</port>
			</output>
		</layer>
		<layer id="282" name="1802" type="Const" version="opset1">
			<data element_type="f32" offset="755696" shape="480, 80, 1, 1" size="153600"/>
			<output>
				<port id="0" names="1802" precision="FP32">
					<dim>480</dim>
					<dim>80</dim>
					<dim>1</dim>
					<dim>1</dim>
				</port>
			</output>
		</layer>
		<layer id="283" name="Conv_144/WithoutBiases" type="Convolution" version="opset1">
			<data auto_pad="explicit" dilations="1, 1" pads_begin="0, 0" pads_end="0, 0" strides="1, 1"/>
			<input>
				<port id="0" precision="FP32">
					<dim>1</dim>
					<dim>80</dim>
					<dim>34</dim>
					<dim>60</dim>
				</port>
				<port id="1" precision="FP32">
					<dim>480</dim>
					<dim>80</dim>
					<dim>1</dim>
					<dim>1</dim>
				</port>
			</input>
			<output>
				<port id="2" precision="FP32">
					<dim>1</dim>
					<dim>480</dim>
					<dim>34</dim>
					<dim>60</dim>
				</port>
			</output>
		</layer>
		<layer id="284" name="Conv_144/Dims12537" type="Const" version="opset1">
			<data element_type="f32" offset="909296" shape="1, 480, 1, 1" size="1920"/>
			<output>
				<port id="0" precision="FP32">
					<dim>1</dim>
					<dim>480</dim>
					<dim>1</dim>
					<dim>1</dim>
				</port>
			</output>
		</layer>
		<layer id="285" name="Conv_144" type="Add" version="opset1">
			<data auto_broadcast="numpy"/>
			<input>
				<port id="0" precision="FP32">
					<dim>1</dim>
					<dim>480</dim>
					<dim>34</dim>
					<dim>60</dim>
				</port>
				<port id="1" precision="FP32">
					<dim>1</dim>
					<dim>480</dim>
					<dim>1</dim>
					<dim>1</dim>
				</port>
			</input>
			<output>
				<port id="2" names="1801" precision="FP32">
					<dim>1</dim>
					<dim>480</dim>
					<dim>34</dim>
					<dim>60</dim>
				</port>
			</output>
		</layer>
		<layer id="286" name="Constant_145" type="Const" version="opset1">
			<data element_type="f32" offset="1884" shape="1, 1, 1, 1" size="4"/>
			<output>
				<port id="0" names="892" precision="FP32">
					<dim>1</dim>
					<dim>1</dim>
					<dim>1</dim>
					<dim>1</dim>
				</port>
			</output>
		</layer>
		<layer id="287" name="Add_146" type="Add" version="opset1">
			<data auto_broadcast="numpy"/>
			<input>
				<port id="0" precision="FP32">
					<dim>1</dim>
					<dim>480</dim>
					<dim>34</dim>
					<dim>60</dim>
				</port>
				<port id="1" precision="FP32">
					<dim>1</dim>
					<dim>1</dim>
					<dim>1</dim>
					<dim>1</dim>
				</port>
			</input>
			<output>
				<port id="2" names="893" precision="FP32">
					<dim>1</dim>
					<dim>480</dim>
					<dim>34</dim>
					<dim>60</dim>
				</port>
			</output>
		</layer>
		<layer id="288" name="Clip_149" type="Clamp" version="opset1">
			<data max="6" min="0"/>
			<input>
				<port id="0" precision="FP32">
					<dim>1</dim>
					<dim>480</dim>
					<dim>34</dim>
					<dim>60</dim>
				</port>
			</input>
			<output>
				<port id="1" names="896" precision="FP32">
					<dim>1</dim>
					<dim>480</dim>
					<dim>34</dim>
					<dim>60</dim>
				</port>
			</output>
		</layer>
		<layer id="289" name="Constant_150" type="Const" version="opset1">
			<data element_type="f32" offset="1888" shape="1, 1, 1, 1" size="4"/>
			<output>
				<port id="0" names="897" precision="FP32">
					<dim>1</dim>
					<dim>1</dim>
					<dim>1</dim>
					<dim>1</dim>
				</port>
			</output>
		</layer>
		<layer id="290" name="Div_151" type="Multiply" version="opset1">
			<data auto_broadcast="numpy"/>
			<input>
				<port id="0" precision="FP32">
					<dim>1</dim>
					<dim>480</dim>
					<dim>34</dim>
					<dim>60</dim>
				</port>
				<port id="1" precision="FP32">
					<dim>1</dim>
					<dim>1</dim>
					<dim>1</dim>
					<dim>1</dim>
				</port>
			</input>
			<output>
				<port id="2" names="898" precision="FP32">
					<dim>1</dim>
					<dim>480</dim>
					<dim>34</dim>
					<dim>60</dim>
				</port>
			</output>
		</layer>
		<layer id="291" name="Mul_152" type="Multiply" version="opset1">
			<data auto_broadcast="numpy"/>
			<input>
				<port id="0" precision="FP32">
					<dim>1</dim>
					<dim>480</dim>
					<dim>34</dim>
					<dim>60</dim>
				</port>
				<port id="1" precision="FP32">
					<dim>1</dim>
					<dim>480</dim>
					<dim>34</dim>
					<dim>60</dim>
				</port>
			</input>
			<output>
				<port id="2" names="899" precision="FP32">
					<dim>1</dim>
					<dim>480</dim>
					<dim>34</dim>
					<dim>60</dim>
				</port>
			</output>
		</layer>
		<layer id="292" name="1805" type="Const" version="opset1">
			<data element_type="f32" offset="911216" shape="480, 1, 1, 3, 3" size="17280"/>
			<output>
				<port id="0" names="1805" precision="FP32">
					<dim>480</dim>
					<dim>1</dim>
					<dim>1</dim>
					<dim>3</dim>
					<dim>3</dim>
				</port>
			</output>
		</layer>
		<layer id="293" name="Conv_153/WithoutBiases" type="GroupConvolution" version="opset1">
			<data auto_pad="explicit" dilations="1, 1" pads_begin="1, 1" pads_end="1, 1" strides="1, 1"/>
			<input>
				<port id="0" precision="FP32">
					<dim>1</dim>
					<dim>480</dim>
					<dim>34</dim>
					<dim>60</dim>
				</port>
				<port id="1" precision="FP32">
					<dim>480</dim>
					<dim>1</dim>
					<dim>1</dim>
					<dim>3</dim>
					<dim>3</dim>
				</port>
			</input>
			<output>
				<port id="2" precision="FP32">
					<dim>1</dim>
					<dim>480</dim>
					<dim>34</dim>
					<dim>60</dim>
				</port>
			</output>
		</layer>
		<layer id="294" name="Conv_153/Dims12681" type="Const" version="opset1">
			<data element_type="f32" offset="928496" shape="1, 480, 1, 1" size="1920"/>
			<output>
				<port id="0" precision="FP32">
					<dim>1</dim>
					<dim>480</dim>
					<dim>1</dim>
					<dim>1</dim>
				</port>
			</output>
		</layer>
		<layer id="295" name="Conv_153" type="Add" version="opset1">
			<data auto_broadcast="numpy"/>
			<input>
				<port id="0" precision="FP32">
					<dim>1</dim>
					<dim>480</dim>
					<dim>34</dim>
					<dim>60</dim>
				</port>
				<port id="1" precision="FP32">
					<dim>1</dim>
					<dim>480</dim>
					<dim>1</dim>
					<dim>1</dim>
				</port>
			</input>
			<output>
				<port id="2" names="1804" precision="FP32">
					<dim>1</dim>
					<dim>480</dim>
					<dim>34</dim>
					<dim>60</dim>
				</port>
			</output>
		</layer>
		<layer id="296" name="Constant_154" type="Const" version="opset1">
			<data element_type="f32" offset="1884" shape="1, 1, 1, 1" size="4"/>
			<output>
				<port id="0" names="902" precision="FP32">
					<dim>1</dim>
					<dim>1</dim>
					<dim>1</dim>
					<dim>1</dim>
				</port>
			</output>
		</layer>
		<layer id="297" name="Add_155" type="Add" version="opset1">
			<data auto_broadcast="numpy"/>
			<input>
				<port id="0" precision="FP32">
					<dim>1</dim>
					<dim>480</dim>
					<dim>34</dim>
					<dim>60</dim>
				</port>
				<port id="1" precision="FP32">
					<dim>1</dim>
					<dim>1</dim>
					<dim>1</dim>
					<dim>1</dim>
				</port>
			</input>
			<output>
				<port id="2" names="903" precision="FP32">
					<dim>1</dim>
					<dim>480</dim>
					<dim>34</dim>
					<dim>60</dim>
				</port>
			</output>
		</layer>
		<layer id="298" name="Clip_158" type="Clamp" version="opset1">
			<data max="6" min="0"/>
			<input>
				<port id="0" precision="FP32">
					<dim>1</dim>
					<dim>480</dim>
					<dim>34</dim>
					<dim>60</dim>
				</port>
			</input>
			<output>
				<port id="1" names="906" precision="FP32">
					<dim>1</dim>
					<dim>480</dim>
					<dim>34</dim>
					<dim>60</dim>
				</port>
			</output>
		</layer>
		<layer id="299" name="Constant_159" type="Const" version="opset1">
			<data element_type="f32" offset="1888" shape="1, 1, 1, 1" size="4"/>
			<output>
				<port id="0" names="907" precision="FP32">
					<dim>1</dim>
					<dim>1</dim>
					<dim>1</dim>
					<dim>1</dim>
				</port>
			</output>
		</layer>
		<layer id="300" name="Div_160" type="Multiply" version="opset1">
			<data auto_broadcast="numpy"/>
			<input>
				<port id="0" precision="FP32">
					<dim>1</dim>
					<dim>480</dim>
					<dim>34</dim>
					<dim>60</dim>
				</port>
				<port id="1" precision="FP32">
					<dim>1</dim>
					<dim>1</dim>
					<dim>1</dim>
					<dim>1</dim>
				</port>
			</input>
			<output>
				<port id="2" names="908" precision="FP32">
					<dim>1</dim>
					<dim>480</dim>
					<dim>34</dim>
					<dim>60</dim>
				</port>
			</output>
		</layer>
		<layer id="301" name="Mul_161" type="Multiply" version="opset1">
			<data auto_broadcast="numpy"/>
			<input>
				<port id="0" precision="FP32">
					<dim>1</dim>
					<dim>480</dim>
					<dim>34</dim>
					<dim>60</dim>
				</port>
				<port id="1" precision="FP32">
					<dim>1</dim>
					<dim>480</dim>
					<dim>34</dim>
					<dim>60</dim>
				</port>
			</input>
			<output>
				<port id="2" names="909" precision="FP32">
					<dim>1</dim>
					<dim>480</dim>
					<dim>34</dim>
					<dim>60</dim>
				</port>
			</output>
		</layer>
		<layer id="302" name="1282" type="Const" version="opset1">
			<data element_type="i64" offset="20" shape="" size="8"/>
			<output>
				<port id="0" precision="I64"/>
			</output>
		</layer>
		<layer id="303" name="GlobalAveragePool_162/input_rank/shape_of" type="ShapeOf" version="opset3">
			<data output_type="i64"/>
			<input>
				<port id="0" precision="FP32">
					<dim>1</dim>
					<dim>480</dim>
					<dim>34</dim>
					<dim>60</dim>
				</port>
			</input>
			<output>
				<port id="1" precision="I64">
					<dim>4</dim>
				</port>
			</output>
		</layer>
		<layer id="304" name="GlobalAveragePool_162/input_rank/rank_of" type="ShapeOf" version="opset3">
			<data output_type="i64"/>
			<input>
				<port id="0" precision="I64">
					<dim>4</dim>
				</port>
			</input>
			<output>
				<port id="1" precision="I64">
					<dim>1</dim>
				</port>
			</output>
		</layer>
		<layer id="305" name="GlobalAveragePool_162/input_rank/0d_rank_of/value" type="Const" version="opset1">
			<data element_type="i64" offset="48548" shape="1" size="8"/>
			<output>
				<port id="0" precision="I64">
					<dim>1</dim>
				</port>
			</output>
		</layer>
		<layer id="306" name="GlobalAveragePool_162/input_rank" type="Squeeze" version="opset1">
			<input>
				<port id="0" precision="I64">
					<dim>1</dim>
				</port>
				<port id="1" precision="I64">
					<dim>1</dim>
				</port>
			</input>
			<output>
				<port id="2" precision="I64"/>
			</output>
		</layer>
		<layer id="307" name="1284" type="Const" version="opset1">
			<data element_type="i64" offset="36" shape="" size="8"/>
			<output>
				<port id="0" precision="I64"/>
			</output>
		</layer>
		<layer id="308" name="GlobalAveragePool_162/global_pooling_reduce_axis" type="Range" version="opset4">
			<data output_type="i64"/>
			<input>
				<port id="0" precision="I64"/>
				<port id="1" precision="I64"/>
				<port id="2" precision="I64"/>
			</input>
			<output>
				<port id="3" precision="I64">
					<dim>2</dim>
				</port>
			</output>
		</layer>
		<layer id="309" name="GlobalAveragePool_162/reduce" type="ReduceMean" version="opset1">
			<data keep_dims="true"/>
			<input>
				<port id="0" precision="FP32">
					<dim>1</dim>
					<dim>480</dim>
					<dim>34</dim>
					<dim>60</dim>
				</port>
				<port id="1" precision="I64">
					<dim>2</dim>
				</port>
			</input>
			<output>
				<port id="2" names="910" precision="FP32">
					<dim>1</dim>
					<dim>480</dim>
					<dim>1</dim>
					<dim>1</dim>
				</port>
			</output>
		</layer>
		<layer id="310" name="backbone.features.11.block.2.fc1.weight" type="Const" version="opset1">
			<data element_type="f32" offset="930416" shape="120, 480, 1, 1" size="230400"/>
			<output>
				<port id="0" names="backbone.features.11.block.2.fc1.weight" precision="FP32">
					<dim>120</dim>
					<dim>480</dim>
					<dim>1</dim>
					<dim>1</dim>
				</port>
			</output>
		</layer>
		<layer id="311" name="Conv_163/WithoutBiases" type="Convolution" version="opset1">
			<data auto_pad="explicit" dilations="1, 1" pads_begin="0, 0" pads_end="0, 0" strides="1, 1"/>
			<input>
				<port id="0" precision="FP32">
					<dim>1</dim>
					<dim>480</dim>
					<dim>1</dim>
					<dim>1</dim>
				</port>
				<port id="1" precision="FP32">
					<dim>120</dim>
					<dim>480</dim>
					<dim>1</dim>
					<dim>1</dim>
				</port>
			</input>
			<output>
				<port id="2" precision="FP32">
					<dim>1</dim>
					<dim>120</dim>
					<dim>1</dim>
					<dim>1</dim>
				</port>
			</output>
		</layer>
		<layer id="312" name="Conv_163/Dims12813" type="Const" version="opset1">
			<data element_type="f32" offset="1160816" shape="1, 120, 1, 1" size="480"/>
			<output>
				<port id="0" precision="FP32">
					<dim>1</dim>
					<dim>120</dim>
					<dim>1</dim>
					<dim>1</dim>
				</port>
			</output>
		</layer>
		<layer id="313" name="Conv_163" type="Add" version="opset1">
			<data auto_broadcast="numpy"/>
			<input>
				<port id="0" precision="FP32">
					<dim>1</dim>
					<dim>120</dim>
					<dim>1</dim>
					<dim>1</dim>
				</port>
				<port id="1" precision="FP32">
					<dim>1</dim>
					<dim>120</dim>
					<dim>1</dim>
					<dim>1</dim>
				</port>
			</input>
			<output>
				<port id="2" names="911" precision="FP32">
					<dim>1</dim>
					<dim>120</dim>
					<dim>1</dim>
					<dim>1</dim>
				</port>
			</output>
		</layer>
		<layer id="314" name="Relu_164" type="ReLU" version="opset1">
			<input>
				<port id="0" precision="FP32">
					<dim>1</dim>
					<dim>120</dim>
					<dim>1</dim>
					<dim>1</dim>
				</port>
			</input>
			<output>
				<port id="1" names="912" precision="FP32">
					<dim>1</dim>
					<dim>120</dim>
					<dim>1</dim>
					<dim>1</dim>
				</port>
			</output>
		</layer>
		<layer id="315" name="backbone.features.11.block.2.fc2.weight" type="Const" version="opset1">
			<data element_type="f32" offset="1161296" shape="480, 120, 1, 1" size="230400"/>
			<output>
				<port id="0" names="backbone.features.11.block.2.fc2.weight" precision="FP32">
					<dim>480</dim>
					<dim>120</dim>
					<dim>1</dim>
					<dim>1</dim>
				</port>
			</output>
		</layer>
		<layer id="316" name="Conv_165/WithoutBiases" type="Convolution" version="opset1">
			<data auto_pad="explicit" dilations="1, 1" pads_begin="0, 0" pads_end="0, 0" strides="1, 1"/>
			<input>
				<port id="0" precision="FP32">
					<dim>1</dim>
					<dim>120</dim>
					<dim>1</dim>
					<dim>1</dim>
				</port>
				<port id="1" precision="FP32">
					<dim>480</dim>
					<dim>120</dim>
					<dim>1</dim>
					<dim>1</dim>
				</port>
			</input>
			<output>
				<port id="2" precision="FP32">
					<dim>1</dim>
					<dim>480</dim>
					<dim>1</dim>
					<dim>1</dim>
				</port>
			</output>
		</layer>
		<layer id="317" name="Conv_165/Dims12771" type="Const" version="opset1">
			<data element_type="f32" offset="1391696" shape="1, 480, 1, 1" size="1920"/>
			<output>
				<port id="0" precision="FP32">
					<dim>1</dim>
					<dim>480</dim>
					<dim>1</dim>
					<dim>1</dim>
				</port>
			</output>
		</layer>
		<layer id="318" name="Conv_165" type="Add" version="opset1">
			<data auto_broadcast="numpy"/>
			<input>
				<port id="0" precision="FP32">
					<dim>1</dim>
					<dim>480</dim>
					<dim>1</dim>
					<dim>1</dim>
				</port>
				<port id="1" precision="FP32">
					<dim>1</dim>
					<dim>480</dim>
					<dim>1</dim>
					<dim>1</dim>
				</port>
			</input>
			<output>
				<port id="2" names="913" precision="FP32">
					<dim>1</dim>
					<dim>480</dim>
					<dim>1</dim>
					<dim>1</dim>
				</port>
			</output>
		</layer>
		<layer id="319" name="HardSigmoid_166/HardSigmoid__input_port_1/value" type="Const" version="opset1">
			<data element_type="f32" offset="1888" shape="" size="4"/>
			<output>
				<port id="0" precision="FP32"/>
			</output>
		</layer>
		<layer id="320" name="HardSigmoid_166/HardSigmoid__input_port_2/value" type="Const" version="opset1">
			<data element_type="f32" offset="62764" shape="" size="4"/>
			<output>
				<port id="0" precision="FP32"/>
			</output>
		</layer>
		<layer id="321" name="HardSigmoid_166/HardSigmoid_" type="HardSigmoid" version="opset1">
			<input>
				<port id="0" precision="FP32">
					<dim>1</dim>
					<dim>480</dim>
					<dim>1</dim>
					<dim>1</dim>
				</port>
				<port id="1" precision="FP32"/>
				<port id="2" precision="FP32"/>
			</input>
			<output>
				<port id="3" names="914" precision="FP32">
					<dim>1</dim>
					<dim>480</dim>
					<dim>1</dim>
					<dim>1</dim>
				</port>
			</output>
		</layer>
		<layer id="322" name="Mul_167" type="Multiply" version="opset1">
			<data auto_broadcast="numpy"/>
			<input>
				<port id="0" precision="FP32">
					<dim>1</dim>
					<dim>480</dim>
					<dim>1</dim>
					<dim>1</dim>
				</port>
				<port id="1" precision="FP32">
					<dim>1</dim>
					<dim>480</dim>
					<dim>34</dim>
					<dim>60</dim>
				</port>
			</input>
			<output>
				<port id="2" names="915" precision="FP32">
					<dim>1</dim>
					<dim>480</dim>
					<dim>34</dim>
					<dim>60</dim>
				</port>
			</output>
		</layer>
		<layer id="323" name="1808" type="Const" version="opset1">
			<data element_type="f32" offset="1393616" shape="112, 480, 1, 1" size="215040"/>
			<output>
				<port id="0" names="1808" precision="FP32">
					<dim>112</dim>
					<dim>480</dim>
					<dim>1</dim>
					<dim>1</dim>
				</port>
			</output>
		</layer>
		<layer id="324" name="Conv_168/WithoutBiases" type="Convolution" version="opset1">
			<data auto_pad="explicit" dilations="1, 1" pads_begin="0, 0" pads_end="0, 0" strides="1, 1"/>
			<input>
				<port id="0" precision="FP32">
					<dim>1</dim>
					<dim>480</dim>
					<dim>34</dim>
					<dim>60</dim>
				</port>
				<port id="1" precision="FP32">
					<dim>112</dim>
					<dim>480</dim>
					<dim>1</dim>
					<dim>1</dim>
				</port>
			</input>
			<output>
				<port id="2" precision="FP32">
					<dim>1</dim>
					<dim>112</dim>
					<dim>34</dim>
					<dim>60</dim>
				</port>
			</output>
		</layer>
		<layer id="325" name="Conv_168/Dims13125" type="Const" version="opset1">
			<data element_type="f32" offset="1608656" shape="1, 112, 1, 1" size="448"/>
			<output>
				<port id="0" precision="FP32">
					<dim>1</dim>
					<dim>112</dim>
					<dim>1</dim>
					<dim>1</dim>
				</port>
			</output>
		</layer>
		<layer id="326" name="Conv_168" type="Add" version="opset1">
			<data auto_broadcast="numpy"/>
			<input>
				<port id="0" precision="FP32">
					<dim>1</dim>
					<dim>112</dim>
					<dim>34</dim>
					<dim>60</dim>
				</port>
				<port id="1" precision="FP32">
					<dim>1</dim>
					<dim>112</dim>
					<dim>1</dim>
					<dim>1</dim>
				</port>
			</input>
			<output>
				<port id="2" names="1807" precision="FP32">
					<dim>1</dim>
					<dim>112</dim>
					<dim>34</dim>
					<dim>60</dim>
				</port>
			</output>
		</layer>
		<layer id="327" name="1811" type="Const" version="opset1">
			<data element_type="f32" offset="1609104" shape="672, 112, 1, 1" size="301056"/>
			<output>
				<port id="0" names="1811" precision="FP32">
					<dim>672</dim>
					<dim>112</dim>
					<dim>1</dim>
					<dim>1</dim>
				</port>
			</output>
		</layer>
		<layer id="328" name="Conv_169/WithoutBiases" type="Convolution" version="opset1">
			<data auto_pad="explicit" dilations="1, 1" pads_begin="0, 0" pads_end="0, 0" strides="1, 1"/>
			<input>
				<port id="0" precision="FP32">
					<dim>1</dim>
					<dim>112</dim>
					<dim>34</dim>
					<dim>60</dim>
				</port>
				<port id="1" precision="FP32">
					<dim>672</dim>
					<dim>112</dim>
					<dim>1</dim>
					<dim>1</dim>
				</port>
			</input>
			<output>
				<port id="2" precision="FP32">
					<dim>1</dim>
					<dim>672</dim>
					<dim>34</dim>
					<dim>60</dim>
				</port>
			</output>
		</layer>
		<layer id="329" name="Conv_169/Dims12837" type="Const" version="opset1">
			<data element_type="f32" offset="1910160" shape="1, 672, 1, 1" size="2688"/>
			<output>
				<port id="0" precision="FP32">
					<dim>1</dim>
					<dim>672</dim>
					<dim>1</dim>
					<dim>1</dim>
				</port>
			</output>
		</layer>
		<layer id="330" name="Conv_169" type="Add" version="opset1">
			<data auto_broadcast="numpy"/>
			<input>
				<port id="0" precision="FP32">
					<dim>1</dim>
					<dim>672</dim>
					<dim>34</dim>
					<dim>60</dim>
				</port>
				<port id="1" precision="FP32">
					<dim>1</dim>
					<dim>672</dim>
					<dim>1</dim>
					<dim>1</dim>
				</port>
			</input>
			<output>
				<port id="2" names="1810" precision="FP32">
					<dim>1</dim>
					<dim>672</dim>
					<dim>34</dim>
					<dim>60</dim>
				</port>
			</output>
		</layer>
		<layer id="331" name="Constant_170" type="Const" version="opset1">
			<data element_type="f32" offset="1884" shape="1, 1, 1, 1" size="4"/>
			<output>
				<port id="0" names="920" precision="FP32">
					<dim>1</dim>
					<dim>1</dim>
					<dim>1</dim>
					<dim>1</dim>
				</port>
			</output>
		</layer>
		<layer id="332" name="Add_171" type="Add" version="opset1">
			<data auto_broadcast="numpy"/>
			<input>
				<port id="0" precision="FP32">
					<dim>1</dim>
					<dim>672</dim>
					<dim>34</dim>
					<dim>60</dim>
				</port>
				<port id="1" precision="FP32">
					<dim>1</dim>
					<dim>1</dim>
					<dim>1</dim>
					<dim>1</dim>
				</port>
			</input>
			<output>
				<port id="2" names="921" precision="FP32">
					<dim>1</dim>
					<dim>672</dim>
					<dim>34</dim>
					<dim>60</dim>
				</port>
			</output>
		</layer>
		<layer id="333" name="Clip_174" type="Clamp" version="opset1">
			<data max="6" min="0"/>
			<input>
				<port id="0" precision="FP32">
					<dim>1</dim>
					<dim>672</dim>
					<dim>34</dim>
					<dim>60</dim>
				</port>
			</input>
			<output>
				<port id="1" names="924" precision="FP32">
					<dim>1</dim>
					<dim>672</dim>
					<dim>34</dim>
					<dim>60</dim>
				</port>
			</output>
		</layer>
		<layer id="334" name="Constant_175" type="Const" version="opset1">
			<data element_type="f32" offset="1888" shape="1, 1, 1, 1" size="4"/>
			<output>
				<port id="0" names="925" precision="FP32">
					<dim>1</dim>
					<dim>1</dim>
					<dim>1</dim>
					<dim>1</dim>
				</port>
			</output>
		</layer>
		<layer id="335" name="Div_176" type="Multiply" version="opset1">
			<data auto_broadcast="numpy"/>
			<input>
				<port id="0" precision="FP32">
					<dim>1</dim>
					<dim>672</dim>
					<dim>34</dim>
					<dim>60</dim>
				</port>
				<port id="1" precision="FP32">
					<dim>1</dim>
					<dim>1</dim>
					<dim>1</dim>
					<dim>1</dim>
				</port>
			</input>
			<output>
				<port id="2" names="926" precision="FP32">
					<dim>1</dim>
					<dim>672</dim>
					<dim>34</dim>
					<dim>60</dim>
				</port>
			</output>
		</layer>
		<layer id="336" name="Mul_177" type="Multiply" version="opset1">
			<data auto_broadcast="numpy"/>
			<input>
				<port id="0" precision="FP32">
					<dim>1</dim>
					<dim>672</dim>
					<dim>34</dim>
					<dim>60</dim>
				</port>
				<port id="1" precision="FP32">
					<dim>1</dim>
					<dim>672</dim>
					<dim>34</dim>
					<dim>60</dim>
				</port>
			</input>
			<output>
				<port id="2" names="927" precision="FP32">
					<dim>1</dim>
					<dim>672</dim>
					<dim>34</dim>
					<dim>60</dim>
				</port>
			</output>
		</layer>
		<layer id="337" name="1814" type="Const" version="opset1">
			<data element_type="f32" offset="1912848" shape="672, 1, 1, 3, 3" size="24192"/>
			<output>
				<port id="0" names="1814" precision="FP32">
					<dim>672</dim>
					<dim>1</dim>
					<dim>1</dim>
					<dim>3</dim>
					<dim>3</dim>
				</port>
			</output>
		</layer>
		<layer id="338" name="Conv_178/WithoutBiases" type="GroupConvolution" version="opset1">
			<data auto_pad="explicit" dilations="1, 1" pads_begin="1, 1" pads_end="1, 1" strides="1, 1"/>
			<input>
				<port id="0" precision="FP32">
					<dim>1</dim>
					<dim>672</dim>
					<dim>34</dim>
					<dim>60</dim>
				</port>
				<port id="1" precision="FP32">
					<dim>672</dim>
					<dim>1</dim>
					<dim>1</dim>
					<dim>3</dim>
					<dim>3</dim>
				</port>
			</input>
			<output>
				<port id="2" precision="FP32">
					<dim>1</dim>
					<dim>672</dim>
					<dim>34</dim>
					<dim>60</dim>
				</port>
			</output>
		</layer>
		<layer id="339" name="Conv_178/Dims12903" type="Const" version="opset1">
			<data element_type="f32" offset="1937040" shape="1, 672, 1, 1" size="2688"/>
			<output>
				<port id="0" precision="FP32">
					<dim>1</dim>
					<dim>672</dim>
					<dim>1</dim>
					<dim>1</dim>
				</port>
			</output>
		</layer>
		<layer id="340" name="Conv_178" type="Add" version="opset1">
			<data auto_broadcast="numpy"/>
			<input>
				<port id="0" precision="FP32">
					<dim>1</dim>
					<dim>672</dim>
					<dim>34</dim>
					<dim>60</dim>
				</port>
				<port id="1" precision="FP32">
					<dim>1</dim>
					<dim>672</dim>
					<dim>1</dim>
					<dim>1</dim>
				</port>
			</input>
			<output>
				<port id="2" names="1813" precision="FP32">
					<dim>1</dim>
					<dim>672</dim>
					<dim>34</dim>
					<dim>60</dim>
				</port>
			</output>
		</layer>
		<layer id="341" name="Constant_179" type="Const" version="opset1">
			<data element_type="f32" offset="1884" shape="1, 1, 1, 1" size="4"/>
			<output>
				<port id="0" names="930" precision="FP32">
					<dim>1</dim>
					<dim>1</dim>
					<dim>1</dim>
					<dim>1</dim>
				</port>
			</output>
		</layer>
		<layer id="342" name="Add_180" type="Add" version="opset1">
			<data auto_broadcast="numpy"/>
			<input>
				<port id="0" precision="FP32">
					<dim>1</dim>
					<dim>672</dim>
					<dim>34</dim>
					<dim>60</dim>
				</port>
				<port id="1" precision="FP32">
					<dim>1</dim>
					<dim>1</dim>
					<dim>1</dim>
					<dim>1</dim>
				</port>
			</input>
			<output>
				<port id="2" names="931" precision="FP32">
					<dim>1</dim>
					<dim>672</dim>
					<dim>34</dim>
					<dim>60</dim>
				</port>
			</output>
		</layer>
		<layer id="343" name="Clip_183" type="Clamp" version="opset1">
			<data max="6" min="0"/>
			<input>
				<port id="0" precision="FP32">
					<dim>1</dim>
					<dim>672</dim>
					<dim>34</dim>
					<dim>60</dim>
				</port>
			</input>
			<output>
				<port id="1" names="934" precision="FP32">
					<dim>1</dim>
					<dim>672</dim>
					<dim>34</dim>
					<dim>60</dim>
				</port>
			</output>
		</layer>
		<layer id="344" name="Constant_184" type="Const" version="opset1">
			<data element_type="f32" offset="1888" shape="1, 1, 1, 1" size="4"/>
			<output>
				<port id="0" names="935" precision="FP32">
					<dim>1</dim>
					<dim>1</dim>
					<dim>1</dim>
					<dim>1</dim>
				</port>
			</output>
		</layer>
		<layer id="345" name="Div_185" type="Multiply" version="opset1">
			<data auto_broadcast="numpy"/>
			<input>
				<port id="0" precision="FP32">
					<dim>1</dim>
					<dim>672</dim>
					<dim>34</dim>
					<dim>60</dim>
				</port>
				<port id="1" precision="FP32">
					<dim>1</dim>
					<dim>1</dim>
					<dim>1</dim>
					<dim>1</dim>
				</port>
			</input>
			<output>
				<port id="2" names="936" precision="FP32">
					<dim>1</dim>
					<dim>672</dim>
					<dim>34</dim>
					<dim>60</dim>
				</port>
			</output>
		</layer>
		<layer id="346" name="Mul_186" type="Multiply" version="opset1">
			<data auto_broadcast="numpy"/>
			<input>
				<port id="0" precision="FP32">
					<dim>1</dim>
					<dim>672</dim>
					<dim>34</dim>
					<dim>60</dim>
				</port>
				<port id="1" precision="FP32">
					<dim>1</dim>
					<dim>672</dim>
					<dim>34</dim>
					<dim>60</dim>
				</port>
			</input>
			<output>
				<port id="2" names="937" precision="FP32">
					<dim>1</dim>
					<dim>672</dim>
					<dim>34</dim>
					<dim>60</dim>
				</port>
			</output>
		</layer>
		<layer id="347" name="1287" type="Const" version="opset1">
			<data element_type="i64" offset="20" shape="" size="8"/>
			<output>
				<port id="0" precision="I64"/>
			</output>
		</layer>
		<layer id="348" name="GlobalAveragePool_187/input_rank/shape_of" type="ShapeOf" version="opset3">
			<data output_type="i64"/>
			<input>
				<port id="0" precision="FP32">
					<dim>1</dim>
					<dim>672</dim>
					<dim>34</dim>
					<dim>60</dim>
				</port>
			</input>
			<output>
				<port id="1" precision="I64">
					<dim>4</dim>
				</port>
			</output>
		</layer>
		<layer id="349" name="GlobalAveragePool_187/input_rank/rank_of" type="ShapeOf" version="opset3">
			<data output_type="i64"/>
			<input>
				<port id="0" precision="I64">
					<dim>4</dim>
				</port>
			</input>
			<output>
				<port id="1" precision="I64">
					<dim>1</dim>
				</port>
			</output>
		</layer>
		<layer id="350" name="GlobalAveragePool_187/input_rank/0d_rank_of/value" type="Const" version="opset1">
			<data element_type="i64" offset="48548" shape="1" size="8"/>
			<output>
				<port id="0" precision="I64">
					<dim>1</dim>
				</port>
			</output>
		</layer>
		<layer id="351" name="GlobalAveragePool_187/input_rank" type="Squeeze" version="opset1">
			<input>
				<port id="0" precision="I64">
					<dim>1</dim>
				</port>
				<port id="1" precision="I64">
					<dim>1</dim>
				</port>
			</input>
			<output>
				<port id="2" precision="I64"/>
			</output>
		</layer>
		<layer id="352" name="1289" type="Const" version="opset1">
			<data element_type="i64" offset="36" shape="" size="8"/>
			<output>
				<port id="0" precision="I64"/>
			</output>
		</layer>
		<layer id="353" name="GlobalAveragePool_187/global_pooling_reduce_axis" type="Range" version="opset4">
			<data output_type="i64"/>
			<input>
				<port id="0" precision="I64"/>
				<port id="1" precision="I64"/>
				<port id="2" precision="I64"/>
			</input>
			<output>
				<port id="3" precision="I64">
					<dim>2</dim>
				</port>
			</output>
		</layer>
		<layer id="354" name="GlobalAveragePool_187/reduce" type="ReduceMean" version="opset1">
			<data keep_dims="true"/>
			<input>
				<port id="0" precision="FP32">
					<dim>1</dim>
					<dim>672</dim>
					<dim>34</dim>
					<dim>60</dim>
				</port>
				<port id="1" precision="I64">
					<dim>2</dim>
				</port>
			</input>
			<output>
				<port id="2" names="938" precision="FP32">
					<dim>1</dim>
					<dim>672</dim>
					<dim>1</dim>
					<dim>1</dim>
				</port>
			</output>
		</layer>
		<layer id="355" name="backbone.features.12.block.2.fc1.weight" type="Const" version="opset1">
			<data element_type="f32" offset="1939728" shape="168, 672, 1, 1" size="451584"/>
			<output>
				<port id="0" names="backbone.features.12.block.2.fc1.weight" precision="FP32">
					<dim>168</dim>
					<dim>672</dim>
					<dim>1</dim>
					<dim>1</dim>
				</port>
			</output>
		</layer>
		<layer id="356" name="Conv_188/WithoutBiases" type="Convolution" version="opset1">
			<data auto_pad="explicit" dilations="1, 1" pads_begin="0, 0" pads_end="0, 0" strides="1, 1"/>
			<input>
				<port id="0" precision="FP32">
					<dim>1</dim>
					<dim>672</dim>
					<dim>1</dim>
					<dim>1</dim>
				</port>
				<port id="1" precision="FP32">
					<dim>168</dim>
					<dim>672</dim>
					<dim>1</dim>
					<dim>1</dim>
				</port>
			</input>
			<output>
				<port id="2" precision="FP32">
					<dim>1</dim>
					<dim>168</dim>
					<dim>1</dim>
					<dim>1</dim>
				</port>
			</output>
		</layer>
		<layer id="357" name="Conv_188/Dims12867" type="Const" version="opset1">
			<data element_type="f32" offset="2391312" shape="1, 168, 1, 1" size="672"/>
			<output>
				<port id="0" precision="FP32">
					<dim>1</dim>
					<dim>168</dim>
					<dim>1</dim>
					<dim>1</dim>
				</port>
			</output>
		</layer>
		<layer id="358" name="Conv_188" type="Add" version="opset1">
			<data auto_broadcast="numpy"/>
			<input>
				<port id="0" precision="FP32">
					<dim>1</dim>
					<dim>168</dim>
					<dim>1</dim>
					<dim>1</dim>
				</port>
				<port id="1" precision="FP32">
					<dim>1</dim>
					<dim>168</dim>
…
		<edge from-layer="992" from-port="0" to-layer="993" to-port="1"/>
		<edge from-layer="993" from-port="2" to-layer="994" to-port="0"/>
		<edge from-layer="994" from-port="1" to-layer="1051" to-port="0"/>
		<edge from-layer="995" from-port="0" to-layer="996" to-port="1"/>
		<edge from-layer="996" from-port="2" to-layer="998" to-port="0"/>
		<edge from-layer="997" from-port="0" to-layer="998" to-port="1"/>
		<edge from-layer="998" from-port="2" to-layer="999" to-port="0"/>
		<edge from-layer="999" from-port="1" to-layer="1014" to-port="0"/>
		<edge from-layer="999" from-port="1" to-layer="1004" to-port="0"/>
		<edge from-layer="999" from-port="1" to-layer="1044" to-port="0"/>
		<edge from-layer="999" from-port="1" to-layer="1020" to-port="0"/>
		<edge from-layer="999" from-port="1" to-layer="1001" to-port="0"/>
		<edge from-layer="1000" from-port="0" to-layer="1001" to-port="1"/>
		<edge from-layer="1001" from-port="2" to-layer="1003" to-port="0"/>
		<edge from-layer="1002" from-port="0" to-layer="1003" to-port="1"/>
		<edge from-layer="1003" from-port="2" to-layer="1045" to-port="0"/>
		<edge from-layer="1004" from-port="1" to-layer="1006" to-port="0"/>
		<edge from-layer="1005" from-port="0" to-layer="1006" to-port="1"/>
		<edge from-layer="1006" from-port="2" to-layer="1008" to-port="0"/>
		<edge from-layer="1007" from-port="0" to-layer="1008" to-port="1"/>
		<edge from-layer="1008" from-port="2" to-layer="1033" to-port="0"/>
		<edge from-layer="1008" from-port="2" to-layer="1009" to-port="0"/>
		<edge from-layer="1008" from-port="2" to-layer="1043" to-port="0"/>
		<edge from-layer="1009" from-port="1" to-layer="1013" to-port="0"/>
		<edge from-layer="1010" from-port="0" to-layer="1013" to-port="1"/>
		<edge from-layer="1011" from-port="0" to-layer="1013" to-port="2"/>
		<edge from-layer="1012" from-port="0" to-layer="1013" to-port="3"/>
		<edge from-layer="1013" from-port="4" to-layer="1027" to-port="0"/>
		<edge from-layer="1014" from-port="1" to-layer="1017" to-port="0"/>
		<edge from-layer="1015" from-port="0" to-layer="1017" to-port="1"/>
		<edge from-layer="1016" from-port="0" to-layer="1017" to-port="2"/>
		<edge from-layer="1017" from-port="3" to-layer="1019" to-port="0"/>
		<edge from-layer="1018" from-port="0" to-layer="1019" to-port="1"/>
		<edge from-layer="1019" from-port="2" to-layer="1026" to-port="0"/>
		<edge from-layer="1020" from-port="1" to-layer="1023" to-port="0"/>
		<edge from-layer="1021" from-port="0" to-layer="1023" to-port="1"/>
		<edge from-layer="1022" from-port="0" to-layer="1023" to-port="2"/>
		<edge from-layer="1023" from-port="3" to-layer="1025" to-port="0"/>
		<edge from-layer="1024" from-port="0" to-layer="1025" to-port="1"/>
		<edge from-layer="1025" from-port="2" to-layer="1026" to-port="1"/>
		<edge from-layer="1026" from-port="2" to-layer="1027" to-port="1"/>
		<edge from-layer="1027" from-port="2" to-layer="1031" to-port="0"/>
		<edge from-layer="1027" from-port="2" to-layer="1032" to-port="0"/>
		<edge from-layer="1028" from-port="0" to-layer="1031" to-port="1"/>
		<edge from-layer="1029" from-port="0" to-layer="1031" to-port="2"/>
		<edge from-layer="1030" from-port="0" to-layer="1031" to-port="3"/>
		<edge from-layer="1031" from-port="4" to-layer="1043" to-port="1"/>
		<edge from-layer="1032" from-port="1" to-layer="1035" to-port="0"/>
		<edge from-layer="1033" from-port="1" to-layer="1034" to-port="0"/>
		<edge from-layer="1034" from-port="1" to-layer="1035" to-port="1"/>
		<edge from-layer="1035" from-port="2" to-layer="1037" to-port="0"/>
		<edge from-layer="1036" from-port="0" to-layer="1037" to-port="1"/>
		<edge from-layer="1037" from-port="2" to-layer="1041" to-port="0"/>
		<edge from-layer="1038" from-port="0" to-layer="1041" to-port="1"/>
		<edge from-layer="1039" from-port="0" to-layer="1041" to-port="2"/>
		<edge from-layer="1040" from-port="0" to-layer="1041" to-port="3"/>
		<edge from-layer="1041" from-port="4" to-layer="1043" to-port="2"/>
		<edge from-layer="1042" from-port="0" to-layer="1043" to-port="3"/>
		<edge from-layer="1043" from-port="4" to-layer="1044" to-port="1"/>
		<edge from-layer="1044" from-port="2" to-layer="1045" to-port="1"/>
		<edge from-layer="1045" from-port="2" to-layer="1047" to-port="0"/>
		<edge from-layer="1046" from-port="0" to-layer="1047" to-port="1"/>
		<edge from-layer="1047" from-port="2" to-layer="1049" to-port="0"/>
		<edge from-layer="1048" from-port="0" to-layer="1049" to-port="1"/>
		<edge from-layer="1049" from-port="2" to-layer="1050" to-port="0"/>
		<edge from-layer="1050" from-port="1" to-layer="1051" to-port="1"/>
		<edge from-layer="1051" from-port="2" to-layer="1053" to-port="0"/>
		<edge from-layer="1052" from-port="0" to-layer="1053" to-port="1"/>
		<edge from-layer="1053" from-port="2" to-layer="1055" to-port="0"/>
		<edge from-layer="1054" from-port="0" to-layer="1055" to-port="1"/>
		<edge from-layer="1055" from-port="2" to-layer="1056" to-port="0"/>
		<edge from-layer="1056" from-port="1" to-layer="1080" to-port="0"/>
		<edge from-layer="1057" from-port="0" to-layer="1069" to-port="0"/>
		<edge from-layer="1058" from-port="1" to-layer="1059" to-port="1"/>
		<edge from-layer="1059" from-port="2" to-layer="1071" to-port="1"/>
		<edge from-layer="1059" from-port="2" to-layer="1060" to-port="1"/>
		<edge from-layer="1059" from-port="2" to-layer="1070" to-port="1"/>
		<edge from-layer="1060" from-port="2" to-layer="1062" to-port="0"/>
		<edge from-layer="1061" from-port="0" to-layer="1062" to-port="1"/>
		<edge from-layer="1062" from-port="2" to-layer="1064" to-port="0"/>
		<edge from-layer="1063" from-port="0" to-layer="1064" to-port="1"/>
		<edge from-layer="1064" from-port="2" to-layer="1065" to-port="0"/>
		<edge from-layer="1065" from-port="1" to-layer="1068" to-port="0"/>
		<edge from-layer="1066" from-port="0" to-layer="1068" to-port="1"/>
		<edge from-layer="1067" from-port="0" to-layer="1068" to-port="2"/>
		<edge from-layer="1068" from-port="4" to-layer="1069" to-port="1"/>
		<edge from-layer="1068" from-port="3" to-layer="1071" to-port="0"/>
		<edge from-layer="1068" from-port="4" to-layer="1078" to-port="0"/>
		<edge from-layer="1069" from-port="2" to-layer="1070" to-port="0"/>
		<edge from-layer="1070" from-port="2" to-layer="1079" to-port="0"/>
		<edge from-layer="1071" from-port="2" to-layer="1072" to-port="1"/>
		<edge from-layer="1072" from-port="2" to-layer="1074" to-port="0"/>
		<edge from-layer="1073" from-port="0" to-layer="1074" to-port="1"/>
		<edge from-layer="1074" from-port="2" to-layer="1076" to-port="0"/>
		<edge from-layer="1075" from-port="0" to-layer="1076" to-port="1"/>
		<edge from-layer="1076" from-port="2" to-layer="1077" to-port="0"/>
		<edge from-layer="1077" from-port="1" to-layer="1078" to-port="1"/>
		<edge from-layer="1078" from-port="2" to-layer="1079" to-port="1"/>
		<edge from-layer="1079" from-port="2" to-layer="1080" to-port="1"/>
		<edge from-layer="1079" from-port="2" to-layer="1612" to-port="0"/>
		<edge from-layer="1080" from-port="2" to-layer="1081" to-port="0"/>
		<edge from-layer="1080" from-port="2" to-layer="1095" to-port="0"/>
		<edge from-layer="1081" from-port="1" to-layer="1082" to-port="0"/>
		<edge from-layer="1082" from-port="1" to-layer="1084" to-port="0"/>
		<edge from-layer="1083" from-port="0" to-layer="1084" to-port="1"/>
		<edge from-layer="1084" from-port="2" to-layer="1086" to-port="0"/>
		<edge from-layer="1085" from-port="0" to-layer="1086" to-port="1"/>
		<edge from-layer="1086" from-port="2" to-layer="1087" to-port="0"/>
		<edge from-layer="1087" from-port="1" to-layer="1088" to-port="0"/>
		<edge from-layer="1088" from-port="1" to-layer="1092" to-port="0"/>
		<edge from-layer="1089" from-port="0" to-layer="1092" to-port="1"/>
		<edge from-layer="1090" from-port="0" to-layer="1092" to-port="2"/>
		<edge from-layer="1091" from-port="0" to-layer="1092" to-port="3"/>
		<edge from-layer="1092" from-port="4" to-layer="1095" to-port="1"/>
		<edge from-layer="1093" from-port="0" to-layer="1095" to-port="2"/>
		<edge from-layer="1094" from-port="0" to-layer="1095" to-port="3"/>
		<edge from-layer="1095" from-port="4" to-layer="1113" to-port="0"/>
		<edge from-layer="1096" from-port="0" to-layer="1113" to-port="1"/>
		<edge from-layer="1097" from-port="0" to-layer="1111" to-port="0"/>
		<edge from-layer="1098" from-port="0" to-layer="1111" to-port="1"/>
		<edge from-layer="1099" from-port="1" to-layer="1103" to-port="0"/>
		<edge from-layer="1100" from-port="0" to-layer="1103" to-port="1"/>
		<edge from-layer="1101" from-port="0" to-layer="1103" to-port="2"/>
		<edge from-layer="1102" from-port="0" to-layer="1103" to-port="3"/>
		<edge from-layer="1103" from-port="4" to-layer="1104" to-port="0"/>
		<edge from-layer="1104" from-port="1" to-layer="1110" to-port="0"/>
		<edge from-layer="1104" from-port="1" to-layer="1107" to-port="0"/>
		<edge from-layer="1105" from-port="0" to-layer="1107" to-port="1"/>
		<edge from-layer="1106" from-port="0" to-layer="1107" to-port="2"/>
		<edge from-layer="1107" from-port="3" to-layer="1111" to-port="2"/>
		<edge from-layer="1108" from-port="0" to-layer="1110" to-port="1"/>
		<edge from-layer="1109" from-port="0" to-layer="1110" to-port="2"/>
		<edge from-layer="1110" from-port="3" to-layer="1111" to-port="3"/>
		<edge from-layer="1111" from-port="4" to-layer="1113" to-port="2"/>
		<edge from-layer="1112" from-port="0" to-layer="1113" to-port="3"/>
		<edge from-layer="1113" from-port="4" to-layer="1114" to-port="0"/>
		<edge from-layer="1114" from-port="3" to-layer="1129" to-port="0"/>
		<edge from-layer="1114" from-port="3" to-layer="1116" to-port="0"/>
		<edge from-layer="1114" from-port="3" to-layer="1151" to-port="0"/>
		<edge from-layer="1114" from-port="3" to-layer="1122" to-port="0"/>
		<edge from-layer="1114" from-port="3" to-layer="1123" to-port="0"/>
		<edge from-layer="1115" from-port="0" to-layer="1121" to-port="0"/>
		<edge from-layer="1116" from-port="1" to-layer="1117" to-port="0"/>
		<edge from-layer="1117" from-port="1" to-layer="1119" to-port="0"/>
		<edge from-layer="1118" from-port="0" to-layer="1119" to-port="1"/>
		<edge from-layer="1119" from-port="2" to-layer="1121" to-port="1"/>
		<edge from-layer="1120" from-port="0" to-layer="1121" to-port="2"/>
		<edge from-layer="1121" from-port="3" to-layer="1122" to-port="1"/>
		<edge from-layer="1122" from-port="2" to-layer="1136" to-port="0"/>
		<edge from-layer="1123" from-port="1" to-layer="1126" to-port="0"/>
		<edge from-layer="1124" from-port="0" to-layer="1126" to-port="1"/>
		<edge from-layer="1125" from-port="0" to-layer="1126" to-port="2"/>
		<edge from-layer="1126" from-port="3" to-layer="1144" to-port="0"/>
		<edge from-layer="1126" from-port="3" to-layer="1128" to-port="0"/>
		<edge from-layer="1127" from-port="0" to-layer="1128" to-port="1"/>
		<edge from-layer="1128" from-port="2" to-layer="1135" to-port="0"/>
		<edge from-layer="1129" from-port="1" to-layer="1132" to-port="0"/>
		<edge from-layer="1130" from-port="0" to-layer="1132" to-port="1"/>
		<edge from-layer="1131" from-port="0" to-layer="1132" to-port="2"/>
		<edge from-layer="1132" from-port="3" to-layer="1134" to-port="0"/>
		<edge from-layer="1132" from-port="3" to-layer="1146" to-port="0"/>
		<edge from-layer="1133" from-port="0" to-layer="1134" to-port="1"/>
		<edge from-layer="1134" from-port="2" to-layer="1135" to-port="1"/>
		<edge from-layer="1135" from-port="2" to-layer="1136" to-port="1"/>
		<edge from-layer="1136" from-port="2" to-layer="1138" to-port="0"/>
		<edge from-layer="1137" from-port="0" to-layer="1138" to-port="1"/>
		<edge from-layer="1138" from-port="2" to-layer="1139" to-port="0"/>
		<edge from-layer="1139" from-port="1" to-layer="1141" to-port="0"/>
		<edge from-layer="1140" from-port="0" to-layer="1141" to-port="1"/>
		<edge from-layer="1141" from-port="2" to-layer="1142" to-port="0"/>
		<edge from-layer="1142" from-port="1" to-layer="1150" to-port="0"/>
		<edge from-layer="1143" from-port="0" to-layer="1144" to-port="1"/>
		<edge from-layer="1144" from-port="2" to-layer="1149" to-port="0"/>
		<edge from-layer="1145" from-port="0" to-layer="1146" to-port="1"/>
		<edge from-layer="1146" from-port="2" to-layer="1149" to-port="1"/>
		<edge from-layer="1147" from-port="0" to-layer="1149" to-port="2"/>
		<edge from-layer="1148" from-port="0" to-layer="1149" to-port="3"/>
		<edge from-layer="1149" from-port="4" to-layer="1150" to-port="1"/>
		<edge from-layer="1150" from-port="2" to-layer="1151" to-port="1"/>
		<edge from-layer="1151" from-port="2" to-layer="1172" to-port="0"/>
		<edge from-layer="1151" from-port="2" to-layer="1166" to-port="0"/>
		<edge from-layer="1151" from-port="2" to-layer="1156" to-port="0"/>
		<edge from-layer="1151" from-port="2" to-layer="1196" to-port="0"/>
		<edge from-layer="1151" from-port="2" to-layer="1153" to-port="0"/>
		<edge from-layer="1152" from-port="0" to-layer="1153" to-port="1"/>
		<edge from-layer="1153" from-port="2" to-layer="1155" to-port="0"/>
		<edge from-layer="1154" from-port="0" to-layer="1155" to-port="1"/>
		<edge from-layer="1155" from-port="2" to-layer="1197" to-port="0"/>
		<edge from-layer="1156" from-port="1" to-layer="1158" to-port="0"/>
		<edge from-layer="1157" from-port="0" to-layer="1158" to-port="1"/>
		<edge from-layer="1158" from-port="2" to-layer="1160" to-port="0"/>
		<edge from-layer="1159" from-port="0" to-layer="1160" to-port="1"/>
		<edge from-layer="1160" from-port="2" to-layer="1185" to-port="0"/>
		<edge from-layer="1160" from-port="2" to-layer="1195" to-port="0"/>
		<edge from-layer="1160" from-port="2" to-layer="1161" to-port="0"/>
		<edge from-layer="1161" from-port="1" to-layer="1165" to-port="0"/>
		<edge from-layer="1162" from-port="0" to-layer="1165" to-port="1"/>
		<edge from-layer="1163" from-port="0" to-layer="1165" to-port="2"/>
		<edge from-layer="1164" from-port="0" to-layer="1165" to-port="3"/>
		<edge from-layer="1165" from-port="4" to-layer="1179" to-port="0"/>
		<edge from-layer="1166" from-port="1" to-layer="1169" to-port="0"/>
		<edge from-layer="1167" from-port="0" to-layer="1169" to-port="1"/>
		<edge from-layer="1168" from-port="0" to-layer="1169" to-port="2"/>
		<edge from-layer="1169" from-port="3" to-layer="1171" to-port="0"/>
		<edge from-layer="1170" from-port="0" to-layer="1171" to-port="1"/>
		<edge from-layer="1171" from-port="2" to-layer="1178" to-port="0"/>
		<edge from-layer="1172" from-port="1" to-layer="1175" to-port="0"/>
		<edge from-layer="1173" from-port="0" to-layer="1175" to-port="1"/>
		<edge from-layer="1174" from-port="0" to-layer="1175" to-port="2"/>
		<edge from-layer="1175" from-port="3" to-layer="1177" to-port="0"/>
		<edge from-layer="1176" from-port="0" to-layer="1177" to-port="1"/>
		<edge from-layer="1177" from-port="2" to-layer="1178" to-port="1"/>
		<edge from-layer="1178" from-port="2" to-layer="1179" to-port="1"/>
		<edge from-layer="1179" from-port="2" to-layer="1184" to-port="0"/>
		<edge from-layer="1179" from-port="2" to-layer="1183" to-port="0"/>
		<edge from-layer="1180" from-port="0" to-layer="1183" to-port="1"/>
		<edge from-layer="1181" from-port="0" to-layer="1183" to-port="2"/>
		<edge from-layer="1182" from-port="0" to-layer="1183" to-port="3"/>
		<edge from-layer="1183" from-port="4" to-layer="1195" to-port="1"/>
		<edge from-layer="1184" from-port="1" to-layer="1187" to-port="0"/>
		<edge from-layer="1185" from-port="1" to-layer="1186" to-port="0"/>
		<edge from-layer="1186" from-port="1" to-layer="1187" to-port="1"/>
		<edge from-layer="1187" from-port="2" to-layer="1189" to-port="0"/>
		<edge from-layer="1188" from-port="0" to-layer="1189" to-port="1"/>
		<edge from-layer="1189" from-port="2" to-layer="1193" to-port="0"/>
		<edge from-layer="1190" from-port="0" to-layer="1193" to-port="1"/>
		<edge from-layer="1191" from-port="0" to-layer="1193" to-port="2"/>
		<edge from-layer="1192" from-port="0" to-layer="1193" to-port="3"/>
		<edge from-layer="1193" from-port="4" to-layer="1195" to-port="2"/>
		<edge from-layer="1194" from-port="0" to-layer="1195" to-port="3"/>
		<edge from-layer="1195" from-port="4" to-layer="1196" to-port="1"/>
		<edge from-layer="1196" from-port="2" to-layer="1197" to-port="1"/>
		<edge from-layer="1197" from-port="2" to-layer="1199" to-port="0"/>
		<edge from-layer="1198" from-port="0" to-layer="1199" to-port="1"/>
		<edge from-layer="1199" from-port="2" to-layer="1201" to-port="0"/>
		<edge from-layer="1200" from-port="0" to-layer="1201" to-port="1"/>
		<edge from-layer="1201" from-port="2" to-layer="1202" to-port="0"/>
		<edge from-layer="1202" from-port="1" to-layer="1205" to-port="0"/>
		<edge from-layer="1203" from-port="0" to-layer="1205" to-port="1"/>
		<edge from-layer="1204" from-port="0" to-layer="1205" to-port="2"/>
		<edge from-layer="1205" from-port="3" to-layer="1217" to-port="0"/>
		<edge from-layer="1205" from-port="4" to-layer="1279" to-port="0"/>
		<edge from-layer="1205" from-port="3" to-layer="1207" to-port="0"/>
		<edge from-layer="1205" from-port="4" to-layer="1293" to-port="0"/>
		<edge from-layer="1205" from-port="4" to-layer="1281" to-port="0"/>
		<edge from-layer="1206" from-port="0" to-layer="1207" to-port="1"/>
		<edge from-layer="1207" from-port="2" to-layer="1209" to-port="0"/>
		<edge from-layer="1208" from-port="0" to-layer="1209" to-port="1"/>
		<edge from-layer="1209" from-port="2" to-layer="1210" to-port="0"/>
		<edge from-layer="1210" from-port="1" to-layer="1212" to-port="0"/>
		<edge from-layer="1211" from-port="0" to-layer="1212" to-port="1"/>
		<edge from-layer="1212" from-port="2" to-layer="1214" to-port="0"/>
		<edge from-layer="1213" from-port="0" to-layer="1214" to-port="1"/>
		<edge from-layer="1214" from-port="2" to-layer="1215" to-port="0"/>
		<edge from-layer="1215" from-port="1" to-layer="1272" to-port="0"/>
		<edge from-layer="1216" from-port="0" to-layer="1217" to-port="1"/>
		<edge from-layer="1217" from-port="2" to-layer="1219" to-port="0"/>
		<edge from-layer="1218" from-port="0" to-layer="1219" to-port="1"/>
		<edge from-layer="1219" from-port="2" to-layer="1220" to-port="0"/>
		<edge from-layer="1220" from-port="1" to-layer="1235" to-port="0"/>
		<edge from-layer="1220" from-port="1" to-layer="1241" to-port="0"/>
		<edge from-layer="1220" from-port="1" to-layer="1265" to-port="0"/>
		<edge from-layer="1220" from-port="1" to-layer="1222" to-port="0"/>
		<edge from-layer="1220" from-port="1" to-layer="1225" to-port="0"/>
		<edge from-layer="1221" from-port="0" to-layer="1222" to-port="1"/>
		<edge from-layer="1222" from-port="2" to-layer="1224" to-port="0"/>
		<edge from-layer="1223" from-port="0" to-layer="1224" to-port="1"/>
		<edge from-layer="1224" from-port="2" to-layer="1266" to-port="0"/>
		<edge from-layer="1225" from-port="1" to-layer="1227" to-port="0"/>
		<edge from-layer="1226" from-port="0" to-layer="1227" to-port="1"/>
		<edge from-layer="1227" from-port="2" to-layer="1229" to-port="0"/>
		<edge from-layer="1228" from-port="0" to-layer="1229" to-port="1"/>
		<edge from-layer="1229" from-port="2" to-layer="1254" to-port="0"/>
		<edge from-layer="1229" from-port="2" to-layer="1230" to-port="0"/>
		<edge from-layer="1229" from-port="2" to-layer="1264" to-port="0"/>
		<edge from-layer="1230" from-port="1" to-layer="1234" to-port="0"/>
		<edge from-layer="1231" from-port="0" to-layer="1234" to-port="1"/>
		<edge from-layer="1232" from-port="0" to-layer="1234" to-port="2"/>
		<edge from-layer="1233" from-port="0" to-layer="1234" to-port="3"/>
		<edge from-layer="1234" from-port="4" to-layer="1248" to-port="0"/>
		<edge from-layer="1235" from-port="1" to-layer="1238" to-port="0"/>
		<edge from-layer="1236" from-port="0" to-layer="1238" to-port="1"/>
		<edge from-layer="1237" from-port="0" to-layer="1238" to-port="2"/>
		<edge from-layer="1238" from-port="3" to-layer="1240" to-port="0"/>
		<edge from-layer="1239" from-port="0" to-layer="1240" to-port="1"/>
		<edge from-layer="1240" from-port="2" to-layer="1247" to-port="0"/>
		<edge from-layer="1241" from-port="1" to-layer="1244" to-port="0"/>
		<edge from-layer="1242" from-port="0" to-layer="1244" to-port="1"/>
		<edge from-layer="1243" from-port="0" to-layer="1244" to-port="2"/>
		<edge from-layer="1244" from-port="3" to-layer="1246" to-port="0"/>
		<edge from-layer="1245" from-port="0" to-layer="1246" to-port="1"/>
		<edge from-layer="1246" from-port="2" to-layer="1247" to-port="1"/>
		<edge from-layer="1247" from-port="2" to-layer="1248" to-port="1"/>
		<edge from-layer="1248" from-port="2" to-layer="1252" to-port="0"/>
		<edge from-layer="1248" from-port="2" to-layer="1253" to-port="0"/>
		<edge from-layer="1249" from-port="0" to-layer="1252" to-port="1"/>
		<edge from-layer="1250" from-port="0" to-layer="1252" to-port="2"/>
		<edge from-layer="1251" from-port="0" to-layer="1252" to-port="3"/>
		<edge from-layer="1252" from-port="4" to-layer="1264" to-port="1"/>
		<edge from-layer="1253" from-port="1" to-layer="1256" to-port="0"/>
		<edge from-layer="1254" from-port="1" to-layer="1255" to-port="0"/>
		<edge from-layer="1255" from-port="1" to-layer="1256" to-port="1"/>
		<edge from-layer="1256" from-port="2" to-layer="1258" to-port="0"/>
		<edge from-layer="1257" from-port="0" to-layer="1258" to-port="1"/>
		<edge from-layer="1258" from-port="2" to-layer="1262" to-port="0"/>
		<edge from-layer="1259" from-port="0" to-layer="1262" to-port="1"/>
		<edge from-layer="1260" from-port="0" to-layer="1262" to-port="2"/>
		<edge from-layer="1261" from-port="0" to-layer="1262" to-port="3"/>
		<edge from-layer="1262" from-port="4" to-layer="1264" to-port="2"/>
		<edge from-layer="1263" from-port="0" to-layer="1264" to-port="3"/>
		<edge from-layer="1264" from-port="4" to-layer="1265" to-port="1"/>
		<edge from-layer="1265" from-port="2" to-layer="1266" to-port="1"/>
		<edge from-layer="1266" from-port="2" to-layer="1268" to-port="0"/>
		<edge from-layer="1267" from-port="0" to-layer="1268" to-port="1"/>
		<edge from-layer="1268" from-port="2" to-layer="1270" to-port="0"/>
		<edge from-layer="1269" from-port="0" to-layer="1270" to-port="1"/>
		<edge from-layer="1270" from-port="2" to-layer="1271" to-port="0"/>
		<edge from-layer="1271" from-port="1" to-layer="1272" to-port="1"/>
		<edge from-layer="1272" from-port="2" to-layer="1274" to-port="0"/>
		<edge from-layer="1273" from-port="0" to-layer="1274" to-port="1"/>
		<edge from-layer="1274" from-port="2" to-layer="1276" to-port="0"/>
		<edge from-layer="1275" from-port="0" to-layer="1276" to-port="1"/>
		<edge from-layer="1276" from-port="2" to-layer="1277" to-port="0"/>
		<edge from-layer="1277" from-port="1" to-layer="1301" to-port="0"/>
		<edge from-layer="1278" from-port="0" to-layer="1290" to-port="0"/>
		<edge from-layer="1279" from-port="1" to-layer="1280" to-port="1"/>
		<edge from-layer="1280" from-port="2" to-layer="1281" to-port="1"/>
		<edge from-layer="1280" from-port="2" to-layer="1292" to-port="1"/>
		<edge from-layer="1280" from-port="2" to-layer="1291" to-port="1"/>
		<edge from-layer="1281" from-port="2" to-layer="1283" to-port="0"/>
		<edge from-layer="1282" from-port="0" to-layer="1283" to-port="1"/>
		<edge from-layer="1283" from-port="2" to-layer="1285" to-port="0"/>
		<edge from-layer="1284" from-port="0" to-layer="1285" to-port="1"/>
		<edge from-layer="1285" from-port="2" to-layer="1286" to-port="0"/>
		<edge from-layer="1286" from-port="1" to-layer="1289" to-port="0"/>
		<edge from-layer="1287" from-port="0" to-layer="1289" to-port="1"/>
		<edge from-layer="1288" from-port="0" to-layer="1289" to-port="2"/>
		<edge from-layer="1289" from-port="3" to-layer="1292" to-port="0"/>
		<edge from-layer="1289" from-port="4" to-layer="1299" to-port="0"/>
		<edge from-layer="1289" from-port="4" to-layer="1290" to-port="1"/>
		<edge from-layer="1290" from-port="2" to-layer="1291" to-port="0"/>
		<edge from-layer="1291" from-port="2" to-layer="1300" to-port="0"/>
		<edge from-layer="1292" from-port="2" to-layer="1293" to-port="1"/>
		<edge from-layer="1293" from-port="2" to-layer="1295" to-port="0"/>
		<edge from-layer="1294" from-port="0" to-layer="1295" to-port="1"/>
		<edge from-layer="1295" from-port="2" to-layer="1297" to-port="0"/>
		<edge from-layer="1296" from-port="0" to-layer="1297" to-port="1"/>
		<edge from-layer="1297" from-port="2" to-layer="1298" to-port="0"/>
		<edge from-layer="1298" from-port="1" to-layer="1299" to-port="1"/>
		<edge from-layer="1299" from-port="2" to-layer="1300" to-port="1"/>
		<edge from-layer="1300" from-port="2" to-layer="1611" to-port="0"/>
		<edge from-layer="1300" from-port="2" to-layer="1301" to-port="1"/>
		<edge from-layer="1301" from-port="2" to-layer="1316" to-port="0"/>
		<edge from-layer="1301" from-port="2" to-layer="1302" to-port="0"/>
		<edge from-layer="1302" from-port="1" to-layer="1303" to-port="0"/>
		<edge from-layer="1303" from-port="1" to-layer="1305" to-port="0"/>
		<edge from-layer="1304" from-port="0" to-layer="1305" to-port="1"/>
		<edge from-layer="1305" from-port="2" to-layer="1307" to-port="0"/>
		<edge from-layer="1306" from-port="0" to-layer="1307" to-port="1"/>
		<edge from-layer="1307" from-port="2" to-layer="1308" to-port="0"/>
		<edge from-layer="1308" from-port="1" to-layer="1309" to-port="0"/>
		<edge from-layer="1309" from-port="1" to-layer="1313" to-port="0"/>
		<edge from-layer="1310" from-port="0" to-layer="1313" to-port="1"/>
		<edge from-layer="1311" from-port="0" to-layer="1313" to-port="2"/>
		<edge from-layer="1312" from-port="0" to-layer="1313" to-port="3"/>
		<edge from-layer="1313" from-port="4" to-layer="1316" to-port="1"/>
		<edge from-layer="1314" from-port="0" to-layer="1316" to-port="2"/>
		<edge from-layer="1315" from-port="0" to-layer="1316" to-port="3"/>
		<edge from-layer="1316" from-port="4" to-layer="1334" to-port="0"/>
		<edge from-layer="1317" from-port="0" to-layer="1334" to-port="1"/>
		<edge from-layer="1318" from-port="0" to-layer="1332" to-port="0"/>
		<edge from-layer="1319" from-port="0" to-layer="1332" to-port="1"/>
		<edge from-layer="1320" from-port="1" to-layer="1324" to-port="0"/>
		<edge from-layer="1321" from-port="0" to-layer="1324" to-port="1"/>
		<edge from-layer="1322" from-port="0" to-layer="1324" to-port="2"/>
		<edge from-layer="1323" from-port="0" to-layer="1324" to-port="3"/>
		<edge from-layer="1324" from-port="4" to-layer="1325" to-port="0"/>
		<edge from-layer="1325" from-port="1" to-layer="1331" to-port="0"/>
		<edge from-layer="1325" from-port="1" to-layer="1328" to-port="0"/>
		<edge from-layer="1326" from-port="0" to-layer="1328" to-port="1"/>
		<edge from-layer="1327" from-port="0" to-layer="1328" to-port="2"/>
		<edge from-layer="1328" from-port="3" to-layer="1332" to-port="2"/>
		<edge from-layer="1329" from-port="0" to-layer="1331" to-port="1"/>
		<edge from-layer="1330" from-port="0" to-layer="1331" to-port="2"/>
		<edge from-layer="1331" from-port="3" to-layer="1332" to-port="3"/>
		<edge from-layer="1332" from-port="4" to-layer="1334" to-port="2"/>
		<edge from-layer="1333" from-port="0" to-layer="1334" to-port="3"/>
		<edge from-layer="1334" from-port="4" to-layer="1335" to-port="0"/>
		<edge from-layer="1335" from-port="2" to-layer="1337" to-port="0"/>
		<edge from-layer="1335" from-port="2" to-layer="1344" to-port="0"/>
		<edge from-layer="1335" from-port="2" to-layer="1350" to-port="0"/>
		<edge from-layer="1335" from-port="2" to-layer="1372" to-port="0"/>
		<edge from-layer="1335" from-port="2" to-layer="1343" to-port="0"/>
		<edge from-layer="1336" from-port="0" to-layer="1342" to-port="0"/>
		<edge from-layer="1337" from-port="1" to-layer="1338" to-port="0"/>
		<edge from-layer="1338" from-port="1" to-layer="1340" to-port="0"/>
		<edge from-layer="1339" from-port="0" to-layer="1340" to-port="1"/>
		<edge from-layer="1340" from-port="2" to-layer="1342" to-port="1"/>
		<edge from-layer="1341" from-port="0" to-layer="1342" to-port="2"/>
		<edge from-layer="1342" from-port="3" to-layer="1343" to-port="1"/>
		<edge from-layer="1343" from-port="2" to-layer="1357" to-port="0"/>
		<edge from-layer="1344" from-port="1" to-layer="1347" to-port="0"/>
		<edge from-layer="1345" from-port="0" to-layer="1347" to-port="1"/>
		<edge from-layer="1346" from-port="0" to-layer="1347" to-port="2"/>
		<edge from-layer="1347" from-port="3" to-layer="1365" to-port="0"/>
		<edge from-layer="1347" from-port="3" to-layer="1349" to-port="0"/>
		<edge from-layer="1348" from-port="0" to-layer="1349" to-port="1"/>
		<edge from-layer="1349" from-port="2" to-layer="1356" to-port="0"/>
		<edge from-layer="1350" from-port="1" to-layer="1353" to-port="0"/>
		<edge from-layer="1351" from-port="0" to-layer="1353" to-port="1"/>
		<edge from-layer="1352" from-port="0" to-layer="1353" to-port="2"/>
		<edge from-layer="1353" from-port="3" to-layer="1367" to-port="0"/>
		<edge from-layer="1353" from-port="3" to-layer="1355" to-port="0"/>
		<edge from-layer="1354" from-port="0" to-layer="1355" to-port="1"/>
		<edge from-layer="1355" from-port="2" to-layer="1356" to-port="1"/>
		<edge from-layer="1356" from-port="2" to-layer="1357" to-port="1"/>
		<edge from-layer="1357" from-port="2" to-layer="1359" to-port="0"/>
		<edge from-layer="1358" from-port="0" to-layer="1359" to-port="1"/>
		<edge from-layer="1359" from-port="2" to-layer="1360" to-port="0"/>
		<edge from-layer="1360" from-port="1" to-layer="1362" to-port="0"/>
		<edge from-layer="1361" from-port="0" to-layer="1362" to-port="1"/>
		<edge from-layer="1362" from-port="2" to-layer="1363" to-port="0"/>
		<edge from-layer="1363" from-port="1" to-layer="1371" to-port="0"/>
		<edge from-layer="1364" from-port="0" to-layer="1365" to-port="1"/>
		<edge from-layer="1365" from-port="2" to-layer="1370" to-port="0"/>
		<edge from-layer="1366" from-port="0" to-layer="1367" to-port="1"/>
		<edge from-layer="1367" from-port="2" to-layer="1370" to-port="1"/>
		<edge from-layer="1368" from-port="0" to-layer="1370" to-port="2"/>
		<edge from-layer="1369" from-port="0" to-layer="1370" to-port="3"/>
		<edge from-layer="1370" from-port="4" to-layer="1371" to-port="1"/>
		<edge from-layer="1371" from-port="2" to-layer="1372" to-port="1"/>
		<edge from-layer="1372" from-port="2" to-layer="1384" to-port="0"/>
		<edge from-layer="1372" from-port="2" to-layer="1374" to-port="0"/>
		<edge from-layer="1373" from-port="0" to-layer="1374" to-port="1"/>
		<edge from-layer="1374" from-port="2" to-layer="1376" to-port="0"/>
		<edge from-layer="1375" from-port="0" to-layer="1376" to-port="1"/>
		<edge from-layer="1376" from-port="2" to-layer="1377" to-port="0"/>
		<edge from-layer="1377" from-port="1" to-layer="1379" to-port="0"/>
		<edge from-layer="1378" from-port="0" to-layer="1379" to-port="1"/>
		<edge from-layer="1379" from-port="2" to-layer="1381" to-port="0"/>
		<edge from-layer="1380" from-port="0" to-layer="1381" to-port="1"/>
		<edge from-layer="1381" from-port="2" to-layer="1382" to-port="0"/>
		<edge from-layer="1382" from-port="1" to-layer="1439" to-port="0"/>
		<edge from-layer="1383" from-port="0" to-layer="1384" to-port="1"/>
		<edge from-layer="1384" from-port="2" to-layer="1386" to-port="0"/>
		<edge from-layer="1385" from-port="0" to-layer="1386" to-port="1"/>
		<edge from-layer="1386" from-port="2" to-layer="1387" to-port="0"/>
		<edge from-layer="1387" from-port="1" to-layer="1389" to-port="0"/>
		<edge from-layer="1387" from-port="1" to-layer="1402" to-port="0"/>
		<edge from-layer="1387" from-port="1" to-layer="1392" to-port="0"/>
		<edge from-layer="1387" from-port="1" to-layer="1432" to-port="0"/>
		<edge from-layer="1387" from-port="1" to-layer="1408" to-port="0"/>
		<edge from-layer="1388" from-port="0" to-layer="1389" to-port="1"/>
		<edge from-layer="1389" from-port="2" to-layer="1391" to-port="0"/>
		<edge from-layer="1390" from-port="0" to-layer="1391" to-port="1"/>
		<edge from-layer="1391" from-port="2" to-layer="1433" to-port="0"/>
		<edge from-layer="1392" from-port="1" to-layer="1394" to-port="0"/>
		<edge from-layer="1393" from-port="0" to-layer="1394" to-port="1"/>
		<edge from-layer="1394" from-port="2" to-layer="1396" to-port="0"/>
		<edge from-layer="1395" from-port="0" to-layer="1396" to-port="1"/>
		<edge from-layer="1396" from-port="2" to-layer="1421" to-port="0"/>
		<edge from-layer="1396" from-port="2" to-layer="1397" to-port="0"/>
		<edge from-layer="1396" from-port="2" to-layer="1431" to-port="0"/>
		<edge from-layer="1397" from-port="1" to-layer="1401" to-port="0"/>
		<edge from-layer="1398" from-port="0" to-layer="1401" to-port="1"/>
		<edge from-layer="1399" from-port="0" to-layer="1401" to-port="2"/>
		<edge from-layer="1400" from-port="0" to-layer="1401" to-port="3"/>
		<edge from-layer="1401" from-port="4" to-layer="1415" to-port="0"/>
		<edge from-layer="1402" from-port="1" to-layer="1405" to-port="0"/>
		<edge from-layer="1403" from-port="0" to-layer="1405" to-port="1"/>
		<edge from-layer="1404" from-port="0" to-layer="1405" to-port="2"/>
		<edge from-layer="1405" from-port="3" to-layer="1407" to-port="0"/>
		<edge from-layer="1406" from-port="0" to-layer="1407" to-port="1"/>
		<edge from-layer="1407" from-port="2" to-layer="1414" to-port="0"/>
		<edge from-layer="1408" from-port="1" to-layer="1411" to-port="0"/>
		<edge from-layer="1409" from-port="0" to-layer="1411" to-port="1"/>
		<edge from-layer="1410" from-port="0" to-layer="1411" to-port="2"/>
		<edge from-layer="1411" from-port="3" to-layer="1413" to-port="0"/>
		<edge from-layer="1412" from-port="0" to-layer="1413" to-port="1"/>
		<edge from-layer="1413" from-port="2" to-layer="1414" to-port="1"/>
		<edge from-layer="1414" from-port="2" to-layer="1415" to-port="1"/>
		<edge from-layer="1415" from-port="2" to-layer="1420" to-port="0"/>
		<edge from-layer="1415" from-port="2" to-layer="1419" to-port="0"/>
		<edge from-layer="1416" from-port="0" to-layer="1419" to-port="1"/>
		<edge from-layer="1417" from-port="0" to-layer="1419" to-port="2"/>
		<edge from-layer="1418" from-port="0" to-layer="1419" to-port="3"/>
		<edge from-layer="1419" from-port="4" to-layer="1431" to-port="1"/>
		<edge from-layer="1420" from-port="1" to-layer="1423" to-port="0"/>
		<edge from-layer="1421" from-port="1" to-layer="1422" to-port="0"/>
		<edge from-layer="1422" from-port="1" to-layer="1423" to-port="1"/>
		<edge from-layer="1423" from-port="2" to-layer="1425" to-port="0"/>
		<edge from-layer="1424" from-port="0" to-layer="1425" to-port="1"/>
		<edge from-layer="1425" from-port="2" to-layer="1429" to-port="0"/>
		<edge from-layer="1426" from-port="0" to-layer="1429" to-port="1"/>
		<edge from-layer="1427" from-port="0" to-layer="1429" to-port="2"/>
		<edge from-layer="1428" from-port="0" to-layer="1429" to-port="3"/>
		<edge from-layer="1429" from-port="4" to-layer="1431" to-port="2"/>
		<edge from-layer="1430" from-port="0" to-layer="1431" to-port="3"/>
		<edge from-layer="1431" from-port="4" to-layer="1432" to-port="1"/>
		<edge from-layer="1432" from-port="2" to-layer="1433" to-port="1"/>
		<edge from-layer="1433" from-port="2" to-layer="1435" to-port="0"/>
		<edge from-layer="1434" from-port="0" to-layer="1435" to-port="1"/>
		<edge from-layer="1435" from-port="2" to-layer="1437" to-port="0"/>
		<edge from-layer="1436" from-port="0" to-layer="1437" to-port="1"/>
		<edge from-layer="1437" from-port="2" to-layer="1438" to-port="0"/>
		<edge from-layer="1438" from-port="1" to-layer="1439" to-port="1"/>
		<edge from-layer="1439" from-port="2" to-layer="1441" to-port="0"/>
		<edge from-layer="1440" from-port="0" to-layer="1441" to-port="1"/>
		<edge from-layer="1441" from-port="2" to-layer="1443" to-port="0"/>
		<edge from-layer="1442" from-port="0" to-layer="1443" to-port="1"/>
		<edge from-layer="1443" from-port="2" to-layer="1444" to-port="0"/>
		<edge from-layer="1444" from-port="1" to-layer="1446" to-port="0"/>
		<edge from-layer="1445" from-port="0" to-layer="1446" to-port="1"/>
		<edge from-layer="1446" from-port="2" to-layer="1448" to-port="0"/>
		<edge from-layer="1447" from-port="0" to-layer="1448" to-port="1"/>
		<edge from-layer="1448" from-port="2" to-layer="1449" to-port="0"/>
		<edge from-layer="1449" from-port="1" to-layer="1451" to-port="0"/>
		<edge from-layer="1450" from-port="0" to-layer="1451" to-port="1"/>
		<edge from-layer="1451" from-port="2" to-layer="1453" to-port="0"/>
		<edge from-layer="1452" from-port="0" to-layer="1453" to-port="1"/>
		<edge from-layer="1453" from-port="2" to-layer="1454" to-port="0"/>
		<edge from-layer="1454" from-port="1" to-layer="1456" to-port="0"/>
		<edge from-layer="1454" from-port="1" to-layer="1459" to-port="0"/>
		<edge from-layer="1454" from-port="1" to-layer="1499" to-port="0"/>
		<edge from-layer="1454" from-port="1" to-layer="1475" to-port="0"/>
		<edge from-layer="1454" from-port="1" to-layer="1469" to-port="0"/>
		<edge from-layer="1455" from-port="0" to-layer="1456" to-port="1"/>
		<edge from-layer="1456" from-port="2" to-layer="1458" to-port="0"/>
		<edge from-layer="1457" from-port="0" to-layer="1458" to-port="1"/>
		<edge from-layer="1458" from-port="2" to-layer="1500" to-port="0"/>
		<edge from-layer="1459" from-port="1" to-layer="1461" to-port="0"/>
		<edge from-layer="1460" from-port="0" to-layer="1461" to-port="1"/>
		<edge from-layer="1461" from-port="2" to-layer="1463" to-port="0"/>
		<edge from-layer="1462" from-port="0" to-layer="1463" to-port="1"/>
		<edge from-layer="1463" from-port="2" to-layer="1464" to-port="0"/>
		<edge from-layer="1463" from-port="2" to-layer="1488" to-port="0"/>
		<edge from-layer="1463" from-port="2" to-layer="1498" to-port="0"/>
		<edge from-layer="1464" from-port="1" to-layer="1468" to-port="0"/>
		<edge from-layer="1465" from-port="0" to-layer="1468" to-port="1"/>
		<edge from-layer="1466" from-port="0" to-layer="1468" to-port="2"/>
		<edge from-layer="1467" from-port="0" to-layer="1468" to-port="3"/>
		<edge from-layer="1468" from-port="4" to-layer="1482" to-port="0"/>
		<edge from-layer="1469" from-port="1" to-layer="1472" to-port="0"/>
		<edge from-layer="1470" from-port="0" to-layer="1472" to-port="1"/>
		<edge from-layer="1471" from-port="0" to-layer="1472" to-port="2"/>
		<edge from-layer="1472" from-port="3" to-layer="1474" to-port="0"/>
		<edge from-layer="1473" from-port="0" to-layer="1474" to-port="1"/>
		<edge from-layer="1474" from-port="2" to-layer="1481" to-port="0"/>
		<edge from-layer="1475" from-port="1" to-layer="1478" to-port="0"/>
		<edge from-layer="1476" from-port="0" to-layer="1478" to-port="1"/>
		<edge from-layer="1477" from-port="0" to-layer="1478" to-port="2"/>
		<edge from-layer="1478" from-port="3" to-layer="1480" to-port="0"/>
		<edge from-layer="1479" from-port="0" to-layer="1480" to-port="1"/>
		<edge from-layer="1480" from-port="2" to-layer="1481" to-port="1"/>
		<edge from-layer="1481" from-port="2" to-layer="1482" to-port="1"/>
		<edge from-layer="1482" from-port="2" to-layer="1487" to-port="0"/>
		<edge from-layer="1482" from-port="2" to-layer="1486" to-port="0"/>
		<edge from-layer="1483" from-port="0" to-layer="1486" to-port="1"/>
		<edge from-layer="1484" from-port="0" to-layer="1486" to-port="2"/>
		<edge from-layer="1485" from-port="0" to-layer="1486" to-port="3"/>
		<edge from-layer="1486" from-port="4" to-layer="1498" to-port="1"/>
		<edge from-layer="1487" from-port="1" to-layer="1490" to-port="0"/>
		<edge from-layer="1488" from-port="1" to-layer="1489" to-port="0"/>
		<edge from-layer="1489" from-port="1" to-layer="1490" to-port="1"/>
		<edge from-layer="1490" from-port="2" to-layer="1492" to-port="0"/>
		<edge from-layer="1491" from-port="0" to-layer="1492" to-port="1"/>
		<edge from-layer="1492" from-port="2" to-layer="1496" to-port="0"/>
		<edge from-layer="1493" from-port="0" to-layer="1496" to-port="1"/>
		<edge from-layer="1494" from-port="0" to-layer="1496" to-port="2"/>
		<edge from-layer="1495" from-port="0" to-layer="1496" to-port="3"/>
		<edge from-layer="1496" from-port="4" to-layer="1498" to-port="2"/>
		<edge from-layer="1497" from-port="0" to-layer="1498" to-port="3"/>
		<edge from-layer="1498" from-port="4" to-layer="1499" to-port="1"/>
		<edge from-layer="1499" from-port="2" to-layer="1500" to-port="1"/>
		<edge from-layer="1500" from-port="2" to-layer="1502" to-port="0"/>
		<edge from-layer="1501" from-port="0" to-layer="1502" to-port="1"/>
		<edge from-layer="1502" from-port="2" to-layer="1504" to-port="0"/>
		<edge from-layer="1503" from-port="0" to-layer="1504" to-port="1"/>
		<edge from-layer="1504" from-port="2" to-layer="1527" to-port="2"/>
		<edge from-layer="1504" from-port="2" to-layer="1506" to-port="0"/>
		<edge from-layer="1505" from-port="0" to-layer="1506" to-port="1"/>
		<edge from-layer="1506" from-port="2" to-layer="1508" to-port="0"/>
		<edge from-layer="1507" from-port="0" to-layer="1508" to-port="1"/>
		<edge from-layer="1508" from-port="2" to-layer="1511" to-port="0"/>
		<edge from-layer="1509" from-port="0" to-layer="1511" to-port="1"/>
		<edge from-layer="1510" from-port="0" to-layer="1511" to-port="2"/>
		<edge from-layer="1511" from-port="4" to-layer="1512" to-port="1"/>
		<edge from-layer="1511" from-port="3" to-layer="1512" to-port="0"/>
		<edge from-layer="1512" from-port="2" to-layer="1519" to-port="0"/>
		<edge from-layer="1512" from-port="2" to-layer="1513" to-port="1"/>
		<edge from-layer="1513" from-port="2" to-layer="1515" to-port="0"/>
		<edge from-layer="1514" from-port="0" to-layer="1515" to-port="1"/>
		<edge from-layer="1515" from-port="2" to-layer="1521" to-port="0"/>
		<edge from-layer="1516" from-port="0" to-layer="1517" to-port="1"/>
		<edge from-layer="1517" from-port="2" to-layer="1520" to-port="0"/>
		<edge from-layer="1517" from-port="2" to-layer="1573" to-port="1"/>
		<edge from-layer="1517" from-port="2" to-layer="1525" to-port="0"/>
		<edge from-layer="1517" from-port="2" to-layer="1525" to-port="1"/>
		<edge from-layer="1518" from-port="0" to-layer="1519" to-port="1"/>
		<edge from-layer="1519" from-port="2" to-layer="1520" to-port="1"/>
		<edge from-layer="1519" from-port="2" to-layer="1574" to-port="0"/>
		<edge from-layer="1520" from-port="2" to-layer="1521" to-port="1"/>
		<edge from-layer="1521" from-port="2" to-layer="1527" to-port="0"/>
		<edge from-layer="1522" from-port="2" to-layer="1524" to-port="0"/>
		<edge from-layer="1523" from-port="0" to-layer="1524" to-port="1"/>
		<edge from-layer="1524" from-port="2" to-layer="1526" to-port="0"/>
		<edge from-layer="1525" from-port="2" to-layer="1526" to-port="1"/>
		<edge from-layer="1526" from-port="2" to-layer="1527" to-port="1"/>
		<edge from-layer="1527" from-port="3" to-layer="1529" to-port="0"/>
		<edge from-layer="1528" from-port="0" to-layer="1529" to-port="1"/>
		<edge from-layer="1529" from-port="2" to-layer="1531" to-port="0"/>
		<edge from-layer="1530" from-port="0" to-layer="1531" to-port="1"/>
		<edge from-layer="1531" from-port="2" to-layer="1532" to-port="0"/>
		<edge from-layer="1532" from-port="1" to-layer="1534" to-port="0"/>
		<edge from-layer="1533" from-port="0" to-layer="1534" to-port="1"/>
		<edge from-layer="1534" from-port="2" to-layer="1536" to-port="0"/>
		<edge from-layer="1535" from-port="0" to-layer="1536" to-port="1"/>
		<edge from-layer="1536" from-port="2" to-layer="1537" to-port="0"/>
		<edge from-layer="1537" from-port="1" to-layer="1539" to-port="0"/>
		<edge from-layer="1538" from-port="0" to-layer="1539" to-port="1"/>
		<edge from-layer="1539" from-port="2" to-layer="1541" to-port="0"/>
		<edge from-layer="1540" from-port="0" to-layer="1541" to-port="1"/>
		<edge from-layer="1541" from-port="2" to-layer="1542" to-port="0"/>
		<edge from-layer="1541" from-port="2" to-layer="1573" to-port="0"/>
		<edge from-layer="1541" from-port="2" to-layer="1568" to-port="0"/>
		<edge from-layer="1541" from-port="2" to-layer="1558" to-port="0"/>
		<edge from-layer="1542" from-port="1" to-layer="1546" to-port="0"/>
		<edge from-layer="1543" from-port="0" to-layer="1546" to-port="1"/>
		<edge from-layer="1544" from-port="0" to-layer="1546" to-port="2"/>
		<edge from-layer="1545" from-port="0" to-layer="1546" to-port="3"/>
		<edge from-layer="1546" from-port="4" to-layer="1552" to-port="0"/>
		<edge from-layer="1547" from-port="1" to-layer="1551" to-port="0"/>
		<edge from-layer="1548" from-port="0" to-layer="1551" to-port="1"/>
		<edge from-layer="1549" from-port="0" to-layer="1551" to-port="2"/>
		<edge from-layer="1550" from-port="0" to-layer="1551" to-port="3"/>
		<edge from-layer="1551" from-port="4" to-layer="1552" to-port="1"/>
		<edge from-layer="1552" from-port="2" to-layer="1556" to-port="0"/>
		<edge from-layer="1552" from-port="2" to-layer="1557" to-port="0"/>
		<edge from-layer="1553" from-port="0" to-layer="1556" to-port="1"/>
		<edge from-layer="1554" from-port="0" to-layer="1556" to-port="2"/>
		<edge from-layer="1555" from-port="0" to-layer="1556" to-port="3"/>
		<edge from-layer="1556" from-port="4" to-layer="1568" to-port="1"/>
		<edge from-layer="1557" from-port="1" to-layer="1560" to-port="0"/>
		<edge from-layer="1558" from-port="1" to-layer="1559" to-port="0"/>
		<edge from-layer="1559" from-port="1" to-layer="1560" to-port="1"/>
		<edge from-layer="1560" from-port="2" to-layer="1562" to-port="0"/>
		<edge from-layer="1561" from-port="0" to-layer="1562" to-port="1"/>
		<edge from-layer="1562" from-port="2" to-layer="1566" to-port="0"/>
		<edge from-layer="1563" from-port="0" to-layer="1566" to-port="1"/>
		<edge from-layer="1564" from-port="0" to-layer="1566" to-port="2"/>
		<edge from-layer="1565" from-port="0" to-layer="1566" to-port="3"/>
		<edge from-layer="1566" from-port="4" to-layer="1568" to-port="2"/>
		<edge from-layer="1567" from-port="0" to-layer="1568" to-port="3"/>
		<edge from-layer="1568" from-port="4" to-layer="1572" to-port="0"/>
		<edge from-layer="1569" from-port="0" to-layer="1570" to-port="1"/>
		<edge from-layer="1570" from-port="2" to-layer="1571" to-port="1"/>
		<edge from-layer="1571" from-port="2" to-layer="1572" to-port="1"/>
		<edge from-layer="1572" from-port="2" to-layer="1602" to-port="0"/>
		<edge from-layer="1573" from-port="2" to-layer="1574" to-port="1"/>
		<edge from-layer="1574" from-port="2" to-layer="1575" to-port="0"/>
		<edge from-layer="1574" from-port="2" to-layer="1591" to-port="0"/>
		<edge from-layer="1574" from-port="2" to-layer="1601" to-port="0"/>
		<edge from-layer="1575" from-port="1" to-layer="1579" to-port="0"/>
		<edge from-layer="1576" from-port="0" to-layer="1579" to-port="1"/>
		<edge from-layer="1577" from-port="0" to-layer="1579" to-port="2"/>
		<edge from-layer="1578" from-port="0" to-layer="1579" to-port="3"/>
		<edge from-layer="1579" from-port="4" to-layer="1585" to-port="0"/>
		<edge from-layer="1580" from-port="1" to-layer="1584" to-port="0"/>
		<edge from-layer="1581" from-port="0" to-layer="1584" to-port="1"/>
		<edge from-layer="1582" from-port="0" to-layer="1584" to-port="2"/>
		<edge from-layer="1583" from-port="0" to-layer="1584" to-port="3"/>
		<edge from-layer="1584" from-port="4" to-layer="1585" to-port="1"/>
		<edge from-layer="1585" from-port="2" to-layer="1589" to-port="0"/>
		<edge from-layer="1585" from-port="2" to-layer="1590" to-port="0"/>
		<edge from-layer="1586" from-port="0" to-layer="1589" to-port="1"/>
		<edge from-layer="1587" from-port="0" to-layer="1589" to-port="2"/>
		<edge from-layer="1588" from-port="0" to-layer="1589" to-port="3"/>
		<edge from-layer="1589" from-port="4" to-layer="1601" to-port="1"/>
		<edge from-layer="1590" from-port="1" to-layer="1593" to-port="0"/>
		<edge from-layer="1591" from-port="1" to-layer="1592" to-port="0"/>
		<edge from-layer="1592" from-port="1" to-layer="1593" to-port="1"/>
		<edge from-layer="1593" from-port="2" to-layer="1595" to-port="0"/>
		<edge from-layer="1594" from-port="0" to-layer="1595" to-port="1"/>
		<edge from-layer="1595" from-port="2" to-layer="1599" to-port="0"/>
		<edge from-layer="1596" from-port="0" to-layer="1599" to-port="1"/>
		<edge from-layer="1597" from-port="0" to-layer="1599" to-port="2"/>
		<edge from-layer="1598" from-port="0" to-layer="1599" to-port="3"/>
		<edge from-layer="1599" from-port="4" to-layer="1601" to-port="2"/>
		<edge from-layer="1600" from-port="0" to-layer="1601" to-port="3"/>
		<edge from-layer="1601" from-port="4" to-layer="1602" to-port="1"/>
		<edge from-layer="1602" from-port="2" to-layer="1605" to-port="0"/>
		<edge from-layer="1603" from-port="0" to-layer="1605" to-port="1"/>
		<edge from-layer="1604" from-port="0" to-layer="1605" to-port="2"/>
		<edge from-layer="1605" from-port="4" to-layer="1606" to-port="0"/>
		<edge from-layer="1605" from-port="3" to-layer="1608" to-port="0"/>
		<edge from-layer="1606" from-port="1" to-layer="1607" to-port="0"/>
		<edge from-layer="1608" from-port="2" to-layer="1609" to-port="0"/>
		<edge from-layer="1609" from-port="1" to-layer="1610" to-port="0"/>
	</edges>
	<meta_data>
		<MO_version value="2021.4.2-3974-e2a469a3450-releases/2021/4"/>
		<cli_parameters>
			<data_type value="float"/>
			<disable_resnet_optimization value="False"/>
			<disable_weights_compression value="False"/>
			<enable_concat_optimization value="False"/>
			<extensions value="DIR"/>
			<framework value="onnx"/>
			<freeze_placeholder_with_value value="{}"/>
			<generate_deprecated_IR_V7 value="False"/>
			<input_model value="DIR\epoch-8.onnx"/>
			<keep_shape_ops value="True"/>
			<legacy_ir_generation value="False"/>
			<log_level value="ERROR"/>
			<mean_scale_values value="{}"/>
			<mean_values value="()"/>
			<model_name value="epoch-8"/>
			<output_dir value="DIR"/>
			<placeholder_data_types value="{}"/>
			<progress value="False"/>
			<reverse_input_channels value="False"/>
			<scale_values value="()"/>
			<silent value="False"/>
			<static_shape value="False"/>
			<stream_output value="False"/>
			<transform value=""/>
			<unset unset_cli_parameters="batch, disable_fusing, disable_gfusing, finegrain_fusing, input, input_shape, move_to_preprocess, output, placeholder_shapes, scale, transformations_config"/>
		</cli_parameters>
	</meta_data>
</net>
