<?xml version="1.0" ?>
<net name="automatic_5_resetri" version="10">
	<layers>
		<layer id="0" name="4" type="Parameter" version="opset1">
			<data shape="1,64,6,10" element_type="f32"/>
			<output>
				<port id="0" precision="FP32" names="4">
					<dim>1</dim>
					<dim>64</dim>
					<dim>6</dim>
					<dim>10</dim>
				</port>
			</output>
		</layer>
		<layer id="1" name="1082" type="Const" version="opset1">
			<data offset="0" size="491520" shape="128,960,1,1" element_type="f32"/>
			<output>
				<port id="0" precision="FP32" names="1082">
					<dim>128</dim>
					<dim>960</dim>
					<dim>1</dim>
					<dim>1</dim>
				</port>
			</output>
		</layer>
		<layer id="2" name="1079" type="Const" version="opset1">
			<data offset="491520" size="614400" shape="960,160,1,1" element_type="f32"/>
			<output>
				<port id="0" precision="FP32" names="1079">
					<dim>960</dim>
					<dim>160</dim>
					<dim>1</dim>
					<dim>1</dim>
				</port>
			</output>
		</layer>
		<layer id="3" name="1058" type="Const" version="opset1">
			<data offset="1105920" size="430080" shape="160,672,1,1" element_type="f32"/>
			<output>
				<port id="0" precision="FP32" names="1058">
					<dim>160</dim>
					<dim>672</dim>
					<dim>1</dim>
					<dim>1</dim>
				</port>
			</output>
		</layer>
		<layer id="4" name="1052" type="Const" version="opset1">
			<data offset="1536000" size="301056" shape="672,112,1,1" element_type="f32"/>
			<output>
				<port id="0" precision="FP32" names="1052">
					<dim>672</dim>
					<dim>112</dim>
					<dim>1</dim>
					<dim>1</dim>
				</port>
			</output>
		</layer>
		<layer id="5" name="1049" type="Const" version="opset1">
			<data offset="1837056" size="301056" shape="112,672,1,1" element_type="f32"/>
			<output>
				<port id="0" precision="FP32" names="1049">
					<dim>112</dim>
					<dim>672</dim>
					<dim>1</dim>
					<dim>1</dim>
				</port>
			</output>
		</layer>
		<layer id="6" name="1043" type="Const" version="opset1">
			<data offset="2138112" size="301056" shape="672,112,1,1" element_type="f32"/>
			<output>
				<port id="0" precision="FP32" names="1043">
					<dim>672</dim>
					<dim>112</dim>
					<dim>1</dim>
					<dim>1</dim>
				</port>
			</output>
		</layer>
		<layer id="7" name="1040" type="Const" version="opset1">
			<data offset="2439168" size="215040" shape="112,480,1,1" element_type="f32"/>
			<output>
				<port id="0" precision="FP32" names="1040">
					<dim>112</dim>
					<dim>480</dim>
					<dim>1</dim>
					<dim>1</dim>
				</port>
			</output>
		</layer>
		<layer id="8" name="1034" type="Const" version="opset1">
			<data offset="2654208" size="153600" shape="480,80,1,1" element_type="f32"/>
			<output>
				<port id="0" precision="FP32" names="1034">
					<dim>480</dim>
					<dim>80</dim>
					<dim>1</dim>
					<dim>1</dim>
				</port>
			</output>
		</layer>
		<layer id="9" name="1013" type="Const" version="opset1">
			<data offset="2807808" size="64000" shape="80,200,1,1" element_type="f32"/>
			<output>
				<port id="0" precision="FP32" names="1013">
					<dim>80</dim>
					<dim>200</dim>
					<dim>1</dim>
					<dim>1</dim>
				</port>
			</output>
		</layer>
		<layer id="10" name="1007" type="Const" version="opset1">
			<data offset="2871808" size="64000" shape="200,80,1,1" element_type="f32"/>
			<output>
				<port id="0" precision="FP32" names="1007">
					<dim>200</dim>
					<dim>80</dim>
					<dim>1</dim>
					<dim>1</dim>
				</port>
			</output>
		</layer>
		<layer id="11" name="1004" type="Const" version="opset1">
			<data offset="2935808" size="76800" shape="80,240,1,1" element_type="f32"/>
			<output>
				<port id="0" precision="FP32" names="1004">
					<dim>80</dim>
					<dim>240</dim>
					<dim>1</dim>
					<dim>1</dim>
				</port>
			</output>
		</layer>
		<layer id="12" name="998" type="Const" version="opset1">
			<data offset="3012608" size="38400" shape="240,40,1,1" element_type="f32"/>
			<output>
				<port id="0" precision="FP32" names="998">
					<dim>240</dim>
					<dim>40</dim>
					<dim>1</dim>
					<dim>1</dim>
				</port>
			</output>
		</layer>
		<layer id="13" name="977" type="Const" version="opset1">
			<data offset="3051008" size="11520" shape="40,72,1,1" element_type="f32"/>
			<output>
				<port id="0" precision="FP32" names="977">
					<dim>40</dim>
					<dim>72</dim>
					<dim>1</dim>
					<dim>1</dim>
				</port>
			</output>
		</layer>
		<layer id="14" name="971" type="Const" version="opset1">
			<data offset="3062528" size="6912" shape="72,24,1,1" element_type="f32"/>
			<output>
				<port id="0" precision="FP32" names="971">
					<dim>72</dim>
					<dim>24</dim>
					<dim>1</dim>
					<dim>1</dim>
				</port>
			</output>
		</layer>
		<layer id="15" name="959" type="Const" version="opset1">
			<data offset="3069440" size="6144" shape="24,64,1,1" element_type="f32"/>
			<output>
				<port id="0" precision="FP32" names="959">
					<dim>24</dim>
					<dim>64</dim>
					<dim>1</dim>
					<dim>1</dim>
				</port>
			</output>
		</layer>
		<layer id="16" name="953" type="Const" version="opset1">
			<data offset="3075584" size="4096" shape="64,16,1,1" element_type="f32"/>
			<output>
				<port id="0" precision="FP32" names="953">
					<dim>64</dim>
					<dim>16</dim>
					<dim>1</dim>
					<dim>1</dim>
				</port>
			</output>
		</layer>
		<layer id="17" name="944" type="Const" version="opset1">
			<data offset="3079680" size="1728" shape="16,3,3,3" element_type="f32"/>
			<output>
				<port id="0" precision="FP32" names="944">
					<dim>16</dim>
					<dim>3</dim>
					<dim>3</dim>
					<dim>3</dim>
				</port>
			</output>
		</layer>
		<layer id="18" name="Resize_1/axis560132916" type="Const" version="opset1">
			<data offset="3081408" size="16" shape="2" element_type="i64"/>
			<output>
				<port id="0" precision="I64">
					<dim>2</dim>
				</port>
			</output>
		</layer>
		<layer id="19" name="Resize_1/StridedSlice_scales561731941" type="Const" version="opset1">
			<data offset="3081424" size="8" shape="2" element_type="f32"/>
			<output>
				<port id="0" precision="FP32">
					<dim>2</dim>
				</port>
			</output>
		</layer>
		<layer id="20" name="src" type="Parameter" version="opset1">
			<data shape="1,3,180,320" element_type="f32"/>
			<output>
				<port id="0" precision="FP32" names="src">
					<dim>1</dim>
					<dim>3</dim>
					<dim>180</dim>
					<dim>320</dim>
				</port>
			</output>
		</layer>
		<layer id="21" name="Resize_1/Add_input_port_1/value560532634" type="Const" version="opset1">
			<data offset="3081432" size="4" shape="1" element_type="f32"/>
			<output>
				<port id="0" precision="FP32">
					<dim>1</dim>
				</port>
			</output>
		</layer>
		<layer id="22" name="Resize_1/ShapeOf" type="ShapeOf" version="opset3">
			<data output_type="i64"/>
			<input>
				<port id="0">
					<dim>1</dim>
					<dim>3</dim>
					<dim>180</dim>
					<dim>320</dim>
				</port>
			</input>
			<output>
				<port id="1" precision="I64">
					<dim>4</dim>
				</port>
			</output>
		</layer>
		<layer id="23" name="5606" type="Convert" version="opset1">
			<data destination_type="f32"/>
			<input>
				<port id="0">
					<dim>4</dim>
				</port>
			</input>
			<output>
				<port id="1" precision="FP32">
					<dim>4</dim>
				</port>
			</output>
		</layer>
		<layer id="24" name="1105" type="Const" version="opset1">
			<data offset="3081436" size="16" shape="4" element_type="f32"/>
			<output>
				<port id="0" precision="FP32" names="1105">
					<dim>4</dim>
				</port>
			</output>
		</layer>
		<layer id="25" name="Resize_1/Mul" type="Multiply" version="opset1">
			<data auto_broadcast="numpy"/>
			<input>
				<port id="0">
					<dim>4</dim>
				</port>
				<port id="1">
					<dim>4</dim>
				</port>
			</input>
			<output>
				<port id="2" precision="FP32">
					<dim>4</dim>
				</port>
			</output>
		</layer>
		<layer id="26" name="Resize_1/Add" type="Add" version="opset1">
			<data auto_broadcast="numpy"/>
			<input>
				<port id="0">
					<dim>4</dim>
				</port>
				<port id="1">
					<dim>1</dim>
				</port>
			</input>
			<output>
				<port id="2" precision="FP32">
					<dim>4</dim>
				</port>
			</output>
		</layer>
		<layer id="27" name="Resize_1/Floor" type="Floor" version="opset1">
			<input>
				<port id="0">
					<dim>4</dim>
				</port>
			</input>
			<output>
				<port id="1" precision="FP32">
					<dim>4</dim>
				</port>
			</output>
		</layer>
		<layer id="28" name="5610" type="Convert" version="opset1">
			<data destination_type="i64"/>
			<input>
				<port id="0">
					<dim>4</dim>
				</port>
			</input>
			<output>
				<port id="1" precision="I64">
					<dim>4</dim>
				</port>
			</output>
		</layer>
		<layer id="29" name="Resize_1/StridedSlice_sizes_input_port_1/value558732100" type="Const" version="opset1">
			<data offset="3081452" size="8" shape="1" element_type="i64"/>
			<output>
				<port id="0" precision="I64">
					<dim>1</dim>
				</port>
			</output>
		</layer>
		<layer id="30" name="Resize_1/StridedSlice_sizes_input_port_2/value558932679" type="Const" version="opset1">
			<data offset="3081460" size="8" shape="1" element_type="i64"/>
			<output>
				<port id="0" precision="I64">
					<dim>1</dim>
				</port>
			</output>
		</layer>
		<layer id="31" name="Resize_1/StridedSlice_sizes_input_port_3/value559132724" type="Const" version="opset1">
			<data offset="3081468" size="8" shape="1" element_type="i64"/>
			<output>
				<port id="0" precision="I64">
					<dim>1</dim>
				</port>
			</output>
		</layer>
		<layer id="32" name="Resize_1/StridedSlice_sizes" type="StridedSlice" version="opset1">
			<data begin_mask="0" end_mask="0" new_axis_mask="0" shrink_axis_mask="0" ellipsis_mask="0"/>
			<input>
				<port id="0">
					<dim>4</dim>
				</port>
				<port id="1">
					<dim>1</dim>
				</port>
				<port id="2">
					<dim>1</dim>
				</port>
				<port id="3">
					<dim>1</dim>
				</port>
			</input>
			<output>
				<port id="4" precision="I64">
					<dim>2</dim>
				</port>
			</output>
		</layer>
		<layer id="33" name="Resize_1" type="Interpolate" version="opset4">
			<data mode="linear_onnx" nearest_mode="floor" cube_coeff="-0.75" coordinate_transformation_mode="pytorch_half_pixel" shape_calculation_mode="scales" antialias="false" pads_begin="0,0,0,0" pads_end="0,0,0,0"/>
			<input>
				<port id="0">
					<dim>1</dim>
					<dim>3</dim>
					<dim>180</dim>
					<dim>320</dim>
				</port>
				<port id="1">
					<dim>2</dim>
				</port>
				<port id="2">
					<dim>2</dim>
				</port>
				<port id="3">
					<dim>2</dim>
				</port>
			</input>
			<output>
				<port id="4" precision="FP32" names="389">
					<dim>1</dim>
					<dim>3</dim>
					<dim>90</dim>
					<dim>160</dim>
				</port>
			</output>
		</layer>
		<layer id="34" name="data_mul_12965" type="Const" version="opset1">
			<data offset="3081476" size="12" shape="1,3,1,1" element_type="f32"/>
			<output>
				<port id="0" precision="FP32">
					<dim>1</dim>
					<dim>3</dim>
					<dim>1</dim>
					<dim>1</dim>
				</port>
			</output>
		</layer>
		<layer id="35" name="Div_5/Fused_Mul_" type="Multiply" version="opset1">
			<data auto_broadcast="numpy"/>
			<input>
				<port id="0">
					<dim>1</dim>
					<dim>3</dim>
					<dim>90</dim>
					<dim>160</dim>
				</port>
				<port id="1">
					<dim>1</dim>
					<dim>3</dim>
					<dim>1</dim>
					<dim>1</dim>
				</port>
			</input>
			<output>
				<port id="2" precision="FP32">
					<dim>1</dim>
					<dim>3</dim>
					<dim>90</dim>
					<dim>160</dim>
				</port>
			</output>
		</layer>
		<layer id="36" name="data_add_12967" type="Const" version="opset1">
			<data offset="3081488" size="12" shape="1,3,1,1" element_type="f32"/>
			<output>
				<port id="0" precision="FP32">
					<dim>1</dim>
					<dim>3</dim>
					<dim>1</dim>
					<dim>1</dim>
				</port>
			</output>
		</layer>
		<layer id="37" name="Sub_3/Fused_Add_" type="Add" version="opset1">
			<data auto_broadcast="numpy"/>
			<input>
				<port id="0">
					<dim>1</dim>
					<dim>3</dim>
					<dim>90</dim>
					<dim>160</dim>
				</port>
				<port id="1">
					<dim>1</dim>
					<dim>3</dim>
					<dim>1</dim>
					<dim>1</dim>
				</port>
			</input>
			<output>
				<port id="2" precision="FP32" names="393">
					<dim>1</dim>
					<dim>3</dim>
					<dim>90</dim>
					<dim>160</dim>
				</port>
			</output>
		</layer>
		<layer id="38" name="Conv_6/WithoutBiases" type="Convolution" version="opset1">
			<data auto_pad="explicit" strides="2,2" dilations="1,1" pads_begin="1,1" pads_end="1,1"/>
			<input>
				<port id="0">
					<dim>1</dim>
					<dim>3</dim>
					<dim>90</dim>
					<dim>160</dim>
				</port>
				<port id="1">
					<dim>16</dim>
					<dim>3</dim>
					<dim>3</dim>
					<dim>3</dim>
				</port>
			</input>
			<output>
				<port id="2" precision="FP32">
					<dim>1</dim>
					<dim>16</dim>
					<dim>45</dim>
					<dim>80</dim>
				</port>
			</output>
		</layer>
		<layer id="39" name="Conv_6/Dims7483" type="Const" version="opset1">
			<data offset="3081500" size="64" shape="1,16,1,1" element_type="f32"/>
			<output>
				<port id="0" precision="FP32">
					<dim>1</dim>
					<dim>16</dim>
					<dim>1</dim>
					<dim>1</dim>
				</port>
			</output>
		</layer>
		<layer id="40" name="Conv_6" type="Add" version="opset1">
			<data auto_broadcast="numpy"/>
			<input>
				<port id="0">
					<dim>1</dim>
					<dim>16</dim>
					<dim>45</dim>
					<dim>80</dim>
				</port>
				<port id="1">
					<dim>1</dim>
					<dim>16</dim>
					<dim>1</dim>
					<dim>1</dim>
				</port>
			</input>
			<output>
				<port id="2" precision="FP32" names="943">
					<dim>1</dim>
					<dim>16</dim>
					<dim>45</dim>
					<dim>80</dim>
				</port>
			</output>
		</layer>
		<layer id="41" name="Constant_12" type="Const" version="opset1">
			<data offset="3081564" size="4" shape="1,1,1,1" element_type="f32"/>
			<output>
				<port id="0" precision="FP32" names="401">
					<dim>1</dim>
					<dim>1</dim>
					<dim>1</dim>
					<dim>1</dim>
				</port>
			</output>
		</layer>
		<layer id="42" name="Constant_7" type="Const" version="opset1">
			<data offset="3081568" size="4" shape="1,1,1,1" element_type="f32"/>
			<output>
				<port id="0" precision="FP32" names="396">
					<dim>1</dim>
					<dim>1</dim>
					<dim>1</dim>
					<dim>1</dim>
				</port>
			</output>
		</layer>
		<layer id="43" name="Add_8" type="Add" version="opset1">
			<data auto_broadcast="numpy"/>
			<input>
				<port id="0">
					<dim>1</dim>
					<dim>16</dim>
					<dim>45</dim>
					<dim>80</dim>
				</port>
				<port id="1">
					<dim>1</dim>
					<dim>1</dim>
					<dim>1</dim>
					<dim>1</dim>
				</port>
			</input>
			<output>
				<port id="2" precision="FP32" names="397">
					<dim>1</dim>
					<dim>16</dim>
					<dim>45</dim>
					<dim>80</dim>
				</port>
			</output>
		</layer>
		<layer id="44" name="Clip_11" type="Clamp" version="opset1">
			<data max="6.0" min="0.0"/>
			<input>
				<port id="0">
					<dim>1</dim>
					<dim>16</dim>
					<dim>45</dim>
					<dim>80</dim>
				</port>
			</input>
			<output>
				<port id="1" precision="FP32" names="400">
					<dim>1</dim>
					<dim>16</dim>
					<dim>45</dim>
					<dim>80</dim>
				</port>
			</output>
		</layer>
		<layer id="45" name="Div_13" type="Multiply" version="opset1">
			<data auto_broadcast="numpy"/>
			<input>
				<port id="0">
					<dim>1</dim>
					<dim>16</dim>
					<dim>45</dim>
					<dim>80</dim>
				</port>
				<port id="1">
					<dim>1</dim>
					<dim>1</dim>
					<dim>1</dim>
					<dim>1</dim>
				</port>
			</input>
			<output>
				<port id="2" precision="FP32" names="402">
					<dim>1</dim>
					<dim>16</dim>
					<dim>45</dim>
					<dim>80</dim>
				</port>
			</output>
		</layer>
		<layer id="46" name="Mul_14" type="Multiply" version="opset1">
			<data auto_broadcast="numpy"/>
			<input>
				<port id="0">
					<dim>1</dim>
					<dim>16</dim>
					<dim>45</dim>
					<dim>80</dim>
				</port>
				<port id="1">
					<dim>1</dim>
					<dim>16</dim>
					<dim>45</dim>
					<dim>80</dim>
				</port>
			</input>
			<output>
				<port id="2" precision="FP32" names="403">
					<dim>1</dim>
					<dim>16</dim>
					<dim>45</dim>
					<dim>80</dim>
				</port>
			</output>
		</layer>
		<layer id="47" name="950" type="Const" version="opset1">
			<data offset="3081572" size="1024" shape="16,16,1,1" element_type="f32"/>
			<output>
				<port id="0" precision="FP32" names="950">
					<dim>16</dim>
					<dim>16</dim>
					<dim>1</dim>
					<dim>1</dim>
				</port>
			</output>
		</layer>
		<layer id="48" name="947" type="Const" version="opset1">
			<data offset="3082596" size="576" shape="16,1,1,3,3" element_type="f32"/>
			<output>
				<port id="0" precision="FP32" names="947">
					<dim>16</dim>
					<dim>1</dim>
					<dim>1</dim>
					<dim>3</dim>
					<dim>3</dim>
				</port>
			</output>
		</layer>
		<layer id="49" name="Conv_15/WithoutBiases" type="GroupConvolution" version="opset1">
			<data auto_pad="explicit" strides="1,1" dilations="1,1" pads_begin="1,1" pads_end="1,1"/>
			<input>
				<port id="0">
					<dim>1</dim>
					<dim>16</dim>
					<dim>45</dim>
					<dim>80</dim>
				</port>
				<port id="1">
					<dim>16</dim>
					<dim>1</dim>
					<dim>1</dim>
					<dim>3</dim>
					<dim>3</dim>
				</port>
			</input>
			<output>
				<port id="2" precision="FP32">
					<dim>1</dim>
					<dim>16</dim>
					<dim>45</dim>
					<dim>80</dim>
				</port>
			</output>
		</layer>
		<layer id="50" name="Conv_15/Dims7243" type="Const" version="opset1">
			<data offset="3083172" size="64" shape="1,16,1,1" element_type="f32"/>
			<output>
				<port id="0" precision="FP32">
					<dim>1</dim>
					<dim>16</dim>
					<dim>1</dim>
					<dim>1</dim>
				</port>
			</output>
		</layer>
		<layer id="51" name="Conv_15" type="Add" version="opset1">
			<data auto_broadcast="numpy"/>
			<input>
				<port id="0">
					<dim>1</dim>
					<dim>16</dim>
					<dim>45</dim>
					<dim>80</dim>
				</port>
				<port id="1">
					<dim>1</dim>
					<dim>16</dim>
					<dim>1</dim>
					<dim>1</dim>
				</port>
			</input>
			<output>
				<port id="2" precision="FP32" names="946">
					<dim>1</dim>
					<dim>16</dim>
					<dim>45</dim>
					<dim>80</dim>
				</port>
			</output>
		</layer>
		<layer id="52" name="Relu_16" type="ReLU" version="opset1">
			<input>
				<port id="0">
					<dim>1</dim>
					<dim>16</dim>
					<dim>45</dim>
					<dim>80</dim>
				</port>
			</input>
			<output>
				<port id="1" precision="FP32" names="406">
					<dim>1</dim>
					<dim>16</dim>
					<dim>45</dim>
					<dim>80</dim>
				</port>
			</output>
		</layer>
		<layer id="53" name="Conv_17/WithoutBiases" type="Convolution" version="opset1">
			<data auto_pad="explicit" strides="1,1" dilations="1,1" pads_begin="0,0" pads_end="0,0"/>
			<input>
				<port id="0">
					<dim>1</dim>
					<dim>16</dim>
					<dim>45</dim>
					<dim>80</dim>
				</port>
				<port id="1">
					<dim>16</dim>
					<dim>16</dim>
					<dim>1</dim>
					<dim>1</dim>
				</port>
			</input>
			<output>
				<port id="2" precision="FP32">
					<dim>1</dim>
					<dim>16</dim>
					<dim>45</dim>
					<dim>80</dim>
				</port>
			</output>
		</layer>
		<layer id="54" name="Conv_17/Dims7201" type="Const" version="opset1">
			<data offset="3083236" size="64" shape="1,16,1,1" element_type="f32"/>
			<output>
				<port id="0" precision="FP32">
					<dim>1</dim>
					<dim>16</dim>
					<dim>1</dim>
					<dim>1</dim>
				</port>
			</output>
		</layer>
		<layer id="55" name="Conv_17" type="Add" version="opset1">
			<data auto_broadcast="numpy"/>
			<input>
				<port id="0">
					<dim>1</dim>
					<dim>16</dim>
					<dim>45</dim>
					<dim>80</dim>
				</port>
				<port id="1">
					<dim>1</dim>
					<dim>16</dim>
					<dim>1</dim>
					<dim>1</dim>
				</port>
			</input>
			<output>
				<port id="2" precision="FP32" names="949">
					<dim>1</dim>
					<dim>16</dim>
					<dim>45</dim>
					<dim>80</dim>
				</port>
			</output>
		</layer>
		<layer id="56" name="Add_18" type="Add" version="opset1">
			<data auto_broadcast="numpy"/>
			<input>
				<port id="0">
					<dim>1</dim>
					<dim>16</dim>
					<dim>45</dim>
					<dim>80</dim>
				</port>
				<port id="1">
					<dim>1</dim>
					<dim>16</dim>
					<dim>45</dim>
					<dim>80</dim>
				</port>
			</input>
			<output>
				<port id="2" precision="FP32" names="409">
					<dim>1</dim>
					<dim>16</dim>
					<dim>45</dim>
					<dim>80</dim>
				</port>
			</output>
		</layer>
		<layer id="57" name="Conv_19/WithoutBiases" type="Convolution" version="opset1">
			<data auto_pad="explicit" strides="1,1" dilations="1,1" pads_begin="0,0" pads_end="0,0"/>
			<input>
				<port id="0">
					<dim>1</dim>
					<dim>16</dim>
					<dim>45</dim>
					<dim>80</dim>
				</port>
				<port id="1">
					<dim>64</dim>
					<dim>16</dim>
					<dim>1</dim>
					<dim>1</dim>
				</port>
			</input>
			<output>
				<port id="2" precision="FP32">
					<dim>1</dim>
					<dim>64</dim>
					<dim>45</dim>
					<dim>80</dim>
				</port>
			</output>
		</layer>
		<layer id="58" name="Conv_19/Dims7267" type="Const" version="opset1">
			<data offset="3083300" size="256" shape="1,64,1,1" element_type="f32"/>
			<output>
				<port id="0" precision="FP32">
					<dim>1</dim>
					<dim>64</dim>
					<dim>1</dim>
					<dim>1</dim>
				</port>
			</output>
		</layer>
		<layer id="59" name="Conv_19" type="Add" version="opset1">
			<data auto_broadcast="numpy"/>
			<input>
				<port id="0">
					<dim>1</dim>
					<dim>64</dim>
					<dim>45</dim>
					<dim>80</dim>
				</port>
				<port id="1">
					<dim>1</dim>
					<dim>64</dim>
					<dim>1</dim>
					<dim>1</dim>
				</port>
			</input>
			<output>
				<port id="2" precision="FP32" names="952">
					<dim>1</dim>
					<dim>64</dim>
					<dim>45</dim>
					<dim>80</dim>
				</port>
			</output>
		</layer>
		<layer id="60" name="Relu_20" type="ReLU" version="opset1">
			<input>
				<port id="0">
					<dim>1</dim>
					<dim>64</dim>
					<dim>45</dim>
					<dim>80</dim>
				</port>
			</input>
			<output>
				<port id="1" precision="FP32" names="412">
					<dim>1</dim>
					<dim>64</dim>
					<dim>45</dim>
					<dim>80</dim>
				</port>
			</output>
		</layer>
		<layer id="61" name="956" type="Const" version="opset1">
			<data offset="3083556" size="2304" shape="64,1,1,3,3" element_type="f32"/>
			<output>
				<port id="0" precision="FP32" names="956">
					<dim>64</dim>
					<dim>1</dim>
					<dim>1</dim>
					<dim>3</dim>
					<dim>3</dim>
				</port>
			</output>
		</layer>
		<layer id="62" name="Conv_21/WithoutBiases" type="GroupConvolution" version="opset1">
			<data auto_pad="explicit" strides="2,2" dilations="1,1" pads_begin="1,1" pads_end="1,1"/>
			<input>
				<port id="0">
					<dim>1</dim>
					<dim>64</dim>
					<dim>45</dim>
					<dim>80</dim>
				</port>
				<port id="1">
					<dim>64</dim>
					<dim>1</dim>
					<dim>1</dim>
					<dim>3</dim>
					<dim>3</dim>
				</port>
			</input>
			<output>
				<port id="2" precision="FP32">
					<dim>1</dim>
					<dim>64</dim>
					<dim>23</dim>
					<dim>40</dim>
				</port>
			</output>
		</layer>
		<layer id="63" name="Conv_21/Dims7177" type="Const" version="opset1">
			<data offset="3085860" size="256" shape="1,64,1,1" element_type="f32"/>
			<output>
				<port id="0" precision="FP32">
					<dim>1</dim>
					<dim>64</dim>
					<dim>1</dim>
					<dim>1</dim>
				</port>
			</output>
		</layer>
		<layer id="64" name="Conv_21" type="Add" version="opset1">
			<data auto_broadcast="numpy"/>
			<input>
				<port id="0">
					<dim>1</dim>
					<dim>64</dim>
					<dim>23</dim>
					<dim>40</dim>
				</port>
				<port id="1">
					<dim>1</dim>
					<dim>64</dim>
					<dim>1</dim>
					<dim>1</dim>
				</port>
			</input>
			<output>
				<port id="2" precision="FP32" names="955">
					<dim>1</dim>
					<dim>64</dim>
					<dim>23</dim>
					<dim>40</dim>
				</port>
			</output>
		</layer>
		<layer id="65" name="Relu_22" type="ReLU" version="opset1">
			<input>
				<port id="0">
					<dim>1</dim>
					<dim>64</dim>
					<dim>23</dim>
					<dim>40</dim>
				</port>
			</input>
			<output>
				<port id="1" precision="FP32" names="415">
					<dim>1</dim>
					<dim>64</dim>
					<dim>23</dim>
					<dim>40</dim>
				</port>
			</output>
		</layer>
		<layer id="66" name="Conv_23/WithoutBiases" type="Convolution" version="opset1">
			<data auto_pad="explicit" strides="1,1" dilations="1,1" pads_begin="0,0" pads_end="0,0"/>
			<input>
				<port id="0">
					<dim>1</dim>
					<dim>64</dim>
					<dim>23</dim>
					<dim>40</dim>
				</port>
				<port id="1">
					<dim>24</dim>
					<dim>64</dim>
					<dim>1</dim>
					<dim>1</dim>
				</port>
			</input>
			<output>
				<port id="2" precision="FP32">
					<dim>1</dim>
					<dim>24</dim>
					<dim>23</dim>
					<dim>40</dim>
				</port>
			</output>
		</layer>
		<layer id="67" name="Conv_23/Dims7219" type="Const" version="opset1">
			<data offset="3086116" size="96" shape="1,24,1,1" element_type="f32"/>
			<output>
				<port id="0" precision="FP32">
					<dim>1</dim>
					<dim>24</dim>
					<dim>1</dim>
					<dim>1</dim>
				</port>
			</output>
		</layer>
		<layer id="68" name="Conv_23" type="Add" version="opset1">
			<data auto_broadcast="numpy"/>
			<input>
				<port id="0">
					<dim>1</dim>
					<dim>24</dim>
					<dim>23</dim>
					<dim>40</dim>
				</port>
				<port id="1">
					<dim>1</dim>
					<dim>24</dim>
					<dim>1</dim>
					<dim>1</dim>
				</port>
			</input>
			<output>
				<port id="2" precision="FP32" names="958">
					<dim>1</dim>
					<dim>24</dim>
					<dim>23</dim>
					<dim>40</dim>
				</port>
			</output>
		</layer>
		<layer id="69" name="968" type="Const" version="opset1">
			<data offset="3086212" size="6912" shape="24,72,1,1" element_type="f32"/>
			<output>
				<port id="0" precision="FP32" names="968">
					<dim>24</dim>
					<dim>72</dim>
					<dim>1</dim>
					<dim>1</dim>
				</port>
			</output>
		</layer>
		<layer id="70" name="962" type="Const" version="opset1">
			<data offset="3093124" size="6912" shape="72,24,1,1" element_type="f32"/>
			<output>
				<port id="0" precision="FP32" names="962">
					<dim>72</dim>
					<dim>24</dim>
					<dim>1</dim>
					<dim>1</dim>
				</port>
			</output>
		</layer>
		<layer id="71" name="Conv_24/WithoutBiases" type="Convolution" version="opset1">
			<data auto_pad="explicit" strides="1,1" dilations="1,1" pads_begin="0,0" pads_end="0,0"/>
			<input>
				<port id="0">
					<dim>1</dim>
					<dim>24</dim>
					<dim>23</dim>
					<dim>40</dim>
				</port>
				<port id="1">
					<dim>72</dim>
					<dim>24</dim>
					<dim>1</dim>
					<dim>1</dim>
				</port>
			</input>
			<output>
				<port id="2" precision="FP32">
					<dim>1</dim>
					<dim>72</dim>
					<dim>23</dim>
					<dim>40</dim>
				</port>
			</output>
		</layer>
		<layer id="72" name="Conv_24/Dims7255" type="Const" version="opset1">
			<data offset="3100036" size="288" shape="1,72,1,1" element_type="f32"/>
			<output>
				<port id="0" precision="FP32">
					<dim>1</dim>
					<dim>72</dim>
					<dim>1</dim>
					<dim>1</dim>
				</port>
			</output>
		</layer>
		<layer id="73" name="Conv_24" type="Add" version="opset1">
			<data auto_broadcast="numpy"/>
			<input>
				<port id="0">
					<dim>1</dim>
					<dim>72</dim>
					<dim>23</dim>
					<dim>40</dim>
				</port>
				<port id="1">
					<dim>1</dim>
					<dim>72</dim>
					<dim>1</dim>
					<dim>1</dim>
				</port>
			</input>
			<output>
				<port id="2" precision="FP32" names="961">
					<dim>1</dim>
					<dim>72</dim>
					<dim>23</dim>
					<dim>40</dim>
				</port>
			</output>
		</layer>
		<layer id="74" name="Relu_25" type="ReLU" version="opset1">
			<input>
				<port id="0">
					<dim>1</dim>
					<dim>72</dim>
					<dim>23</dim>
					<dim>40</dim>
				</port>
			</input>
			<output>
				<port id="1" precision="FP32" names="420">
					<dim>1</dim>
					<dim>72</dim>
					<dim>23</dim>
					<dim>40</dim>
				</port>
			</output>
		</layer>
		<layer id="75" name="965" type="Const" version="opset1">
			<data offset="3100324" size="2592" shape="72,1,1,3,3" element_type="f32"/>
			<output>
				<port id="0" precision="FP32" names="965">
					<dim>72</dim>
					<dim>1</dim>
					<dim>1</dim>
					<dim>3</dim>
					<dim>3</dim>
				</port>
			</output>
		</layer>
		<layer id="76" name="Conv_26/WithoutBiases" type="GroupConvolution" version="opset1">
			<data auto_pad="explicit" strides="1,1" dilations="1,1" pads_begin="1,1" pads_end="1,1"/>
			<input>
				<port id="0">
					<dim>1</dim>
					<dim>72</dim>
					<dim>23</dim>
					<dim>40</dim>
				</port>
				<port id="1">
					<dim>72</dim>
					<dim>1</dim>
					<dim>1</dim>
					<dim>3</dim>
					<dim>3</dim>
				</port>
			</input>
			<output>
				<port id="2" precision="FP32">
					<dim>1</dim>
					<dim>72</dim>
					<dim>23</dim>
					<dim>40</dim>
				</port>
			</output>
		</layer>
		<layer id="77" name="Conv_26/Dims7279" type="Const" version="opset1">
			<data offset="3102916" size="288" shape="1,72,1,1" element_type="f32"/>
			<output>
				<port id="0" precision="FP32">
					<dim>1</dim>
					<dim>72</dim>
					<dim>1</dim>
					<dim>1</dim>
				</port>
			</output>
		</layer>
		<layer id="78" name="Conv_26" type="Add" version="opset1">
			<data auto_broadcast="numpy"/>
			<input>
				<port id="0">
					<dim>1</dim>
					<dim>72</dim>
					<dim>23</dim>
					<dim>40</dim>
				</port>
				<port id="1">
					<dim>1</dim>
					<dim>72</dim>
					<dim>1</dim>
					<dim>1</dim>
				</port>
			</input>
			<output>
				<port id="2" precision="FP32" names="964">
					<dim>1</dim>
					<dim>72</dim>
					<dim>23</dim>
					<dim>40</dim>
				</port>
			</output>
		</layer>
		<layer id="79" name="Relu_27" type="ReLU" version="opset1">
			<input>
				<port id="0">
					<dim>1</dim>
					<dim>72</dim>
					<dim>23</dim>
					<dim>40</dim>
				</port>
			</input>
			<output>
				<port id="1" precision="FP32" names="423">
					<dim>1</dim>
					<dim>72</dim>
					<dim>23</dim>
					<dim>40</dim>
				</port>
			</output>
		</layer>
		<layer id="80" name="Conv_28/WithoutBiases" type="Convolution" version="opset1">
			<data auto_pad="explicit" strides="1,1" dilations="1,1" pads_begin="0,0" pads_end="0,0"/>
			<input>
				<port id="0">
					<dim>1</dim>
					<dim>72</dim>
					<dim>23</dim>
					<dim>40</dim>
				</port>
				<port id="1">
					<dim>24</dim>
					<dim>72</dim>
					<dim>1</dim>
					<dim>1</dim>
				</port>
			</input>
			<output>
				<port id="2" precision="FP32">
					<dim>1</dim>
					<dim>24</dim>
					<dim>23</dim>
					<dim>40</dim>
				</port>
			</output>
		</layer>
		<layer id="81" name="Conv_28/Dims7441" type="Const" version="opset1">
			<data offset="3103204" size="96" shape="1,24,1,1" element_type="f32"/>
			<output>
				<port id="0" precision="FP32">
					<dim>1</dim>
					<dim>24</dim>
					<dim>1</dim>
					<dim>1</dim>
				</port>
			</output>
		</layer>
		<layer id="82" name="Conv_28" type="Add" version="opset1">
			<data auto_broadcast="numpy"/>
			<input>
				<port id="0">
					<dim>1</dim>
					<dim>24</dim>
					<dim>23</dim>
					<dim>40</dim>
				</port>
				<port id="1">
					<dim>1</dim>
					<dim>24</dim>
					<dim>1</dim>
					<dim>1</dim>
				</port>
			</input>
			<output>
				<port id="2" precision="FP32" names="967">
					<dim>1</dim>
					<dim>24</dim>
					<dim>23</dim>
					<dim>40</dim>
				</port>
			</output>
		</layer>
		<layer id="83" name="Add_29" type="Add" version="opset1">
			<data auto_broadcast="numpy"/>
			<input>
				<port id="0">
					<dim>1</dim>
					<dim>24</dim>
					<dim>23</dim>
					<dim>40</dim>
				</port>
				<port id="1">
					<dim>1</dim>
					<dim>24</dim>
					<dim>23</dim>
					<dim>40</dim>
				</port>
			</input>
			<output>
				<port id="2" precision="FP32" names="426">
					<dim>1</dim>
					<dim>24</dim>
					<dim>23</dim>
					<dim>40</dim>
				</port>
			</output>
		</layer>
		<layer id="84" name="Conv_30/WithoutBiases" type="Convolution" version="opset1">
			<data auto_pad="explicit" strides="1,1" dilations="1,1" pads_begin="0,0" pads_end="0,0"/>
			<input>
				<port id="0">
					<dim>1</dim>
					<dim>24</dim>
					<dim>23</dim>
					<dim>40</dim>
				</port>
				<port id="1">
					<dim>72</dim>
					<dim>24</dim>
					<dim>1</dim>
					<dim>1</dim>
				</port>
			</input>
			<output>
				<port id="2" precision="FP32">
					<dim>1</dim>
					<dim>72</dim>
					<dim>23</dim>
					<dim>40</dim>
				</port>
			</output>
		</layer>
		<layer id="85" name="Conv_30/Dims7285" type="Const" version="opset1">
			<data offset="3103300" size="288" shape="1,72,1,1" element_type="f32"/>
			<output>
				<port id="0" precision="FP32">
					<dim>1</dim>
					<dim>72</dim>
					<dim>1</dim>
					<dim>1</dim>
				</port>
			</output>
		</layer>
		<layer id="86" name="Conv_30" type="Add" version="opset1">
			<data auto_broadcast="numpy"/>
			<input>
				<port id="0">
					<dim>1</dim>
					<dim>72</dim>
					<dim>23</dim>
					<dim>40</dim>
				</port>
				<port id="1">
					<dim>1</dim>
					<dim>72</dim>
					<dim>1</dim>
					<dim>1</dim>
				</port>
			</input>
			<output>
				<port id="2" precision="FP32" names="970">
					<dim>1</dim>
					<dim>72</dim>
					<dim>23</dim>
					<dim>40</dim>
				</port>
			</output>
		</layer>
		<layer id="87" name="Relu_31" type="ReLU" version="opset1">
			<input>
				<port id="0">
					<dim>1</dim>
					<dim>72</dim>
					<dim>23</dim>
					<dim>40</dim>
				</port>
			</input>
			<output>
				<port id="1" precision="FP32" names="429">
					<dim>1</dim>
					<dim>72</dim>
					<dim>23</dim>
					<dim>40</dim>
				</port>
			</output>
		</layer>
		<layer id="88" name="974" type="Const" version="opset1">
			<data offset="3103588" size="7200" shape="72,1,1,5,5" element_type="f32"/>
			<output>
				<port id="0" precision="FP32" names="974">
					<dim>72</dim>
					<dim>1</dim>
					<dim>1</dim>
					<dim>5</dim>
					<dim>5</dim>
				</port>
			</output>
		</layer>
		<layer id="89" name="Conv_32/WithoutBiases" type="GroupConvolution" version="opset1">
			<data auto_pad="explicit" strides="2,2" dilations="1,1" pads_begin="2,2" pads_end="2,2"/>
			<input>
				<port id="0">
					<dim>1</dim>
					<dim>72</dim>
					<dim>23</dim>
					<dim>40</dim>
				</port>
				<port id="1">
					<dim>72</dim>
					<dim>1</dim>
					<dim>1</dim>
					<dim>5</dim>
					<dim>5</dim>
				</port>
			</input>
			<output>
				<port id="2" precision="FP32">
					<dim>1</dim>
					<dim>72</dim>
					<dim>12</dim>
					<dim>20</dim>
				</port>
			</output>
		</layer>
		<layer id="90" name="Conv_32/Dims7165" type="Const" version="opset1">
			<data offset="3110788" size="288" shape="1,72,1,1" element_type="f32"/>
			<output>
				<port id="0" precision="FP32">
					<dim>1</dim>
					<dim>72</dim>
					<dim>1</dim>
					<dim>1</dim>
				</port>
			</output>
		</layer>
		<layer id="91" name="Conv_32" type="Add" version="opset1">
			<data auto_broadcast="numpy"/>
			<input>
				<port id="0">
					<dim>1</dim>
					<dim>72</dim>
					<dim>12</dim>
					<dim>20</dim>
				</port>
				<port id="1">
					<dim>1</dim>
					<dim>72</dim>
					<dim>1</dim>
					<dim>1</dim>
				</port>
			</input>
			<output>
				<port id="2" precision="FP32" names="973">
					<dim>1</dim>
					<dim>72</dim>
					<dim>12</dim>
					<dim>20</dim>
				</port>
			</output>
		</layer>
		<layer id="92" name="Relu_33" type="ReLU" version="opset1">
			<input>
				<port id="0">
					<dim>1</dim>
					<dim>72</dim>
					<dim>12</dim>
					<dim>20</dim>
				</port>
			</input>
			<output>
				<port id="1" precision="FP32" names="432">
					<dim>1</dim>
					<dim>72</dim>
					<dim>12</dim>
					<dim>20</dim>
				</port>
			</output>
		</layer>
		<layer id="93" name="HardSigmoid_38/HardSigmoid__input_port_1/value" type="Const" version="opset1">
			<data offset="3111076" size="4" shape="" element_type="f32"/>
			<output>
				<port id="0" precision="FP32"/>
			</output>
		</layer>
		<layer id="94" name="HardSigmoid_38/HardSigmoid__input_port_2/value" type="Const" version="opset1">
			<data offset="3111080" size="4" shape="" element_type="f32"/>
			<output>
				<port id="0" precision="FP32"/>
			</output>
		</layer>
		<layer id="95" name="backbone.features.4.block.2.fc2.weight" type="Const" version="opset1">
			<data offset="3111084" size="6912" shape="72,24,1,1" element_type="f32"/>
			<output>
				<port id="0" precision="FP32" names="backbone.features.4.block.2.fc2.weight">
					<dim>72</dim>
					<dim>24</dim>
					<dim>1</dim>
					<dim>1</dim>
				</port>
			</output>
		</layer>
		<layer id="96" name="backbone.features.4.block.2.fc1.weight" type="Const" version="opset1">
			<data offset="3117996" size="6912" shape="24,72,1,1" element_type="f32"/>
			<output>
				<port id="0" precision="FP32" names="backbone.features.4.block.2.fc1.weight">
					<dim>24</dim>
					<dim>72</dim>
					<dim>1</dim>
					<dim>1</dim>
				</port>
			</output>
		</layer>
		<layer id="97" name="687" type="Const" version="opset1">
			<data offset="3081452" size="8" shape="" element_type="i64"/>
			<output>
				<port id="0" precision="I64"/>
			</output>
		</layer>
		<layer id="98" name="689" type="Const" version="opset1">
			<data offset="3081468" size="8" shape="" element_type="i64"/>
			<output>
				<port id="0" precision="I64"/>
			</output>
		</layer>
		<layer id="99" name="GlobalAveragePool_34/input_rank/shape_of" type="ShapeOf" version="opset3">
			<data output_type="i64"/>
			<input>
				<port id="0">
					<dim>1</dim>
					<dim>72</dim>
					<dim>12</dim>
					<dim>20</dim>
				</port>
			</input>
			<output>
				<port id="1" precision="I64">
					<dim>4</dim>
				</port>
			</output>
		</layer>
		<layer id="100" name="GlobalAveragePool_34/input_rank/rank_of" type="ShapeOf" version="opset3">
			<data output_type="i64"/>
			<input>
				<port id="0">
					<dim>4</dim>
				</port>
			</input>
			<output>
				<port id="1" precision="I64">
					<dim>1</dim>
				</port>
			</output>
		</layer>
		<layer id="101" name="GlobalAveragePool_34/input_rank/0d_rank_of/value" type="Const" version="opset1">
			<data offset="3124908" size="8" shape="1" element_type="i64"/>
			<output>
				<port id="0" precision="I64">
					<dim>1</dim>
				</port>
			</output>
		</layer>
		<layer id="102" name="GlobalAveragePool_34/input_rank" type="Squeeze" version="opset1">
			<input>
				<port id="0">
					<dim>1</dim>
				</port>
				<port id="1">
					<dim>1</dim>
				</port>
			</input>
			<output>
				<port id="2" precision="I64"/>
			</output>
		</layer>
		<layer id="103" name="GlobalAveragePool_34/global_pooling_reduce_axis" type="Range" version="opset4">
			<data output_type="i64"/>
			<input>
				<port id="0"/>
				<port id="1"/>
				<port id="2"/>
			</input>
			<output>
				<port id="3" precision="I64">
					<dim>2</dim>
				</port>
			</output>
		</layer>
		<layer id="104" name="GlobalAveragePool_34/reduce" type="ReduceMean" version="opset1">
			<data keep_dims="true"/>
			<input>
				<port id="0">
					<dim>1</dim>
					<dim>72</dim>
					<dim>12</dim>
					<dim>20</dim>
				</port>
				<port id="1">
					<dim>2</dim>
				</port>
			</input>
			<output>
				<port id="2" precision="FP32" names="433">
					<dim>1</dim>
					<dim>72</dim>
					<dim>1</dim>
					<dim>1</dim>
				</port>
			</output>
		</layer>
		<layer id="105" name="Conv_35/WithoutBiases" type="Convolution" version="opset1">
			<data auto_pad="explicit" strides="1,1" dilations="1,1" pads_begin="0,0" pads_end="0,0"/>
			<input>
				<port id="0">
					<dim>1</dim>
					<dim>72</dim>
					<dim>1</dim>
					<dim>1</dim>
				</port>
				<port id="1">
					<dim>24</dim>
					<dim>72</dim>
					<dim>1</dim>
					<dim>1</dim>
				</port>
			</input>
			<output>
				<port id="2" precision="FP32">
					<dim>1</dim>
					<dim>24</dim>
					<dim>1</dim>
					<dim>1</dim>
				</port>
			</output>
		</layer>
		<layer id="106" name="Conv_35/Dims7321" type="Const" version="opset1">
			<data offset="3124916" size="96" shape="1,24,1,1" element_type="f32"/>
			<output>
				<port id="0" precision="FP32">
					<dim>1</dim>
					<dim>24</dim>
					<dim>1</dim>
					<dim>1</dim>
				</port>
			</output>
		</layer>
		<layer id="107" name="Conv_35" type="Add" version="opset1">
			<data auto_broadcast="numpy"/>
			<input>
				<port id="0">
					<dim>1</dim>
					<dim>24</dim>
					<dim>1</dim>
					<dim>1</dim>
				</port>
				<port id="1">
					<dim>1</dim>
					<dim>24</dim>
					<dim>1</dim>
					<dim>1</dim>
				</port>
			</input>
			<output>
				<port id="2" precision="FP32" names="434">
					<dim>1</dim>
					<dim>24</dim>
					<dim>1</dim>
					<dim>1</dim>
				</port>
			</output>
		</layer>
		<layer id="108" name="Relu_36" type="ReLU" version="opset1">
			<input>
				<port id="0">
					<dim>1</dim>
					<dim>24</dim>
					<dim>1</dim>
					<dim>1</dim>
				</port>
			</input>
			<output>
				<port id="1" precision="FP32" names="435">
					<dim>1</dim>
					<dim>24</dim>
					<dim>1</dim>
					<dim>1</dim>
				</port>
			</output>
		</layer>
		<layer id="109" name="Conv_37/WithoutBiases" type="Convolution" version="opset1">
			<data auto_pad="explicit" strides="1,1" dilations="1,1" pads_begin="0,0" pads_end="0,0"/>
			<input>
				<port id="0">
					<dim>1</dim>
					<dim>24</dim>
					<dim>1</dim>
					<dim>1</dim>
				</port>
				<port id="1">
					<dim>72</dim>
					<dim>24</dim>
					<dim>1</dim>
					<dim>1</dim>
				</port>
			</input>
			<output>
				<port id="2" precision="FP32">
					<dim>1</dim>
					<dim>72</dim>
					<dim>1</dim>
					<dim>1</dim>
				</port>
			</output>
		</layer>
		<layer id="110" name="Conv_37/Dims7225" type="Const" version="opset1">
			<data offset="3125012" size="288" shape="1,72,1,1" element_type="f32"/>
			<output>
				<port id="0" precision="FP32">
					<dim>1</dim>
					<dim>72</dim>
					<dim>1</dim>
					<dim>1</dim>
				</port>
			</output>
		</layer>
		<layer id="111" name="Conv_37" type="Add" version="opset1">
			<data auto_broadcast="numpy"/>
			<input>
				<port id="0">
					<dim>1</dim>
					<dim>72</dim>
					<dim>1</dim>
					<dim>1</dim>
				</port>
				<port id="1">
					<dim>1</dim>
					<dim>72</dim>
					<dim>1</dim>
					<dim>1</dim>
				</port>
			</input>
			<output>
				<port id="2" precision="FP32" names="436">
					<dim>1</dim>
					<dim>72</dim>
					<dim>1</dim>
					<dim>1</dim>
				</port>
			</output>
		</layer>
		<layer id="112" name="HardSigmoid_38/HardSigmoid_" type="HardSigmoid" version="opset1">
			<input>
				<port id="0">
					<dim>1</dim>
					<dim>72</dim>
					<dim>1</dim>
					<dim>1</dim>
				</port>
				<port id="1"/>
				<port id="2"/>
			</input>
			<output>
				<port id="3" precision="FP32" names="437">
					<dim>1</dim>
					<dim>72</dim>
					<dim>1</dim>
					<dim>1</dim>
				</port>
			</output>
		</layer>
		<layer id="113" name="Mul_39" type="Multiply" version="opset1">
			<data auto_broadcast="numpy"/>
			<input>
				<port id="0">
					<dim>1</dim>
					<dim>72</dim>
					<dim>1</dim>
					<dim>1</dim>
				</port>
				<port id="1">
					<dim>1</dim>
					<dim>72</dim>
					<dim>12</dim>
					<dim>20</dim>
				</port>
			</input>
			<output>
				<port id="2" precision="FP32" names="438">
					<dim>1</dim>
					<dim>72</dim>
					<dim>12</dim>
					<dim>20</dim>
				</port>
			</output>
		</layer>
		<layer id="114" name="Conv_40/WithoutBiases" type="Convolution" version="opset1">
			<data auto_pad="explicit" strides="1,1" dilations="1,1" pads_begin="0,0" pads_end="0,0"/>
			<input>
				<port id="0">
					<dim>1</dim>
					<dim>72</dim>
					<dim>12</dim>
					<dim>20</dim>
				</port>
				<port id="1">
					<dim>40</dim>
					<dim>72</dim>
					<dim>1</dim>
					<dim>1</dim>
				</port>
			</input>
			<output>
				<port id="2" precision="FP32">
					<dim>1</dim>
					<dim>40</dim>
					<dim>12</dim>
					<dim>20</dim>
				</port>
			</output>
		</layer>
		<layer id="115" name="Conv_40/Dims7339" type="Const" version="opset1">
			<data offset="3125300" size="160" shape="1,40,1,1" element_type="f32"/>
			<output>
				<port id="0" precision="FP32">
					<dim>1</dim>
					<dim>40</dim>
					<dim>1</dim>
					<dim>1</dim>
				</port>
			</output>
		</layer>
		<layer id="116" name="Conv_40" type="Add" version="opset1">
			<data auto_broadcast="numpy"/>
			<input>
				<port id="0">
					<dim>1</dim>
					<dim>40</dim>
					<dim>12</dim>
					<dim>20</dim>
				</port>
				<port id="1">
					<dim>1</dim>
					<dim>40</dim>
					<dim>1</dim>
					<dim>1</dim>
				</port>
			</input>
			<output>
				<port id="2" precision="FP32" names="976">
					<dim>1</dim>
					<dim>40</dim>
					<dim>12</dim>
					<dim>20</dim>
				</port>
			</output>
		</layer>
		<layer id="117" name="986" type="Const" version="opset1">
			<data offset="3125460" size="19200" shape="40,120,1,1" element_type="f32"/>
			<output>
				<port id="0" precision="FP32" names="986">
					<dim>40</dim>
					<dim>120</dim>
					<dim>1</dim>
					<dim>1</dim>
				</port>
			</output>
		</layer>
		<layer id="118" name="980" type="Const" version="opset1">
			<data offset="3144660" size="19200" shape="120,40,1,1" element_type="f32"/>
			<output>
				<port id="0" precision="FP32" names="980">
					<dim>120</dim>
					<dim>40</dim>
					<dim>1</dim>
					<dim>1</dim>
				</port>
			</output>
		</layer>
		<layer id="119" name="Conv_41/WithoutBiases" type="Convolution" version="opset1">
			<data auto_pad="explicit" strides="1,1" dilations="1,1" pads_begin="0,0" pads_end="0,0"/>
			<input>
				<port id="0">
					<dim>1</dim>
					<dim>40</dim>
					<dim>12</dim>
					<dim>20</dim>
				</port>
				<port id="1">
					<dim>120</dim>
					<dim>40</dim>
					<dim>1</dim>
					<dim>1</dim>
				</port>
			</input>
			<output>
				<port id="2" precision="FP32">
					<dim>1</dim>
					<dim>120</dim>
					<dim>12</dim>
					<dim>20</dim>
				</port>
			</output>
		</layer>
		<layer id="120" name="Conv_41/Dims7453" type="Const" version="opset1">
			<data offset="3163860" size="480" shape="1,120,1,1" element_type="f32"/>
			<output>
				<port id="0" precision="FP32">
					<dim>1</dim>
					<dim>120</dim>
					<dim>1</dim>
					<dim>1</dim>
				</port>
			</output>
		</layer>
		<layer id="121" name="Conv_41" type="Add" version="opset1">
			<data auto_broadcast="numpy"/>
			<input>
				<port id="0">
					<dim>1</dim>
					<dim>120</dim>
					<dim>12</dim>
					<dim>20</dim>
				</port>
				<port id="1">
					<dim>1</dim>
					<dim>120</dim>
					<dim>1</dim>
					<dim>1</dim>
				</port>
			</input>
			<output>
				<port id="2" precision="FP32" names="979">
					<dim>1</dim>
					<dim>120</dim>
					<dim>12</dim>
					<dim>20</dim>
				</port>
			</output>
		</layer>
		<layer id="122" name="Relu_42" type="ReLU" version="opset1">
			<input>
				<port id="0">
					<dim>1</dim>
					<dim>120</dim>
					<dim>12</dim>
					<dim>20</dim>
				</port>
			</input>
			<output>
				<port id="1" precision="FP32" names="443">
					<dim>1</dim>
					<dim>120</dim>
					<dim>12</dim>
					<dim>20</dim>
				</port>
			</output>
		</layer>
		<layer id="123" name="983" type="Const" version="opset1">
			<data offset="3164340" size="12000" shape="120,1,1,5,5" element_type="f32"/>
			<output>
				<port id="0" precision="FP32" names="983">
					<dim>120</dim>
					<dim>1</dim>
					<dim>1</dim>
					<dim>5</dim>
					<dim>5</dim>
				</port>
			</output>
		</layer>
		<layer id="124" name="Conv_43/WithoutBiases" type="GroupConvolution" version="opset1">
			<data auto_pad="explicit" strides="1,1" dilations="1,1" pads_begin="2,2" pads_end="2,2"/>
			<input>
				<port id="0">
					<dim>1</dim>
					<dim>120</dim>
					<dim>12</dim>
					<dim>20</dim>
				</port>
				<port id="1">
					<dim>120</dim>
					<dim>1</dim>
					<dim>1</dim>
					<dim>5</dim>
					<dim>5</dim>
				</port>
			</input>
			<output>
				<port id="2" precision="FP32">
					<dim>1</dim>
					<dim>120</dim>
					<dim>12</dim>
					<dim>20</dim>
				</port>
			</output>
		</layer>
		<layer id="125" name="Conv_43/Dims7159" type="Const" version="opset1">
			<data offset="3176340" size="480" shape="1,120,1,1" element_type="f32"/>
			<output>
				<port id="0" precision="FP32">
					<dim>1</dim>
					<dim>120</dim>
					<dim>1</dim>
					<dim>1</dim>
				</port>
			</output>
		</layer>
		<layer id="126" name="Conv_43" type="Add" version="opset1">
			<data auto_broadcast="numpy"/>
			<input>
				<port id="0">
					<dim>1</dim>
					<dim>120</dim>
					<dim>12</dim>
					<dim>20</dim>
				</port>
				<port id="1">
					<dim>1</dim>
					<dim>120</dim>
					<dim>1</dim>
					<dim>1</dim>
				</port>
			</input>
			<output>
				<port id="2" precision="FP32" names="982">
					<dim>1</dim>
					<dim>120</dim>
					<dim>12</dim>
					<dim>20</dim>
				</port>
			</output>
		</layer>
		<layer id="127" name="Relu_44" type="ReLU" version="opset1">
			<input>
				<port id="0">
					<dim>1</dim>
					<dim>120</dim>
					<dim>12</dim>
					<dim>20</dim>
				</port>
			</input>
			<output>
				<port id="1" precision="FP32" names="446">
					<dim>1</dim>
					<dim>120</dim>
					<dim>12</dim>
					<dim>20</dim>
				</port>
			</output>
		</layer>
		<layer id="128" name="HardSigmoid_49/HardSigmoid__input_port_1/value" type="Const" version="opset1">
			<data offset="3111076" size="4" shape="" element_type="f32"/>
			<output>
				<port id="0" precision="FP32"/>
			</output>
		</layer>
		<layer id="129" name="HardSigmoid_49/HardSigmoid__input_port_2/value" type="Const" version="opset1">
			<data offset="3111080" size="4" shape="" element_type="f32"/>
			<output>
				<port id="0" precision="FP32"/>
			</output>
		</layer>
		<layer id="130" name="backbone.features.5.block.2.fc2.weight" type="Const" version="opset1">
			<data offset="3176820" size="15360" shape="120,32,1,1" element_type="f32"/>
			<output>
				<port id="0" precision="FP32" names="backbone.features.5.block.2.fc2.weight">
					<dim>120</dim>
					<dim>32</dim>
					<dim>1</dim>
					<dim>1</dim>
				</port>
			</output>
		</layer>
		<layer id="131" name="backbone.features.5.block.2.fc1.weight" type="Const" version="opset1">
			<data offset="3192180" size="15360" shape="32,120,1,1" element_type="f32"/>
			<output>
				<port id="0" precision="FP32" names="backbone.features.5.block.2.fc1.weight">
					<dim>32</dim>
					<dim>120</dim>
					<dim>1</dim>
					<dim>1</dim>
				</port>
			</output>
		</layer>
		<layer id="132" name="692" type="Const" version="opset1">
			<data offset="3081452" size="8" shape="" element_type="i64"/>
			<output>
				<port id="0" precision="I64"/>
			</output>
		</layer>
		<layer id="133" name="694" type="Const" version="opset1">
			<data offset="3081468" size="8" shape="" element_type="i64"/>
			<output>
				<port id="0" precision="I64"/>
			</output>
		</layer>
		<layer id="134" name="GlobalAveragePool_45/input_rank/shape_of" type="ShapeOf" version="opset3">
			<data output_type="i64"/>
			<input>
				<port id="0">
					<dim>1</dim>
					<dim>120</dim>
					<dim>12</dim>
					<dim>20</dim>
				</port>
			</input>
			<output>
				<port id="1" precision="I64">
					<dim>4</dim>
				</port>
			</output>
		</layer>
		<layer id="135" name="GlobalAveragePool_45/input_rank/rank_of" type="ShapeOf" version="opset3">
			<data output_type="i64"/>
			<input>
				<port id="0">
					<dim>4</dim>
				</port>
			</input>
			<output>
				<port id="1" precision="I64">
					<dim>1</dim>
				</port>
			</output>
		</layer>
		<layer id="136" name="GlobalAveragePool_45/input_rank/0d_rank_of/value" type="Const" version="opset1">
			<data offset="3124908" size="8" shape="1" element_type="i64"/>
			<output>
				<port id="0" precision="I64">
					<dim>1</dim>
				</port>
			</output>
		</layer>
		<layer id="137" name="GlobalAveragePool_45/input_rank" type="Squeeze" version="opset1">
			<input>
				<port id="0">
					<dim>1</dim>
				</port>
				<port id="1">
					<dim>1</dim>
				</port>
			</input>
			<output>
				<port id="2" precision="I64"/>
			</output>
		</layer>
		<layer id="138" name="GlobalAveragePool_45/global_pooling_reduce_axis" type="Range" version="opset4">
			<data output_type="i64"/>
			<input>
				<port id="0"/>
				<port id="1"/>
				<port id="2"/>
			</input>
			<output>
				<port id="3" precision="I64">
					<dim>2</dim>
				</port>
			</output>
		</layer>
		<layer id="139" name="GlobalAveragePool_45/reduce" type="ReduceMean" version="opset1">
			<data keep_dims="true"/>
			<input>
				<port id="0">
					<dim>1</dim>
					<dim>120</dim>
					<dim>12</dim>
					<dim>20</dim>
				</port>
				<port id="1">
					<dim>2</dim>
				</port>
			</input>
			<output>
				<port id="2" precision="FP32" names="447">
					<dim>1</dim>
					<dim>120</dim>
					<dim>1</dim>
					<dim>1</dim>
				</port>
			</output>
		</layer>
		<layer id="140" name="Conv_46/WithoutBiases" type="Convolution" version="opset1">
			<data auto_pad="explicit" strides="1,1" dilations="1,1" pads_begin="0,0" pads_end="0,0"/>
			<input>
				<port id="0">
					<dim>1</dim>
					<dim>120</dim>
					<dim>1</dim>
					<dim>1</dim>
				</port>
				<port id="1">
					<dim>32</dim>
					<dim>120</dim>
					<dim>1</dim>
					<dim>1</dim>
				</port>
			</input>
			<output>
				<port id="2" precision="FP32">
					<dim>1</dim>
					<dim>32</dim>
					<dim>1</dim>
					<dim>1</dim>
				</port>
			</output>
		</layer>
		<layer id="141" name="Conv_46/Dims7345" type="Const" version="opset1">
			<data offset="3207540" size="128" shape="1,32,1,1" element_type="f32"/>
			<output>
				<port id="0" precision="FP32">
					<dim>1</dim>
					<dim>32</dim>
					<dim>1</dim>
					<dim>1</dim>
				</port>
			</output>
		</layer>
		<layer id="142" name="Conv_46" type="Add" version="opset1">
			<data auto_broadcast="numpy"/>
			<input>
				<port id="0">
					<dim>1</dim>
					<dim>32</dim>
					<dim>1</dim>
					<dim>1</dim>
				</port>
				<port id="1">
					<dim>1</dim>
					<dim>32</dim>
					<dim>1</dim>
					<dim>1</dim>
				</port>
			</input>
			<output>
				<port id="2" precision="FP32" names="448">
					<dim>1</dim>
					<dim>32</dim>
					<dim>1</dim>
					<dim>1</dim>
				</port>
			</output>
		</layer>
		<layer id="143" name="Relu_47" type="ReLU" version="opset1">
			<input>
				<port id="0">
					<dim>1</dim>
					<dim>32</dim>
					<dim>1</dim>
					<dim>1</dim>
				</port>
			</input>
			<output>
				<port id="1" precision="FP32" names="449">
					<dim>1</dim>
					<dim>32</dim>
					<dim>1</dim>
					<dim>1</dim>
				</port>
			</output>
		</layer>
		<layer id="144" name="Conv_48/WithoutBiases" type="Convolution" version="opset1">
			<data auto_pad="explicit" strides="1,1" dilations="1,1" pads_begin="0,0" pads_end="0,0"/>
			<input>
				<port id="0">
					<dim>1</dim>
					<dim>32</dim>
					<dim>1</dim>
					<dim>1</dim>
				</port>
				<port id="1">
					<dim>120</dim>
					<dim>32</dim>
					<dim>1</dim>
					<dim>1</dim>
				</port>
			</input>
			<output>
				<port id="2" precision="FP32">
					<dim>1</dim>
					<dim>120</dim>
					<dim>1</dim>
					<dim>1</dim>
				</port>
			</output>
		</layer>
		<layer id="145" name="Conv_48/Dims7291" type="Const" version="opset1">
			<data offset="3207668" size="480" shape="1,120,1,1" element_type="f32"/>
			<output>
				<port id="0" precision="FP32">
					<dim>1</dim>
					<dim>120</dim>
					<dim>1</dim>
					<dim>1</dim>
				</port>
			</output>
		</layer>
		<layer id="146" name="Conv_48" type="Add" version="opset1">
			<data auto_broadcast="numpy"/>
			<input>
				<port id="0">
					<dim>1</dim>
					<dim>120</dim>
					<dim>1</dim>
					<dim>1</dim>
				</port>
				<port id="1">
					<dim>1</dim>
					<dim>120</dim>
					<dim>1</dim>
					<dim>1</dim>
				</port>
			</input>
			<output>
				<port id="2" precision="FP32" names="450">
					<dim>1</dim>
					<dim>120</dim>
					<dim>1</dim>
					<dim>1</dim>
				</port>
			</output>
		</layer>
		<layer id="147" name="HardSigmoid_49/HardSigmoid_" type="HardSigmoid" version="opset1">
			<input>
				<port id="0">
					<dim>1</dim>
					<dim>120</dim>
					<dim>1</dim>
					<dim>1</dim>
				</port>
				<port id="1"/>
				<port id="2"/>
			</input>
			<output>
				<port id="3" precision="FP32" names="451">
					<dim>1</dim>
					<dim>120</dim>
					<dim>1</dim>
					<dim>1</dim>
				</port>
			</output>
		</layer>
		<layer id="148" name="Mul_50" type="Multiply" version="opset1">
			<data auto_broadcast="numpy"/>
			<input>
				<port id="0">
					<dim>1</dim>
					<dim>120</dim>
					<dim>1</dim>
					<dim>1</dim>
				</port>
				<port id="1">
					<dim>1</dim>
					<dim>120</dim>
					<dim>12</dim>
					<dim>20</dim>
				</port>
			</input>
			<output>
				<port id="2" precision="FP32" names="452">
					<dim>1</dim>
					<dim>120</dim>
					<dim>12</dim>
					<dim>20</dim>
				</port>
			</output>
		</layer>
		<layer id="149" name="Conv_51/WithoutBiases" type="Convolution" version="opset1">
			<data auto_pad="explicit" strides="1,1" dilations="1,1" pads_begin="0,0" pads_end="0,0"/>
			<input>
				<port id="0">
					<dim>1</dim>
					<dim>120</dim>
					<dim>12</dim>
					<dim>20</dim>
				</port>
				<port id="1">
					<dim>40</dim>
					<dim>120</dim>
					<dim>1</dim>
					<dim>1</dim>
				</port>
			</input>
			<output>
				<port id="2" precision="FP32">
					<dim>1</dim>
					<dim>40</dim>
					<dim>12</dim>
					<dim>20</dim>
				</port>
			</output>
		</layer>
		<layer id="150" name="Conv_51/Dims7507" type="Const" version="opset1">
			<data offset="3208148" size="160" shape="1,40,1,1" element_type="f32"/>
			<output>
				<port id="0" precision="FP32">
					<dim>1</dim>
					<dim>40</dim>
					<dim>1</dim>
					<dim>1</dim>
				</port>
			</output>
		</layer>
		<layer id="151" name="Conv_51" type="Add" version="opset1">
			<data auto_broadcast="numpy"/>
			<input>
				<port id="0">
					<dim>1</dim>
					<dim>40</dim>
					<dim>12</dim>
					<dim>20</dim>
				</port>
				<port id="1">
					<dim>1</dim>
					<dim>40</dim>
					<dim>1</dim>
					<dim>1</dim>
				</port>
			</input>
			<output>
				<port id="2" precision="FP32" names="985">
					<dim>1</dim>
					<dim>40</dim>
					<dim>12</dim>
					<dim>20</dim>
				</port>
			</output>
		</layer>
		<layer id="152" name="Add_52" type="Add" version="opset1">
			<data auto_broadcast="numpy"/>
			<input>
				<port id="0">
					<dim>1</dim>
					<dim>40</dim>
					<dim>12</dim>
					<dim>20</dim>
				</port>
				<port id="1">
					<dim>1</dim>
					<dim>40</dim>
					<dim>12</dim>
					<dim>20</dim>
				</port>
			</input>
			<output>
				<port id="2" precision="FP32" names="455">
					<dim>1</dim>
					<dim>40</dim>
					<dim>12</dim>
					<dim>20</dim>
				</port>
			</output>
		</layer>
		<layer id="153" name="995" type="Const" version="opset1">
			<data offset="3208308" size="19200" shape="40,120,1,1" element_type="f32"/>
			<output>
				<port id="0" precision="FP32" names="995">
					<dim>40</dim>
					<dim>120</dim>
					<dim>1</dim>
					<dim>1</dim>
				</port>
			</output>
		</layer>
		<layer id="154" name="989" type="Const" version="opset1">
			<data offset="3227508" size="19200" shape="120,40,1,1" element_type="f32"/>
			<output>
				<port id="0" precision="FP32" names="989">
					<dim>120</dim>
					<dim>40</dim>
					<dim>1</dim>
					<dim>1</dim>
				</port>
			</output>
		</layer>
		<layer id="155" name="Conv_53/WithoutBiases" type="Convolution" version="opset1">
			<data auto_pad="explicit" strides="1,1" dilations="1,1" pads_begin="0,0" pads_end="0,0"/>
			<input>
				<port id="0">
					<dim>1</dim>
					<dim>40</dim>
					<dim>12</dim>
					<dim>20</dim>
				</port>
				<port id="1">
					<dim>120</dim>
					<dim>40</dim>
					<dim>1</dim>
					<dim>1</dim>
				</port>
			</input>
			<output>
				<port id="2" precision="FP32">
					<dim>1</dim>
					<dim>120</dim>
					<dim>12</dim>
					<dim>20</dim>
				</port>
			</output>
		</layer>
		<layer id="156" name="Conv_53/Dims7195" type="Const" version="opset1">
			<data offset="3246708" size="480" shape="1,120,1,1" element_type="f32"/>
			<output>
				<port id="0" precision="FP32">
					<dim>1</dim>
					<dim>120</dim>
					<dim>1</dim>
					<dim>1</dim>
				</port>
			</output>
		</layer>
		<layer id="157" name="Conv_53" type="Add" version="opset1">
			<data auto_broadcast="numpy"/>
			<input>
				<port id="0">
					<dim>1</dim>
					<dim>120</dim>
					<dim>12</dim>
					<dim>20</dim>
				</port>
				<port id="1">
					<dim>1</dim>
					<dim>120</dim>
					<dim>1</dim>
					<dim>1</dim>
				</port>
			</input>
			<output>
				<port id="2" precision="FP32" names="988">
					<dim>1</dim>
					<dim>120</dim>
					<dim>12</dim>
					<dim>20</dim>
				</port>
			</output>
		</layer>
		<layer id="158" name="Relu_54" type="ReLU" version="opset1">
			<input>
				<port id="0">
					<dim>1</dim>
					<dim>120</dim>
					<dim>12</dim>
					<dim>20</dim>
				</port>
			</input>
			<output>
				<port id="1" precision="FP32" names="458">
					<dim>1</dim>
					<dim>120</dim>
					<dim>12</dim>
					<dim>20</dim>
				</port>
			</output>
		</layer>
		<layer id="159" name="992" type="Const" version="opset1">
			<data offset="3247188" size="12000" shape="120,1,1,5,5" element_type="f32"/>
			<output>
				<port id="0" precision="FP32" names="992">
					<dim>120</dim>
					<dim>1</dim>
					<dim>1</dim>
					<dim>5</dim>
					<dim>5</dim>
				</port>
			</output>
		</layer>
		<layer id="160" name="Conv_55/WithoutBiases" type="GroupConvolution" version="opset1">
			<data auto_pad="explicit" strides="1,1" dilations="1,1" pads_begin="2,2" pads_end="2,2"/>
			<input>
				<port id="0">
					<dim>1</dim>
					<dim>120</dim>
					<dim>12</dim>
					<dim>20</dim>
				</port>
				<port id="1">
					<dim>120</dim>
					<dim>1</dim>
					<dim>1</dim>
					<dim>5</dim>
					<dim>5</dim>
				</port>
			</input>
			<output>
				<port id="2" precision="FP32">
					<dim>1</dim>
					<dim>120</dim>
					<dim>12</dim>
					<dim>20</dim>
				</port>
			</output>
		</layer>
		<layer id="161" name="Conv_55/Dims7213" type="Const" version="opset1">
			<data offset="3259188" size="480" shape="1,120,1,1" element_type="f32"/>
			<output>
				<port id="0" precision="FP32">
					<dim>1</dim>
					<dim>120</dim>
					<dim>1</dim>
					<dim>1</dim>
				</port>
			</output>
		</layer>
		<layer id="162" name="Conv_55" type="Add" version="opset1">
			<data auto_broadcast="numpy"/>
			<input>
				<port id="0">
					<dim>1</dim>
					<dim>120</dim>
					<dim>12</dim>
					<dim>20</dim>
				</port>
				<port id="1">
					<dim>1</dim>
					<dim>120</dim>
					<dim>1</dim>
					<dim>1</dim>
				</port>
			</input>
			<output>
				<port id="2" precision="FP32" names="991">
					<dim>1</dim>
					<dim>120</dim>
					<dim>12</dim>
					<dim>20</dim>
				</port>
			</output>
		</layer>
		<layer id="163" name="Relu_56" type="ReLU" version="opset1">
			<input>
				<port id="0">
					<dim>1</dim>
					<dim>120</dim>
					<dim>12</dim>
					<dim>20</dim>
				</port>
			</input>
			<output>
				<port id="1" precision="FP32" names="461">
					<dim>1</dim>
					<dim>120</dim>
					<dim>12</dim>
					<dim>20</dim>
				</port>
			</output>
		</layer>
		<layer id="164" name="HardSigmoid_61/HardSigmoid__input_port_1/value" type="Const" version="opset1">
			<data offset="3111076" size="4" shape="" element_type="f32"/>
			<output>
				<port id="0" precision="FP32"/>
			</output>
		</layer>
		<layer id="165" name="HardSigmoid_61/HardSigmoid__input_port_2/value" type="Const" version="opset1">
			<data offset="3111080" size="4" shape="" element_type="f32"/>
			<output>
				<port id="0" precision="FP32"/>
			</output>
		</layer>
		<layer id="166" name="backbone.features.6.block.2.fc2.weight" type="Const" version="opset1">
			<data offset="3259668" size="15360" shape="120,32,1,1" element_type="f32"/>
			<output>
				<port id="0" precision="FP32" names="backbone.features.6.block.2.fc2.weight">
					<dim>120</dim>
					<dim>32</dim>
					<dim>1</dim>
					<dim>1</dim>
				</port>
			</output>
		</layer>
		<layer id="167" name="backbone.features.6.block.2.fc1.weight" type="Const" version="opset1">
			<data offset="3275028" size="15360" shape="32,120,1,1" element_type="f32"/>
			<output>
				<port id="0" precision="FP32" names="backbone.features.6.block.2.fc1.weight">
					<dim>32</dim>
					<dim>120</dim>
					<dim>1</dim>
					<dim>1</dim>
				</port>
			</output>
		</layer>
		<layer id="168" name="697" type="Const" version="opset1">
			<data offset="3081452" size="8" shape="" element_type="i64"/>
			<output>
				<port id="0" precision="I64"/>
			</output>
		</layer>
		<layer id="169" name="699" type="Const" version="opset1">
			<data offset="3081468" size="8" shape="" element_type="i64"/>
			<output>
				<port id="0" precision="I64"/>
			</output>
		</layer>
		<layer id="170" name="GlobalAveragePool_57/input_rank/shape_of" type="ShapeOf" version="opset3">
			<data output_type="i64"/>
			<input>
				<port id="0">
					<dim>1</dim>
					<dim>120</dim>
					<dim>12</dim>
					<dim>20</dim>
				</port>
			</input>
			<output>
				<port id="1" precision="I64">
					<dim>4</dim>
				</port>
			</output>
		</layer>
		<layer id="171" name="GlobalAveragePool_57/input_rank/rank_of" type="ShapeOf" version="opset3">
			<data output_type="i64"/>
			<input>
				<port id="0">
					<dim>4</dim>
				</port>
			</input>
			<output>
				<port id="1" precision="I64">
					<dim>1</dim>
				</port>
			</output>
		</layer>
		<layer id="172" name="GlobalAveragePool_57/input_rank/0d_rank_of/value" type="Const" version="opset1">
			<data offset="3124908" size="8" shape="1" element_type="i64"/>
			<output>
				<port id="0" precision="I64">
					<dim>1</dim>
				</port>
			</output>
		</layer>
		<layer id="173" name="GlobalAveragePool_57/input_rank" type="Squeeze" version="opset1">
			<input>
				<port id="0">
					<dim>1</dim>
				</port>
				<port id="1">
					<dim>1</dim>
				</port>
			</input>
			<output>
				<port id="2" precision="I64"/>
			</output>
		</layer>
		<layer id="174" name="GlobalAveragePool_57/global_pooling_reduce_axis" type="Range" version="opset4">
			<data output_type="i64"/>
			<input>
				<port id="0"/>
				<port id="1"/>
				<port id="2"/>
			</input>
			<output>
				<port id="3" precision="I64">
					<dim>2</dim>
				</port>
			</output>
		</layer>
		<layer id="175" name="GlobalAveragePool_57/reduce" type="ReduceMean" version="opset1">
			<data keep_dims="true"/>
			<input>
				<port id="0">
					<dim>1</dim>
					<dim>120</dim>
					<dim>12</dim>
					<dim>20</dim>
				</port>
				<port id="1">
					<dim>2</dim>
				</port>
			</input>
			<output>
				<port id="2" precision="FP32" names="462">
					<dim>1</dim>
					<dim>120</dim>
					<dim>1</dim>
					<dim>1</dim>
				</port>
			</output>
		</layer>
		<layer id="176" name="Conv_58/WithoutBiases" type="Convolution" version="opset1">
			<data auto_pad="explicit" strides="1,1" dilations="1,1" pads_begin="0,0" pads_end="0,0"/>
			<input>
				<port id="0">
					<dim>1</dim>
					<dim>120</dim>
					<dim>1</dim>
					<dim>1</dim>
				</port>
				<port id="1">
					<dim>32</dim>
					<dim>120</dim>
					<dim>1</dim>
					<dim>1</dim>
				</port>
			</input>
			<output>
				<port id="2" precision="FP32">
					<dim>1</dim>
					<dim>32</dim>
					<dim>1</dim>
					<dim>1</dim>
				</port>
			</output>
		</layer>
		<layer id="177" name="Conv_58/Dims7075" type="Const" version="opset1">
			<data offset="3290388" size="128" shape="1,32,1,1" element_type="f32"/>
			<output>
				<port id="0" precision="FP32">
					<dim>1</dim>
					<dim>32</dim>
					<dim>1</dim>
					<dim>1</dim>
				</port>
			</output>
		</layer>
		<layer id="178" name="Conv_58" type="Add" version="opset1">
			<data auto_broadcast="numpy"/>
			<input>
				<port id="0">
					<dim>1</dim>
					<dim>32</dim>
					<dim>1</dim>
					<dim>1</dim>
				</port>
				<port id="1">
					<dim>1</dim>
					<dim>32</dim>
					<dim>1</dim>
					<dim>1</dim>
				</port>
			</input>
			<output>
				<port id="2" precision="FP32" names="463">
					<dim>1</dim>
					<dim>32</dim>
					<dim>1</dim>
					<dim>1</dim>
				</port>
			</output>
		</layer>
		<layer id="179" name="Relu_59" type="ReLU" version="opset1">
			<input>
				<port id="0">
					<dim>1</dim>
					<dim>32</dim>
					<dim>1</dim>
					<dim>1</dim>
				</port>
			</input>
			<output>
				<port id="1" precision="FP32" names="464">
					<dim>1</dim>
					<dim>32</dim>
					<dim>1</dim>
					<dim>1</dim>
				</port>
			</output>
		</layer>
		<layer id="180" name="Conv_60/WithoutBiases" type="Convolution" version="opset1">
			<data auto_pad="explicit" strides="1,1" dilations="1,1" pads_begin="0,0" pads_end="0,0"/>
			<input>
				<port id="0">
					<dim>1</dim>
					<dim>32</dim>
					<dim>1</dim>
					<dim>1</dim>
				</port>
				<port id="1">
					<dim>120</dim>
					<dim>32</dim>
					<dim>1</dim>
					<dim>1</dim>
				</port>
			</input>
			<output>
				<port id="2" precision="FP32">
					<dim>1</dim>
					<dim>120</dim>
					<dim>1</dim>
					<dim>1</dim>
				</port>
			</output>
		</layer>
		<layer id="181" name="Conv_60/Dims7471" type="Const" version="opset1">
			<data offset="3290516" size="480" shape="1,120,1,1" element_type="f32"/>
			<output>
				<port id="0" precision="FP32">
					<dim>1</dim>
					<dim>120</dim>
					<dim>1</dim>
					<dim>1</dim>
				</port>
			</output>
		</layer>
		<layer id="182" name="Conv_60" type="Add" version="opset1">
			<data auto_broadcast="numpy"/>
			<input>
				<port id="0">
					<dim>1</dim>
					<dim>120</dim>
					<dim>1</dim>
					<dim>1</dim>
				</port>
				<port id="1">
					<dim>1</dim>
					<dim>120</dim>
					<dim>1</dim>
					<dim>1</dim>
				</port>
			</input>
			<output>
				<port id="2" precision="FP32" names="465">
					<dim>1</dim>
					<dim>120</dim>
					<dim>1</dim>
					<dim>1</dim>
				</port>
			</output>
		</layer>
		<layer id="183" name="HardSigmoid_61/HardSigmoid_" type="HardSigmoid" version="opset1">
			<input>
				<port id="0">
					<dim>1</dim>
					<dim>120</dim>
					<dim>1</dim>
					<dim>1</dim>
				</port>
				<port id="1"/>
				<port id="2"/>
			</input>
			<output>
				<port id="3" precision="FP32" names="466">
					<dim>1</dim>
					<dim>120</dim>
					<dim>1</dim>
					<dim>1</dim>
				</port>
			</output>
		</layer>
		<layer id="184" name="Mul_62" type="Multiply" version="opset1">
			<data auto_broadcast="numpy"/>
			<input>
				<port id="0">
					<dim>1</dim>
					<dim>120</dim>
					<dim>1</dim>
					<dim>1</dim>
				</port>
				<port id="1">
					<dim>1</dim>
					<dim>120</dim>
					<dim>12</dim>
					<dim>20</dim>
				</port>
			</input>
			<output>
				<port id="2" precision="FP32" names="467">
					<dim>1</dim>
					<dim>120</dim>
					<dim>12</dim>
					<dim>20</dim>
				</port>
			</output>
		</layer>
		<layer id="185" name="Conv_63/WithoutBiases" type="Convolution" version="opset1">
			<data auto_pad="explicit" strides="1,1" dilations="1,1" pads_begin="0,0" pads_end="0,0"/>
			<input>
				<port id="0">
					<dim>1</dim>
					<dim>120</dim>
					<dim>12</dim>
					<dim>20</dim>
				</port>
				<port id="1">
					<dim>40</dim>
					<dim>120</dim>
					<dim>1</dim>
					<dim>1</dim>
				</port>
			</input>
			<output>
				<port id="2" precision="FP32">
					<dim>1</dim>
					<dim>40</dim>
					<dim>12</dim>
					<dim>20</dim>
				</port>
			</output>
		</layer>
		<layer id="186" name="Conv_63/Dims7231" type="Const" version="opset1">
			<data offset="3290996" size="160" shape="1,40,1,1" element_type="f32"/>
			<output>
				<port id="0" precision="FP32">
					<dim>1</dim>
					<dim>40</dim>
					<dim>1</dim>
					<dim>1</dim>
				</port>
			</output>
		</layer>
		<layer id="187" name="Conv_63" type="Add" version="opset1">
			<data auto_broadcast="numpy"/>
			<input>
				<port id="0">
					<dim>1</dim>
					<dim>40</dim>
					<dim>12</dim>
					<dim>20</dim>
				</port>
				<port id="1">
					<dim>1</dim>
					<dim>40</dim>
					<dim>1</dim>
					<dim>1</dim>
				</port>
			</input>
			<output>
				<port id="2" precision="FP32" names="994">
					<dim>1</dim>
					<dim>40</dim>
					<dim>12</dim>
					<dim>20</dim>
				</port>
			</output>
		</layer>
		<layer id="188" name="Add_64" type="Add" version="opset1">
			<data auto_broadcast="numpy"/>
			<input>
				<port id="0">
					<dim>1</dim>
					<dim>40</dim>
					<dim>12</dim>
					<dim>20</dim>
				</port>
				<port id="1">
					<dim>1</dim>
					<dim>40</dim>
					<dim>12</dim>
					<dim>20</dim>
				</port>
			</input>
			<output>
				<port id="2" precision="FP32" names="470">
					<dim>1</dim>
					<dim>40</dim>
					<dim>12</dim>
					<dim>20</dim>
				</port>
			</output>
		</layer>
		<layer id="189" name="Conv_65/WithoutBiases" type="Convolution" version="opset1">
			<data auto_pad="explicit" strides="1,1" dilations="1,1" pads_begin="0,0" pads_end="0,0"/>
			<input>
				<port id="0">
					<dim>1</dim>
					<dim>40</dim>
					<dim>12</dim>
					<dim>20</dim>
				</port>
				<port id="1">
					<dim>240</dim>
					<dim>40</dim>
					<dim>1</dim>
					<dim>1</dim>
				</port>
			</input>
			<output>
				<port id="2" precision="FP32">
					<dim>1</dim>
					<dim>240</dim>
					<dim>12</dim>
					<dim>20</dim>
				</port>
			</output>
		</layer>
		<layer id="190" name="Conv_65/Dims7465" type="Const" version="opset1">
			<data offset="3291156" size="960" shape="1,240,1,1" element_type="f32"/>
			<output>
				<port id="0" precision="FP32">
					<dim>1</dim>
					<dim>240</dim>
					<dim>1</dim>
					<dim>1</dim>
				</port>
			</output>
		</layer>
		<layer id="191" name="Conv_65" type="Add" version="opset1">
			<data auto_broadcast="numpy"/>
			<input>
				<port id="0">
					<dim>1</dim>
					<dim>240</dim>
					<dim>12</dim>
					<dim>20</dim>
				</port>
				<port id="1">
					<dim>1</dim>
					<dim>240</dim>
					<dim>1</dim>
					<dim>1</dim>
				</port>
			</input>
			<output>
				<port id="2" precision="FP32" names="997">
					<dim>1</dim>
					<dim>240</dim>
					<dim>12</dim>
					<dim>20</dim>
				</port>
			</output>
		</layer>
		<layer id="192" name="Constant_71" type="Const" version="opset1">
			<data offset="3292116" size="4" shape="1,1,1,1" element_type="f32"/>
			<output>
				<port id="0" precision="FP32" names="478">
					<dim>1</dim>
					<dim>1</dim>
					<dim>1</dim>
					<dim>1</dim>
				</port>
			</output>
		</layer>
		<layer id="193" name="Constant_66" type="Const" version="opset1">
			<data offset="3081568" size="4" shape="1,1,1,1" element_type="f32"/>
			<output>
				<port id="0" precision="FP32" names="473">
					<dim>1</dim>
					<dim>1</dim>
					<dim>1</dim>
					<dim>1</dim>
				</port>
			</output>
		</layer>
		<layer id="194" name="Add_67" type="Add" version="opset1">
			<data auto_broadcast="numpy"/>
			<input>
				<port id="0">
					<dim>1</dim>
					<dim>240</dim>
					<dim>12</dim>
					<dim>20</dim>
				</port>
				<port id="1">
					<dim>1</dim>
					<dim>1</dim>
					<dim>1</dim>
					<dim>1</dim>
				</port>
			</input>
			<output>
				<port id="2" precision="FP32" names="474">
					<dim>1</dim>
					<dim>240</dim>
					<dim>12</dim>
					<dim>20</dim>
				</port>
			</output>
		</layer>
		<layer id="195" name="Clip_70" type="Clamp" version="opset1">
			<data max="6.0" min="0.0"/>
			<input>
				<port id="0">
					<dim>1</dim>
					<dim>240</dim>
					<dim>12</dim>
					<dim>20</dim>
				</port>
			</input>
			<output>
				<port id="1" precision="FP32" names="477">
					<dim>1</dim>
					<dim>240</dim>
					<dim>12</dim>
					<dim>20</dim>
				</port>
			</output>
		</layer>
		<layer id="196" name="Div_72" type="Multiply" version="opset1">
			<data auto_broadcast="numpy"/>
			<input>
				<port id="0">
					<dim>1</dim>
					<dim>240</dim>
					<dim>12</dim>
					<dim>20</dim>
				</port>
				<port id="1">
					<dim>1</dim>
					<dim>1</dim>
					<dim>1</dim>
					<dim>1</dim>
				</port>
			</input>
			<output>
				<port id="2" precision="FP32" names="479">
					<dim>1</dim>
					<dim>240</dim>
					<dim>12</dim>
					<dim>20</dim>
				</port>
			</output>
		</layer>
		<layer id="197" name="Mul_73" type="Multiply" version="opset1">
			<data auto_broadcast="numpy"/>
			<input>
				<port id="0">
					<dim>1</dim>
					<dim>240</dim>
					<dim>12</dim>
					<dim>20</dim>
				</port>
				<port id="1">
					<dim>1</dim>
					<dim>240</dim>
					<dim>12</dim>
					<dim>20</dim>
				</port>
			</input>
			<output>
				<port id="2" precision="FP32" names="480">
					<dim>1</dim>
					<dim>240</dim>
					<dim>12</dim>
					<dim>20</dim>
				</port>
			</output>
		</layer>
		<layer id="198" name="1001" type="Const" version="opset1">
			<data offset="3292120" size="8640" shape="240,1,1,3,3" element_type="f32"/>
			<output>
				<port id="0" precision="FP32" names="1001">
					<dim>240</dim>
					<dim>1</dim>
					<dim>1</dim>
					<dim>3</dim>
					<dim>3</dim>
				</port>
			</output>
		</layer>
		<layer id="199" name="Conv_74/WithoutBiases" type="GroupConvolution" version="opset1">
			<data auto_pad="explicit" strides="2,2" dilations="1,1" pads_begin="1,1" pads_end="1,1"/>
			<input>
				<port id="0">
					<dim>1</dim>
					<dim>240</dim>
					<dim>12</dim>
					<dim>20</dim>
				</port>
				<port id="1">
					<dim>240</dim>
					<dim>1</dim>
					<dim>1</dim>
					<dim>3</dim>
					<dim>3</dim>
				</port>
			</input>
			<output>
				<port id="2" precision="FP32">
					<dim>1</dim>
					<dim>240</dim>
					<dim>6</dim>
					<dim>10</dim>
				</port>
			</output>
		</layer>
		<layer id="200" name="Conv_74/Dims7141" type="Const" version="opset1">
			<data offset="3300760" size="960" shape="1,240,1,1" element_type="f32"/>
			<output>
				<port id="0" precision="FP32">
					<dim>1</dim>
					<dim>240</dim>
					<dim>1</dim>
					<dim>1</dim>
				</port>
			</output>
		</layer>
		<layer id="201" name="Conv_74" type="Add" version="opset1">
			<data auto_broadcast="numpy"/>
			<input>
				<port id="0">
					<dim>1</dim>
					<dim>240</dim>
					<dim>6</dim>
					<dim>10</dim>
				</port>
				<port id="1">
					<dim>1</dim>
					<dim>240</dim>
					<dim>1</dim>
					<dim>1</dim>
				</port>
			</input>
			<output>
				<port id="2" precision="FP32" names="1000">
					<dim>1</dim>
					<dim>240</dim>
					<dim>6</dim>
					<dim>10</dim>
				</port>
			</output>
		</layer>
		<layer id="202" name="Constant_80" type="Const" version="opset1">
			<data offset="3292116" size="4" shape="1,1,1,1" element_type="f32"/>
			<output>
				<port id="0" precision="FP32" names="488">
					<dim>1</dim>
					<dim>1</dim>
					<dim>1</dim>
					<dim>1</dim>
				</port>
			</output>
		</layer>
		<layer id="203" name="Constant_75" type="Const" version="opset1">
			<data offset="3081568" size="4" shape="1,1,1,1" element_type="f32"/>
			<output>
				<port id="0" precision="FP32" names="483">
					<dim>1</dim>
					<dim>1</dim>
					<dim>1</dim>
					<dim>1</dim>
				</port>
			</output>
		</layer>
		<layer id="204" name="Add_76" type="Add" version="opset1">
			<data auto_broadcast="numpy"/>
			<input>
				<port id="0">
					<dim>1</dim>
					<dim>240</dim>
					<dim>6</dim>
					<dim>10</dim>
				</port>
				<port id="1">
					<dim>1</dim>
					<dim>1</dim>
					<dim>1</dim>
					<dim>1</dim>
				</port>
			</input>
			<output>
				<port id="2" precision="FP32" names="484">
					<dim>1</dim>
					<dim>240</dim>
					<dim>6</dim>
					<dim>10</dim>
				</port>
			</output>
		</layer>
		<layer id="205" name="Clip_79" type="Clamp" version="opset1">
			<data max="6.0" min="0.0"/>
			<input>
				<port id="0">
					<dim>1</dim>
					<dim>240</dim>
					<dim>6</dim>
					<dim>10</dim>
				</port>
			</input>
			<output>
				<port id="1" precision="FP32" names="487">
					<dim>1</dim>
					<dim>240</dim>
					<dim>6</dim>
					<dim>10</dim>
				</port>
			</output>
		</layer>
		<layer id="206" name="Div_81" type="Multiply" version="opset1">
			<data auto_broadcast="numpy"/>
			<input>
				<port id="0">
					<dim>1</dim>
					<dim>240</dim>
					<dim>6</dim>
					<dim>10</dim>
				</port>
				<port id="1">
					<dim>1</dim>
					<dim>1</dim>
					<dim>1</dim>
					<dim>1</dim>
				</port>
			</input>
			<output>
				<port id="2" precision="FP32" names="489">
					<dim>1</dim>
					<dim>240</dim>
					<dim>6</dim>
					<dim>10</dim>
				</port>
			</output>
		</layer>
		<layer id="207" name="Mul_82" type="Multiply" version="opset1">
			<data auto_broadcast="numpy"/>
			<input>
				<port id="0">
					<dim>1</dim>
					<dim>240</dim>
					<dim>6</dim>
					<dim>10</dim>
				</port>
				<port id="1">
					<dim>1</dim>
					<dim>240</dim>
					<dim>6</dim>
					<dim>10</dim>
				</port>
			</input>
			<output>
				<port id="2" precision="FP32" names="490">
					<dim>1</dim>
					<dim>240</dim>
					<dim>6</dim>
					<dim>10</dim>
				</port>
			</output>
		</layer>
		<layer id="208" name="Conv_83/WithoutBiases" type="Convolution" version="opset1">
			<data auto_pad="explicit" strides="1,1" dilations="1,1" pads_begin="0,0" pads_end="0,0"/>
			<input>
				<port id="0">
					<dim>1</dim>
					<dim>240</dim>
					<dim>6</dim>
					<dim>10</dim>
				</port>
				<port id="1">
					<dim>80</dim>
					<dim>240</dim>
					<dim>1</dim>
					<dim>1</dim>
				</port>
			</input>
			<output>
				<port id="2" precision="FP32">
					<dim>1</dim>
					<dim>80</dim>
					<dim>6</dim>
					<dim>10</dim>
				</port>
			</output>
		</layer>
		<layer id="209" name="Conv_83/Dims7447" type="Const" version="opset1">
			<data offset="3301720" size="320" shape="1,80,1,1" element_type="f32"/>
			<output>
				<port id="0" precision="FP32">
					<dim>1</dim>
					<dim>80</dim>
					<dim>1</dim>
					<dim>1</dim>
				</port>
			</output>
		</layer>
		<layer id="210" name="Conv_83" type="Add" version="opset1">
			<data auto_broadcast="numpy"/>
			<input>
				<port id="0">
					<dim>1</dim>
					<dim>80</dim>
					<dim>6</dim>
					<dim>10</dim>
				</port>
				<port id="1">
					<dim>1</dim>
					<dim>80</dim>
					<dim>1</dim>
					<dim>1</dim>
				</port>
			</input>
			<output>
				<port id="2" precision="FP32" names="1003">
					<dim>1</dim>
					<dim>80</dim>
					<dim>6</dim>
					<dim>10</dim>
				</port>
			</output>
		</layer>
		<layer id="211" name="Conv_84/WithoutBiases" type="Convolution" version="opset1">
			<data auto_pad="explicit" strides="1,1" dilations="1,1" pads_begin="0,0" pads_end="0,0"/>
			<input>
				<port id="0">
					<dim>1</dim>
					<dim>80</dim>
					<dim>6</dim>
					<dim>10</dim>
				</port>
				<port id="1">
					<dim>200</dim>
					<dim>80</dim>
					<dim>1</dim>
					<dim>1</dim>
				</port>
			</input>
			<output>
				<port id="2" precision="FP32">
					<dim>1</dim>
					<dim>200</dim>
					<dim>6</dim>
					<dim>10</dim>
				</port>
			</output>
		</layer>
		<layer id="212" name="Conv_84/Dims7057" type="Const" version="opset1">
			<data offset="3302040" size="800" shape="1,200,1,1" element_type="f32"/>
			<output>
				<port id="0" precision="FP32">
					<dim>1</dim>
					<dim>200</dim>
					<dim>1</dim>
					<dim>1</dim>
				</port>
			</output>
		</layer>
		<layer id="213" name="Conv_84" type="Add" version="opset1">
			<data auto_broadcast="numpy"/>
			<input>
				<port id="0">
					<dim>1</dim>
					<dim>200</dim>
					<dim>6</dim>
					<dim>10</dim>
				</port>
				<port id="1">
					<dim>1</dim>
					<dim>200</dim>
					<dim>1</dim>
					<dim>1</dim>
				</port>
			</input>
			<output>
				<port id="2" precision="FP32" names="1006">
					<dim>1</dim>
					<dim>200</dim>
					<dim>6</dim>
					<dim>10</dim>
				</port>
			</output>
		</layer>
		<layer id="214" name="Constant_90" type="Const" version="opset1">
			<data offset="3292116" size="4" shape="1,1,1,1" element_type="f32"/>
			<output>
				<port id="0" precision="FP32" names="500">
					<dim>1</dim>
					<dim>1</dim>
					<dim>1</dim>
					<dim>1</dim>
				</port>
			</output>
		</layer>
		<layer id="215" name="Constant_85" type="Const" version="opset1">
			<data offset="3081568" size="4" shape="1,1,1,1" element_type="f32"/>
			<output>
				<port id="0" precision="FP32" names="495">
					<dim>1</dim>
					<dim>1</dim>
					<dim>1</dim>
					<dim>1</dim>
				</port>
			</output>
		</layer>
		<layer id="216" name="Add_86" type="Add" version="opset1">
			<data auto_broadcast="numpy"/>
			<input>
				<port id="0">
					<dim>1</dim>
					<dim>200</dim>
					<dim>6</dim>
					<dim>10</dim>
				</port>
				<port id="1">
					<dim>1</dim>
					<dim>1</dim>
					<dim>1</dim>
					<dim>1</dim>
				</port>
			</input>
			<output>
				<port id="2" precision="FP32" names="496">
					<dim>1</dim>
					<dim>200</dim>
					<dim>6</dim>
					<dim>10</dim>
				</port>
			</output>
		</layer>
		<layer id="217" name="Clip_89" type="Clamp" version="opset1">
			<data max="6.0" min="0.0"/>
			<input>
				<port id="0">
					<dim>1</dim>
					<dim>200</dim>
					<dim>6</dim>
					<dim>10</dim>
				</port>
			</input>
			<output>
				<port id="1" precision="FP32" names="499">
					<dim>1</dim>
					<dim>200</dim>
					<dim>6</dim>
					<dim>10</dim>
				</port>
			</output>
		</layer>
		<layer id="218" name="Div_91" type="Multiply" version="opset1">
			<data auto_broadcast="numpy"/>
			<input>
				<port id="0">
					<dim>1</dim>
					<dim>200</dim>
					<dim>6</dim>
					<dim>10</dim>
				</port>
				<port id="1">
					<dim>1</dim>
					<dim>1</dim>
					<dim>1</dim>
					<dim>1</dim>
				</port>
			</input>
			<output>
				<port id="2" precision="FP32" names="501">
					<dim>1</dim>
					<dim>200</dim>
					<dim>6</dim>
					<dim>10</dim>
				</port>
			</output>
		</layer>
		<layer id="219" name="Mul_92" type="Multiply" version="opset1">
			<data auto_broadcast="numpy"/>
			<input>
				<port id="0">
					<dim>1</dim>
					<dim>200</dim>
					<dim>6</dim>
					<dim>10</dim>
				</port>
				<port id="1">
					<dim>1</dim>
					<dim>200</dim>
					<dim>6</dim>
					<dim>10</dim>
				</port>
			</input>
			<output>
				<port id="2" precision="FP32" names="502">
					<dim>1</dim>
					<dim>200</dim>
					<dim>6</dim>
					<dim>10</dim>
				</port>
			</output>
		</layer>
		<layer id="220" name="1010" type="Const" version="opset1">
			<data offset="3302840" size="7200" shape="200,1,1,3,3" element_type="f32"/>
			<output>
				<port id="0" precision="FP32" names="1010">
					<dim>200</dim>
					<dim>1</dim>
					<dim>1</dim>
					<dim>3</dim>
					<dim>3</dim>
				</port>
			</output>
		</layer>
		<layer id="221" name="Conv_93/WithoutBiases" type="GroupConvolution" version="opset1">
			<data auto_pad="explicit" strides="1,1" dilations="1,1" pads_begin="1,1" pads_end="1,1"/>
			<input>
				<port id="0">
					<dim>1</dim>
					<dim>200</dim>
					<dim>6</dim>
					<dim>10</dim>
				</port>
				<port id="1">
					<dim>200</dim>
					<dim>1</dim>
					<dim>1</dim>
					<dim>3</dim>
					<dim>3</dim>
				</port>
			</input>
			<output>
				<port id="2" precision="FP32">
					<dim>1</dim>
					<dim>200</dim>
					<dim>6</dim>
					<dim>10</dim>
				</port>
			</output>
		</layer>
		<layer id="222" name="Conv_93/Dims7261" type="Const" version="opset1">
			<data offset="3310040" size="800" shape="1,200,1,1" element_type="f32"/>
			<output>
				<port id="0" precision="FP32">
					<dim>1</dim>
					<dim>200</dim>
					<dim>1</dim>
					<dim>1</dim>
				</port>
			</output>
		</layer>
		<layer id="223" name="Conv_93" type="Add" version="opset1">
			<data auto_broadcast="numpy"/>
			<input>
				<port id="0">
					<dim>1</dim>
					<dim>200</dim>
					<dim>6</dim>
					<dim>10</dim>
				</port>
				<port id="1">
					<dim>1</dim>
					<dim>200</dim>
					<dim>1</dim>
					<dim>1</dim>
				</port>
			</input>
			<output>
				<port id="2" precision="FP32" names="1009">
					<dim>1</dim>
					<dim>200</dim>
					<dim>6</dim>
					<dim>10</dim>
				</port>
			</output>
		</layer>
		<layer id="224" name="Constant_99" type="Const" version="opset1">
			<data offset="3292116" size="4" shape="1,1,1,1" element_type="f32"/>
			<output>
				<port id="0" precision="FP32" names="510">
					<dim>1</dim>
					<dim>1</dim>
					<dim>1</dim>
					<dim>1</dim>
				</port>
			</output>
		</layer>
		<layer id="225" name="Constant_94" type="Const" version="opset1">
			<data offset="3081568" size="4" shape="1,1,1,1" element_type="f32"/>
			<output>
				<port id="0" precision="FP32" names="505">
					<dim>1</dim>
					<dim>1</dim>
					<dim>1</dim>
					<dim>1</dim>
				</port>
			</output>
		</layer>
		<layer id="226" name="Add_95" type="Add" version="opset1">
			<data auto_broadcast="numpy"/>
			<input>
				<port id="0">
					<dim>1</dim>
					<dim>200</dim>
					<dim>6</dim>
					<dim>10</dim>
				</port>
				<port id="1">
					<dim>1</dim>
					<dim>1</dim>
					<dim>1</dim>
					<dim>1</dim>
				</port>
			</input>
			<output>
				<port id="2" precision="FP32" names="506">
					<dim>1</dim>
					<dim>200</dim>
					<dim>6</dim>
					<dim>10</dim>
				</port>
			</output>
		</layer>
		<layer id="227" name="Clip_98" type="Clamp" version="opset1">
			<data max="6.0" min="0.0"/>
			<input>
				<port id="0">
					<dim>1</dim>
					<dim>200</dim>
					<dim>6</dim>
					<dim>10</dim>
				</port>
			</input>
			<output>
				<port id="1" precision="FP32" names="509">
					<dim>1</dim>
					<dim>200</dim>
					<dim>6</dim>
					<dim>10</dim>
				</port>
			</output>
		</layer>
		<layer id="228" name="Div_100" type="Multiply" version="opset1">
			<data auto_broadcast="numpy"/>
			<input>
				<port id="0">
					<dim>1</dim>
					<dim>200</dim>
					<dim>6</dim>
					<dim>10</dim>
				</port>
				<port id="1">
					<dim>1</dim>
					<dim>1</dim>
					<dim>1</dim>
					<dim>1</dim>
				</port>
			</input>
			<output>
				<port id="2" precision="FP32" names="511">
					<dim>1</dim>
					<dim>200</dim>
					<dim>6</dim>
					<dim>10</dim>
				</port>
			</output>
		</layer>
		<layer id="229" name="Mul_101" type="Multiply" version="opset1">
			<data auto_broadcast="numpy"/>
			<input>
				<port id="0">
					<dim>1</dim>
					<dim>200</dim>
					<dim>6</dim>
					<dim>10</dim>
				</port>
				<port id="1">
					<dim>1</dim>
					<dim>200</dim>
					<dim>6</dim>
					<dim>10</dim>
				</port>
			</input>
			<output>
				<port id="2" precision="FP32" names="512">
					<dim>1</dim>
					<dim>200</dim>
					<dim>6</dim>
					<dim>10</dim>
				</port>
			</output>
		</layer>
		<layer id="230" name="Conv_102/WithoutBiases" type="Convolution" version="opset1">
			<data auto_pad="explicit" strides="1,1" dilations="1,1" pads_begin="0,0" pads_end="0,0"/>
			<input>
				<port id="0">
					<dim>1</dim>
					<dim>200</dim>
					<dim>6</dim>
					<dim>10</dim>
				</port>
				<port id="1">
					<dim>80</dim>
					<dim>200</dim>
					<dim>1</dim>
					<dim>1</dim>
				</port>
			</input>
			<output>
				<port id="2" precision="FP32">
					<dim>1</dim>
					<dim>80</dim>
					<dim>6</dim>
					<dim>10</dim>
				</port>
			</output>
		</layer>
		<layer id="231" name="Conv_102/Dims7405" type="Const" version="opset1">
			<data offset="3310840" size="320" shape="1,80,1,1" element_type="f32"/>
			<output>
				<port id="0" precision="FP32">
					<dim>1</dim>
					<dim>80</dim>
					<dim>1</dim>
					<dim>1</dim>
				</port>
			</output>
		</layer>
		<layer id="232" name="Conv_102" type="Add" version="opset1">
			<data auto_broadcast="numpy"/>
			<input>
				<port id="0">
					<dim>1</dim>
					<dim>80</dim>
					<dim>6</dim>
					<dim>10</dim>
				</port>
				<port id="1">
					<dim>1</dim>
					<dim>80</dim>
					<dim>1</dim>
					<dim>1</dim>
				</port>
			</input>
			<output>
				<port id="2" precision="FP32" names="1012">
					<dim>1</dim>
					<dim>80</dim>
					<dim>6</dim>
					<dim>10</dim>
				</port>
			</output>
		</layer>
		<layer id="233" name="Add_103" type="Add" version="opset1">
			<data auto_broadcast="numpy"/>
			<input>
				<port id="0">
					<dim>1</dim>
					<dim>80</dim>
					<dim>6</dim>
					<dim>10</dim>
				</port>
				<port id="1">
					<dim>1</dim>
					<dim>80</dim>
					<dim>6</dim>
					<dim>10</dim>
				</port>
			</input>
			<output>
				<port id="2" precision="FP32" names="515">
					<dim>1</dim>
					<dim>80</dim>
					<dim>6</dim>
					<dim>10</dim>
				</port>
			</output>
		</layer>
		<layer id="234" name="1022" type="Const" version="opset1">
			<data offset="3311160" size="58880" shape="80,184,1,1" element_type="f32"/>
			<output>
				<port id="0" precision="FP32" names="1022">
					<dim>80</dim>
					<dim>184</dim>
					<dim>1</dim>
					<dim>1</dim>
				</port>
			</output>
		</layer>
		<layer id="235" name="1016" type="Const" version="opset1">
			<data offset="3370040" size="58880" shape="184,80,1,1" element_type="f32"/>
			<output>
				<port id="0" precision="FP32" names="1016">
					<dim>184</dim>
					<dim>80</dim>
					<dim>1</dim>
					<dim>1</dim>
				</port>
			</output>
		</layer>
		<layer id="236" name="Conv_104/WithoutBiases" type="Convolution" version="opset1">
			<data auto_pad="explicit" strides="1,1" dilations="1,1" pads_begin="0,0" pads_end="0,0"/>
			<input>
				<port id="0">
					<dim>1</dim>
					<dim>80</dim>
					<dim>6</dim>
					<dim>10</dim>
				</port>
				<port id="1">
					<dim>184</dim>
					<dim>80</dim>
					<dim>1</dim>
					<dim>1</dim>
				</port>
			</input>
			<output>
				<port id="2" precision="FP32">
					<dim>1</dim>
					<dim>184</dim>
					<dim>6</dim>
					<dim>10</dim>
				</port>
			</output>
		</layer>
		<layer id="237" name="Conv_104/Dims7399" type="Const" version="opset1">
			<data offset="3428920" size="736" shape="1,184,1,1" element_type="f32"/>
			<output>
				<port id="0" precision="FP32">
					<dim>1</dim>
					<dim>184</dim>
					<dim>1</dim>
					<dim>1</dim>
				</port>
			</output>
		</layer>
		<layer id="238" name="Conv_104" type="Add" version="opset1">
			<data auto_broadcast="numpy"/>
			<input>
				<port id="0">
					<dim>1</dim>
					<dim>184</dim>
					<dim>6</dim>
					<dim>10</dim>
				</port>
				<port id="1">
					<dim>1</dim>
					<dim>184</dim>
					<dim>1</dim>
					<dim>1</dim>
				</port>
			</input>
			<output>
				<port id="2" precision="FP32" names="1015">
					<dim>1</dim>
					<dim>184</dim>
					<dim>6</dim>
					<dim>10</dim>
				</port>
			</output>
		</layer>
		<layer id="239" name="Constant_110" type="Const" version="opset1">
			<data offset="3292116" size="4" shape="1,1,1,1" element_type="f32"/>
			<output>
				<port id="0" precision="FP32" names="523">
					<dim>1</dim>
					<dim>1</dim>
					<dim>1</dim>
					<dim>1</dim>
				</port>
			</output>
		</layer>
		<layer id="240" name="Constant_105" type="Const" version="opset1">
			<data offset="3081568" size="4" shape="1,1,1,1" element_type="f32"/>
			<output>
				<port id="0" precision="FP32" names="518">
					<dim>1</dim>
					<dim>1</dim>
					<dim>1</dim>
					<dim>1</dim>
				</port>
			</output>
		</layer>
		<layer id="241" name="Add_106" type="Add" version="opset1">
			<data auto_broadcast="numpy"/>
			<input>
				<port id="0">
					<dim>1</dim>
					<dim>184</dim>
					<dim>6</dim>
					<dim>10</dim>
				</port>
				<port id="1">
					<dim>1</dim>
					<dim>1</dim>
					<dim>1</dim>
					<dim>1</dim>
				</port>
			</input>
			<output>
				<port id="2" precision="FP32" names="519">
					<dim>1</dim>
					<dim>184</dim>
					<dim>6</dim>
					<dim>10</dim>
				</port>
			</output>
		</layer>
		<layer id="242" name="Clip_109" type="Clamp" version="opset1">
			<data max="6.0" min="0.0"/>
			<input>
				<port id="0">
					<dim>1</dim>
					<dim>184</dim>
					<dim>6</dim>
					<dim>10</dim>
				</port>
			</input>
			<output>
				<port id="1" precision="FP32" names="522">
					<dim>1</dim>
					<dim>184</dim>
					<dim>6</dim>
					<dim>10</dim>
				</port>
			</output>
		</layer>
		<layer id="243" name="Div_111" type="Multiply" version="opset1">
			<data auto_broadcast="numpy"/>
			<input>
				<port id="0">
					<dim>1</dim>
					<dim>184</dim>
					<dim>6</dim>
					<dim>10</dim>
				</port>
				<port id="1">
					<dim>1</dim>
					<dim>1</dim>
					<dim>1</dim>
					<dim>1</dim>
				</port>
			</input>
			<output>
				<port id="2" precision="FP32" names="524">
					<dim>1</dim>
					<dim>184</dim>
					<dim>6</dim>
					<dim>10</dim>
				</port>
			</output>
		</layer>
		<layer id="244" name="Mul_112" type="Multiply" version="opset1">
			<data auto_broadcast="numpy"/>
			<input>
				<port id="0">
					<dim>1</dim>
					<dim>184</dim>
					<dim>6</dim>
					<dim>10</dim>
				</port>
				<port id="1">
					<dim>1</dim>
					<dim>184</dim>
					<dim>6</dim>
					<dim>10</dim>
				</port>
			</input>
			<output>
				<port id="2" precision="FP32" names="525">
					<dim>1</dim>
					<dim>184</dim>
					<dim>6</dim>
					<dim>10</dim>
				</port>
			</output>
		</layer>
		<layer id="245" name="1019" type="Const" version="opset1">
			<data offset="3429656" size="6624" shape="184,1,1,3,3" element_type="f32"/>
			<output>
				<port id="0" precision="FP32" names="1019">
					<dim>184</dim>
					<dim>1</dim>
					<dim>1</dim>
					<dim>3</dim>
					<dim>3</dim>
				</port>
			</output>
		</layer>
		<layer id="246" name="Conv_113/WithoutBiases" type="GroupConvolution" version="opset1">
			<data auto_pad="explicit" strides="1,1" dilations="1,1" pads_begin="1,1" pads_end="1,1"/>
			<input>
				<port id="0">
					<dim>1</dim>
					<dim>184</dim>
					<dim>6</dim>
					<dim>10</dim>
				</port>
				<port id="1">
					<dim>184</dim>
					<dim>1</dim>
					<dim>1</dim>
					<dim>3</dim>
					<dim>3</dim>
				</port>
			</input>
			<output>
				<port id="2" precision="FP32">
					<dim>1</dim>
					<dim>184</dim>
					<dim>6</dim>
					<dim>10</dim>
				</port>
			</output>
		</layer>
		<layer id="247" name="Conv_113/Dims7333" type="Const" version="opset1">
			<data offset="3436280" size="736" shape="1,184,1,1" element_type="f32"/>
			<output>
				<port id="0" precision="FP32">
					<dim>1</dim>
					<dim>184</dim>
					<dim>1</dim>
					<dim>1</dim>
				</port>
			</output>
		</layer>
		<layer id="248" name="Conv_113" type="Add" version="opset1">
			<data auto_broadcast="numpy"/>
			<input>
				<port id="0">
					<dim>1</dim>
					<dim>184</dim>
					<dim>6</dim>
					<dim>10</dim>
				</port>
				<port id="1">
					<dim>1</dim>
					<dim>184</dim>
					<dim>1</dim>
					<dim>1</dim>
				</port>
			</input>
			<output>
				<port id="2" precision="FP32" names="1018">
					<dim>1</dim>
					<dim>184</dim>
					<dim>6</dim>
					<dim>10</dim>
				</port>
			</output>
		</layer>
		<layer id="249" name="Constant_119" type="Const" version="opset1">
			<data offset="3292116" size="4" shape="1,1,1,1" element_type="f32"/>
			<output>
				<port id="0" precision="FP32" names="533">
					<dim>1</dim>
					<dim>1</dim>
					<dim>1</dim>
					<dim>1</dim>
				</port>
			</output>
		</layer>
		<layer id="250" name="Constant_114" type="Const" version="opset1">
			<data offset="3081568" size="4" shape="1,1,1,1" element_type="f32"/>
			<output>
				<port id="0" precision="FP32" names="528">
					<dim>1</dim>
					<dim>1</dim>
					<dim>1</dim>
					<dim>1</dim>
				</port>
			</output>
		</layer>
		<layer id="251" name="Add_115" type="Add" version="opset1">
			<data auto_broadcast="numpy"/>
			<input>
				<port id="0">
					<dim>1</dim>
					<dim>184</dim>
					<dim>6</dim>
					<dim>10</dim>
				</port>
				<port id="1">
					<dim>1</dim>
					<dim>1</dim>
					<dim>1</dim>
					<dim>1</dim>
				</port>
			</input>
			<output>
				<port id="2" precision="FP32" names="529">
					<dim>1</dim>
					<dim>184</dim>
					<dim>6</dim>
					<dim>10</dim>
				</port>
			</output>
		</layer>
		<layer id="252" name="Clip_118" type="Clamp" version="opset1">
			<data max="6.0" min="0.0"/>
			<input>
				<port id="0">
					<dim>1</dim>
					<dim>184</dim>
					<dim>6</dim>
					<dim>10</dim>
				</port>
			</input>
			<output>
				<port id="1" precision="FP32" names="532">
					<dim>1</dim>
					<dim>184</dim>
					<dim>6</dim>
					<dim>10</dim>
				</port>
			</output>
		</layer>
		<layer id="253" name="Div_120" type="Multiply" version="opset1">
			<data auto_broadcast="numpy"/>
			<input>
				<port id="0">
					<dim>1</dim>
					<dim>184</dim>
					<dim>6</dim>
					<dim>10</dim>
				</port>
				<port id="1">
					<dim>1</dim>
					<dim>1</dim>
					<dim>1</dim>
					<dim>1</dim>
				</port>
			</input>
			<output>
				<port id="2" precision="FP32" names="534">
					<dim>1</dim>
					<dim>184</dim>
					<dim>6</dim>
					<dim>10</dim>
				</port>
			</output>
		</layer>
		<layer id="254" name="Mul_121" type="Multiply" version="opset1">
			<data auto_broadcast="numpy"/>
			<input>
				<port id="0">
					<dim>1</dim>
					<dim>184</dim>
					<dim>6</dim>
					<dim>10</dim>
				</port>
				<port id="1">
					<dim>1</dim>
					<dim>184</dim>
					<dim>6</dim>
					<dim>10</dim>
				</port>
			</input>
			<output>
				<port id="2" precision="FP32" names="535">
					<dim>1</dim>
					<dim>184</dim>
					<dim>6</dim>
					<dim>10</dim>
				</port>
			</output>
		</layer>
		<layer id="255" name="Conv_122/WithoutBiases" type="Convolution" version="opset1">
			<data auto_pad="explicit" strides="1,1" dilations="1,1" pads_begin="0,0" pads_end="0,0"/>
			<input>
				<port id="0">
					<dim>1</dim>
					<dim>184</dim>
					<dim>6</dim>
					<dim>10</dim>
				</port>
				<port id="1">
					<dim>80</dim>
					<dim>184</dim>
					<dim>1</dim>
					<dim>1</dim>
				</port>
			</input>
			<output>
				<port id="2" precision="FP32">
					<dim>1</dim>
					<dim>80</dim>
					<dim>6</dim>
					<dim>10</dim>
				</port>
			</output>
		</layer>
		<layer id="256" name="Conv_122/Dims7093" type="Const" version="opset1">
			<data offset="3437016" size="320" shape="1,80,1,1" element_type="f32"/>
			<output>
				<port id="0" precision="FP32">
					<dim>1</dim>
					<dim>80</dim>
					<dim>1</dim>
					<dim>1</dim>
				</port>
			</output>
		</layer>
		<layer id="257" name="Conv_122" type="Add" version="opset1">
			<data auto_broadcast="numpy"/>
			<input>
				<port id="0">
					<dim>1</dim>
					<dim>80</dim>
					<dim>6</dim>
					<dim>10</dim>
				</port>
				<port id="1">
					<dim>1</dim>
					<dim>80</dim>
					<dim>1</dim>
					<dim>1</dim>
				</port>
			</input>
			<output>
				<port id="2" precision="FP32" names="1021">
					<dim>1</dim>
					<dim>80</dim>
					<dim>6</dim>
					<dim>10</dim>
				</port>
			</output>
		</layer>
		<layer id="258" name="Add_123" type="Add" version="opset1">
			<data auto_broadcast="numpy"/>
			<input>
				<port id="0">
					<dim>1</dim>
					<dim>80</dim>
					<dim>6</dim>
					<dim>10</dim>
				</port>
				<port id="1">
					<dim>1</dim>
					<dim>80</dim>
					<dim>6</dim>
					<dim>10</dim>
				</port>
			</input>
			<output>
				<port id="2" precision="FP32" names="538">
					<dim>1</dim>
					<dim>80</dim>
					<dim>6</dim>
					<dim>10</dim>
				</port>
			</output>
		</layer>
		<layer id="259" name="1031" type="Const" version="opset1">
			<data offset="3437336" size="58880" shape="80,184,1,1" element_type="f32"/>
			<output>
				<port id="0" precision="FP32" names="1031">
					<dim>80</dim>
					<dim>184</dim>
					<dim>1</dim>
					<dim>1</dim>
				</port>
			</output>
		</layer>
		<layer id="260" name="1025" type="Const" version="opset1">
			<data offset="3496216" size="58880" shape="184,80,1,1" element_type="f32"/>
			<output>
				<port id="0" precision="FP32" names="1025">
					<dim>184</dim>
					<dim>80</dim>
					<dim>1</dim>
					<dim>1</dim>
				</port>
			</output>
		</layer>
		<layer id="261" name="Conv_124/WithoutBiases" type="Convolution" version="opset1">
			<data auto_pad="explicit" strides="1,1" dilations="1,1" pads_begin="0,0" pads_end="0,0"/>
			<input>
				<port id="0">
					<dim>1</dim>
					<dim>80</dim>
					<dim>6</dim>
					<dim>10</dim>
				</port>
				<port id="1">
					<dim>184</dim>
					<dim>80</dim>
					<dim>1</dim>
					<dim>1</dim>
				</port>
			</input>
			<output>
				<port id="2" precision="FP32">
					<dim>1</dim>
					<dim>184</dim>
					<dim>6</dim>
					<dim>10</dim>
				</port>
			</output>
		</layer>
		<layer id="262" name="Conv_124/Dims7351" type="Const" version="opset1">
			<data offset="3555096" size="736" shape="1,184,1,1" element_type="f32"/>
			<output>
				<port id="0" precision="FP32">
					<dim>1</dim>
					<dim>184</dim>
					<dim>1</dim>
					<dim>1</dim>
				</port>
			</output>
		</layer>
		<layer id="263" name="Conv_124" type="Add" version="opset1">
			<data auto_broadcast="numpy"/>
			<input>
				<port id="0">
					<dim>1</dim>
					<dim>184</dim>
					<dim>6</dim>
					<dim>10</dim>
				</port>
				<port id="1">
					<dim>1</dim>
					<dim>184</dim>
					<dim>1</dim>
					<dim>1</dim>
				</port>
			</input>
			<output>
				<port id="2" precision="FP32" names="1024">
					<dim>1</dim>
					<dim>184</dim>
					<dim>6</dim>
					<dim>10</dim>
				</port>
			</output>
		</layer>
		<layer id="264" name="Constant_130" type="Const" version="opset1">
			<data offset="3292116" size="4" shape="1,1,1,1" element_type="f32"/>
			<output>
				<port id="0" precision="FP32" names="546">
					<dim>1</dim>
					<dim>1</dim>
					<dim>1</dim>
					<dim>1</dim>
				</port>
			</output>
		</layer>
		<layer id="265" name="Constant_125" type="Const" version="opset1">
			<data offset="3081568" size="4" shape="1,1,1,1" element_type="f32"/>
			<output>
				<port id="0" precision="FP32" names="541">
					<dim>1</dim>
					<dim>1</dim>
					<dim>1</dim>
					<dim>1</dim>
				</port>
			</output>
		</layer>
		<layer id="266" name="Add_126" type="Add" version="opset1">
			<data auto_broadcast="numpy"/>
			<input>
				<port id="0">
					<dim>1</dim>
					<dim>184</dim>
					<dim>6</dim>
					<dim>10</dim>
				</port>
				<port id="1">
					<dim>1</dim>
					<dim>1</dim>
					<dim>1</dim>
					<dim>1</dim>
				</port>
			</input>
			<output>
				<port id="2" precision="FP32" names="542">
					<dim>1</dim>
					<dim>184</dim>
					<dim>6</dim>
					<dim>10</dim>
				</port>
			</output>
		</layer>
		<layer id="267" name="Clip_129" type="Clamp" version="opset1">
			<data max="6.0" min="0.0"/>
			<input>
				<port id="0">
					<dim>1</dim>
					<dim>184</dim>
					<dim>6</dim>
					<dim>10</dim>
				</port>
			</input>
			<output>
				<port id="1" precision="FP32" names="545">
					<dim>1</dim>
					<dim>184</dim>
					<dim>6</dim>
					<dim>10</dim>
				</port>
			</output>
		</layer>
		<layer id="268" name="Div_131" type="Multiply" version="opset1">
			<data auto_broadcast="numpy"/>
			<input>
				<port id="0">
					<dim>1</dim>
					<dim>184</dim>
					<dim>6</dim>
					<dim>10</dim>
				</port>
				<port id="1">
					<dim>1</dim>
					<dim>1</dim>
					<dim>1</dim>
					<dim>1</dim>
				</port>
			</input>
			<output>
				<port id="2" precision="FP32" names="547">
					<dim>1</dim>
					<dim>184</dim>
					<dim>6</dim>
					<dim>10</dim>
				</port>
			</output>
		</layer>
		<layer id="269" name="Mul_132" type="Multiply" version="opset1">
			<data auto_broadcast="numpy"/>
			<input>
				<port id="0">
					<dim>1</dim>
					<dim>184</dim>
					<dim>6</dim>
					<dim>10</dim>
				</port>
				<port id="1">
					<dim>1</dim>
					<dim>184</dim>
					<dim>6</dim>
					<dim>10</dim>
				</port>
			</input>
			<output>
				<port id="2" precision="FP32" names="548">
					<dim>1</dim>
					<dim>184</dim>
					<dim>6</dim>
					<dim>10</dim>
				</port>
			</output>
		</layer>
		<layer id="270" name="1028" type="Const" version="opset1">
			<data offset="3555832" size="6624" shape="184,1,1,3,3" element_type="f32"/>
			<output>
				<port id="0" precision="FP32" names="1028">
					<dim>184</dim>
					<dim>1</dim>
					<dim>1</dim>
					<dim>3</dim>
					<dim>3</dim>
				</port>
			</output>
		</layer>
		<layer id="271" name="Conv_133/WithoutBiases" type="GroupConvolution" version="opset1">
			<data auto_pad="explicit" strides="1,1" dilations="1,1" pads_begin="1,1" pads_end="1,1"/>
			<input>
				<port id="0">
					<dim>1</dim>
					<dim>184</dim>
					<dim>6</dim>
					<dim>10</dim>
				</port>
				<port id="1">
					<dim>184</dim>
					<dim>1</dim>
					<dim>1</dim>
					<dim>3</dim>
					<dim>3</dim>
				</port>
			</input>
			<output>
				<port id="2" precision="FP32">
					<dim>1</dim>
					<dim>184</dim>
					<dim>6</dim>
					<dim>10</dim>
				</port>
			</output>
		</layer>
		<layer id="272" name="Conv_133/Dims7171" type="Const" version="opset1">
			<data offset="3562456" size="736" shape="1,184,1,1" element_type="f32"/>
			<output>
				<port id="0" precision="FP32">
					<dim>1</dim>
					<dim>184</dim>
					<dim>1</dim>
					<dim>1</dim>
				</port>
			</output>
		</layer>
		<layer id="273" name="Conv_133" type="Add" version="opset1">
			<data auto_broadcast="numpy"/>
			<input>
				<port id="0">
					<dim>1</dim>
					<dim>184</dim>
					<dim>6</dim>
					<dim>10</dim>
				</port>
				<port id="1">
					<dim>1</dim>
					<dim>184</dim>
					<dim>1</dim>
					<dim>1</dim>
				</port>
			</input>
			<output>
				<port id="2" precision="FP32" names="1027">
					<dim>1</dim>
					<dim>184</dim>
					<dim>6</dim>
					<dim>10</dim>
				</port>
			</output>
		</layer>
		<layer id="274" name="Constant_139" type="Const" version="opset1">
			<data offset="3292116" size="4" shape="1,1,1,1" element_type="f32"/>
			<output>
				<port id="0" precision="FP32" names="556">
					<dim>1</dim>
					<dim>1</dim>
					<dim>1</dim>
					<dim>1</dim>
				</port>
			</output>
		</layer>
		<layer id="275" name="Constant_134" type="Const" version="opset1">
			<data offset="3081568" size="4" shape="1,1,1,1" element_type="f32"/>
			<output>
				<port id="0" precision="FP32" names="551">
					<dim>1</dim>
					<dim>1</dim>
					<dim>1</dim>
					<dim>1</dim>
				</port>
			</output>
		</layer>
		<layer id="276" name="Add_135" type="Add" version="opset1">
			<data auto_broadcast="numpy"/>
			<input>
				<port id="0">
					<dim>1</dim>
					<dim>184</dim>
					<dim>6</dim>
					<dim>10</dim>
				</port>
				<port id="1">
					<dim>1</dim>
					<dim>1</dim>
					<dim>1</dim>
					<dim>1</dim>
				</port>
			</input>
			<output>
				<port id="2" precision="FP32" names="552">
					<dim>1</dim>
					<dim>184</dim>
					<dim>6</dim>
					<dim>10</dim>
				</port>
			</output>
		</layer>
		<layer id="277" name="Clip_138" type="Clamp" version="opset1">
			<data max="6.0" min="0.0"/>
			<input>
				<port id="0">
					<dim>1</dim>
					<dim>184</dim>
					<dim>6</dim>
					<dim>10</dim>
				</port>
			</input>
			<output>
				<port id="1" precision="FP32" names="555">
					<dim>1</dim>
					<dim>184</dim>
					<dim>6</dim>
					<dim>10</dim>
				</port>
			</output>
		</layer>
		<layer id="278" name="Div_140" type="Multiply" version="opset1">
			<data auto_broadcast="numpy"/>
			<input>
				<port id="0">
					<dim>1</dim>
					<dim>184</dim>
					<dim>6</dim>
					<dim>10</dim>
				</port>
				<port id="1">
					<dim>1</dim>
					<dim>1</dim>
					<dim>1</dim>
					<dim>1</dim>
				</port>
			</input>
			<output>
				<port id="2" precision="FP32" names="557">
					<dim>1</dim>
					<dim>184</dim>
					<dim>6</dim>
					<dim>10</dim>
				</port>
			</output>
		</layer>
		<layer id="279" name="Mul_141" type="Multiply" version="opset1">
			<data auto_broadcast="numpy"/>
			<input>
				<port id="0">
					<dim>1</dim>
					<dim>184</dim>
					<dim>6</dim>
					<dim>10</dim>
				</port>
				<port id="1">
					<dim>1</dim>
					<dim>184</dim>
					<dim>6</dim>
					<dim>10</dim>
				</port>
			</input>
			<output>
				<port id="2" precision="FP32" names="558">
					<dim>1</dim>
					<dim>184</dim>
					<dim>6</dim>
					<dim>10</dim>
				</port>
			</output>
		</layer>
		<layer id="280" name="Conv_142/WithoutBiases" type="Convolution" version="opset1">
			<data auto_pad="explicit" strides="1,1" dilations="1,1" pads_begin="0,0" pads_end="0,0"/>
			<input>
				<port id="0">
					<dim>1</dim>
					<dim>184</dim>
					<dim>6</dim>
					<dim>10</dim>
				</port>
				<port id="1">
					<dim>80</dim>
					<dim>184</dim>
					<dim>1</dim>
					<dim>1</dim>
				</port>
			</input>
			<output>
				<port id="2" precision="FP32">
					<dim>1</dim>
					<dim>80</dim>
					<dim>6</dim>
					<dim>10</dim>
				</port>
			</output>
		</layer>
		<layer id="281" name="Conv_142/Dims7129" type="Const" version="opset1">
			<data offset="3563192" size="320" shape="1,80,1,1" element_type="f32"/>
			<output>
				<port id="0" precision="FP32">
					<dim>1</dim>
					<dim>80</dim>
					<dim>1</dim>
					<dim>1</dim>
				</port>
			</output>
		</layer>
		<layer id="282" name="Conv_142" type="Add" version="opset1">
			<data auto_broadcast="numpy"/>
			<input>
				<port id="0">
					<dim>1</dim>
					<dim>80</dim>
					<dim>6</dim>
					<dim>10</dim>
				</port>
				<port id="1">
					<dim>1</dim>
					<dim>80</dim>
					<dim>1</dim>
					<dim>1</dim>
				</port>
			</input>
			<output>
				<port id="2" precision="FP32" names="1030">
					<dim>1</dim>
					<dim>80</dim>
					<dim>6</dim>
					<dim>10</dim>
				</port>
			</output>
		</layer>
		<layer id="283" name="Add_143" type="Add" version="opset1">
			<data auto_broadcast="numpy"/>
			<input>
				<port id="0">
					<dim>1</dim>
					<dim>80</dim>
					<dim>6</dim>
					<dim>10</dim>
				</port>
				<port id="1">
					<dim>1</dim>
					<dim>80</dim>
					<dim>6</dim>
					<dim>10</dim>
				</port>
			</input>
			<output>
				<port id="2" precision="FP32" names="561">
					<dim>1</dim>
					<dim>80</dim>
					<dim>6</dim>
					<dim>10</dim>
				</port>
			</output>
		</layer>
		<layer id="284" name="Conv_144/WithoutBiases" type="Convolution" version="opset1">
			<data auto_pad="explicit" strides="1,1" dilations="1,1" pads_begin="0,0" pads_end="0,0"/>
			<input>
				<port id="0">
					<dim>1</dim>
					<dim>80</dim>
					<dim>6</dim>
					<dim>10</dim>
				</port>
				<port id="1">
					<dim>480</dim>
					<dim>80</dim>
					<dim>1</dim>
					<dim>1</dim>
				</port>
			</input>
			<output>
				<port id="2" precision="FP32">
					<dim>1</dim>
					<dim>480</dim>
					<dim>6</dim>
					<dim>10</dim>
				</port>
			</output>
		</layer>
		<layer id="285" name="Conv_144/Dims7117" type="Const" version="opset1">
			<data offset="3563512" size="1920" shape="1,480,1,1" element_type="f32"/>
			<output>
				<port id="0" precision="FP32">
					<dim>1</dim>
					<dim>480</dim>
					<dim>1</dim>
					<dim>1</dim>
				</port>
			</output>
		</layer>
		<layer id="286" name="Conv_144" type="Add" version="opset1">
			<data auto_broadcast="numpy"/>
			<input>
				<port id="0">
					<dim>1</dim>
					<dim>480</dim>
					<dim>6</dim>
					<dim>10</dim>
				</port>
				<port id="1">
					<dim>1</dim>
					<dim>480</dim>
					<dim>1</dim>
					<dim>1</dim>
				</port>
			</input>
			<output>
				<port id="2" precision="FP32" names="1033">
					<dim>1</dim>
					<dim>480</dim>
					<dim>6</dim>
					<dim>10</dim>
				</port>
			</output>
		</layer>
		<layer id="287" name="Constant_150" type="Const" version="opset1">
			<data offset="3292116" size="4" shape="1,1,1,1" element_type="f32"/>
			<output>
				<port id="0" precision="FP32" names="569">
					<dim>1</dim>
					<dim>1</dim>
					<dim>1</dim>
					<dim>1</dim>
				</port>
			</output>
		</layer>
		<layer id="288" name="Constant_145" type="Const" version="opset1">
			<data offset="3081568" size="4" shape="1,1,1,1" element_type="f32"/>
			<output>
				<port id="0" precision="FP32" names="564">
					<dim>1</dim>
					<dim>1</dim>
					<dim>1</dim>
					<dim>1</dim>
				</port>
			</output>
		</layer>
		<layer id="289" name="Add_146" type="Add" version="opset1">
			<data auto_broadcast="numpy"/>
			<input>
				<port id="0">
					<dim>1</dim>
					<dim>480</dim>
					<dim>6</dim>
					<dim>10</dim>
				</port>
				<port id="1">
					<dim>1</dim>
					<dim>1</dim>
					<dim>1</dim>
					<dim>1</dim>
				</port>
			</input>
			<output>
				<port id="2" precision="FP32" names="565">
					<dim>1</dim>
					<dim>480</dim>
					<dim>6</dim>
					<dim>10</dim>
				</port>
			</output>
		</layer>
		<layer id="290" name="Clip_149" type="Clamp" version="opset1">
			<data max="6.0" min="0.0"/>
			<input>
				<port id="0">
					<dim>1</dim>
					<dim>480</dim>
					<dim>6</dim>
					<dim>10</dim>
				</port>
			</input>
			<output>
				<port id="1" precision="FP32" names="568">
					<dim>1</dim>
					<dim>480</dim>
					<dim>6</dim>
					<dim>10</dim>
				</port>
			</output>
		</layer>
		<layer id="291" name="Div_151" type="Multiply" version="opset1">
			<data auto_broadcast="numpy"/>
			<input>
				<port id="0">
					<dim>1</dim>
					<dim>480</dim>
					<dim>6</dim>
					<dim>10</dim>
				</port>
				<port id="1">
					<dim>1</dim>
					<dim>1</dim>
					<dim>1</dim>
					<dim>1</dim>
				</port>
			</input>
			<output>
				<port id="2" precision="FP32" names="570">
					<dim>1</dim>
					<dim>480</dim>
					<dim>6</dim>
					<dim>10</dim>
				</port>
			</output>
		</layer>
		<layer id="292" name="Mul_152" type="Multiply" version="opset1">
			<data auto_broadcast="numpy"/>
			<input>
				<port id="0">
					<dim>1</dim>
					<dim>480</dim>
					<dim>6</dim>
					<dim>10</dim>
				</port>
				<port id="1">
					<dim>1</dim>
					<dim>480</dim>
					<dim>6</dim>
					<dim>10</dim>
				</port>
			</input>
			<output>
				<port id="2" precision="FP32" names="571">
					<dim>1</dim>
					<dim>480</dim>
					<dim>6</dim>
					<dim>10</dim>
				</port>
			</output>
		</layer>
		<layer id="293" name="1037" type="Const" version="opset1">
			<data offset="3565432" size="17280" shape="480,1,1,3,3" element_type="f32"/>
			<output>
				<port id="0" precision="FP32" names="1037">
					<dim>480</dim>
					<dim>1</dim>
					<dim>1</dim>
					<dim>3</dim>
					<dim>3</dim>
				</port>
			</output>
		</layer>
		<layer id="294" name="Conv_153/WithoutBiases" type="GroupConvolution" version="opset1">
			<data auto_pad="explicit" strides="1,1" dilations="1,1" pads_begin="1,1" pads_end="1,1"/>
			<input>
				<port id="0">
					<dim>1</dim>
					<dim>480</dim>
					<dim>6</dim>
					<dim>10</dim>
				</port>
				<port id="1">
					<dim>480</dim>
					<dim>1</dim>
					<dim>1</dim>
					<dim>3</dim>
					<dim>3</dim>
				</port>
			</input>
			<output>
				<port id="2" precision="FP32">
					<dim>1</dim>
					<dim>480</dim>
					<dim>6</dim>
					<dim>10</dim>
				</port>
			</output>
		</layer>
		<layer id="295" name="Conv_153/Dims7297" type="Const" version="opset1">
			<data offset="3582712" size="1920" shape="1,480,1,1" element_type="f32"/>
			<output>
				<port id="0" precision="FP32">
					<dim>1</dim>
					<dim>480</dim>
					<dim>1</dim>
					<dim>1</dim>
				</port>
			</output>
		</layer>
		<layer id="296" name="Conv_153" type="Add" version="opset1">
			<data auto_broadcast="numpy"/>
			<input>
				<port id="0">
					<dim>1</dim>
					<dim>480</dim>
					<dim>6</dim>
					<dim>10</dim>
				</port>
				<port id="1">
					<dim>1</dim>
					<dim>480</dim>
					<dim>1</dim>
					<dim>1</dim>
				</port>
			</input>
			<output>
				<port id="2" precision="FP32" names="1036">
					<dim>1</dim>
					<dim>480</dim>
					<dim>6</dim>
					<dim>10</dim>
				</port>
			</output>
		</layer>
		<layer id="297" name="Constant_159" type="Const" version="opset1">
			<data offset="3292116" size="4" shape="1,1,1,1" element_type="f32"/>
			<output>
				<port id="0" precision="FP32" names="579">
					<dim>1</dim>
					<dim>1</dim>
					<dim>1</dim>
					<dim>1</dim>
				</port>
			</output>
		</layer>
		<layer id="298" name="Constant_154" type="Const" version="opset1">
			<data offset="3081568" size="4" shape="1,1,1,1" element_type="f32"/>
			<output>
				<port id="0" precision="FP32" names="574">
					<dim>1</dim>
					<dim>1</dim>
					<dim>1</dim>
					<dim>1</dim>
				</port>
			</output>
		</layer>
		<layer id="299" name="Add_155" type="Add" version="opset1">
			<data auto_broadcast="numpy"/>
			<input>
				<port id="0">
					<dim>1</dim>
					<dim>480</dim>
					<dim>6</dim>
					<dim>10</dim>
				</port>
				<port id="1">
					<dim>1</dim>
					<dim>1</dim>
					<dim>1</dim>
					<dim>1</dim>
				</port>
			</input>
			<output>
				<port id="2" precision="FP32" names="575">
					<dim>1</dim>
					<dim>480</dim>
					<dim>6</dim>
					<dim>10</dim>
				</port>
			</output>
		</layer>
		<layer id="300" name="Clip_158" type="Clamp" version="opset1">
			<data max="6.0" min="0.0"/>
			<input>
				<port id="0">
					<dim>1</dim>
					<dim>480</dim>
					<dim>6</dim>
					<dim>10</dim>
				</port>
			</input>
			<output>
				<port id="1" precision="FP32" names="578">
					<dim>1</dim>
					<dim>480</dim>
					<dim>6</dim>
					<dim>10</dim>
				</port>
			</output>
		</layer>
		<layer id="301" name="Div_160" type="Multiply" version="opset1">
			<data auto_broadcast="numpy"/>
			<input>
				<port id="0">
					<dim>1</dim>
					<dim>480</dim>
					<dim>6</dim>
					<dim>10</dim>
				</port>
				<port id="1">
					<dim>1</dim>
					<dim>1</dim>
					<dim>1</dim>
					<dim>1</dim>
				</port>
			</input>
			<output>
				<port id="2" precision="FP32" names="580">
					<dim>1</dim>
					<dim>480</dim>
					<dim>6</dim>
					<dim>10</dim>
				</port>
			</output>
		</layer>
		<layer id="302" name="Mul_161" type="Multiply" version="opset1">
			<data auto_broadcast="numpy"/>
			<input>
				<port id="0">
					<dim>1</dim>
					<dim>480</dim>
					<dim>6</dim>
					<dim>10</dim>
				</port>
				<port id="1">
					<dim>1</dim>
					<dim>480</dim>
					<dim>6</dim>
					<dim>10</dim>
				</port>
			</input>
			<output>
				<port id="2" precision="FP32" names="581">
					<dim>1</dim>
					<dim>480</dim>
					<dim>6</dim>
					<dim>10</dim>
				</port>
			</output>
		</layer>
		<layer id="303" name="HardSigmoid_166/HardSigmoid__input_port_1/value" type="Const" version="opset1">
			<data offset="3584632" size="4" shape="" element_type="f32"/>
			<output>
				<port id="0" precision="FP32"/>
			</output>
		</layer>
		<layer id="304" name="HardSigmoid_166/HardSigmoid__input_port_2/value" type="Const" version="opset1">
			<data offset="3111080" size="4" shape="" element_type="f32"/>
			<output>
				<port id="0" precision="FP32"/>
			</output>
		</layer>
		<layer id="305" name="backbone.features.11.block.2.fc2.weight" type="Const" version="opset1">
			<data offset="3584636" size="230400" shape="480,120,1,1" element_type="f32"/>
			<output>
				<port id="0" precision="FP32" names="backbone.features.11.block.2.fc2.weight">
					<dim>480</dim>
					<dim>120</dim>
					<dim>1</dim>
					<dim>1</dim>
				</port>
			</output>
		</layer>
		<layer id="306" name="backbone.features.11.block.2.fc1.weight" type="Const" version="opset1">
			<data offset="3815036" size="230400" shape="120,480,1,1" element_type="f32"/>
			<output>
				<port id="0" precision="FP32" names="backbone.features.11.block.2.fc1.weight">
					<dim>120</dim>
					<dim>480</dim>
					<dim>1</dim>
					<dim>1</dim>
				</port>
			</output>
		</layer>
		<layer id="307" name="702" type="Const" version="opset1">
			<data offset="3081452" size="8" shape="" element_type="i64"/>
			<output>
				<port id="0" precision="I64"/>
			</output>
		</layer>
		<layer id="308" name="704" type="Const" version="opset1">
			<data offset="3081468" size="8" shape="" element_type="i64"/>
			<output>
				<port id="0" precision="I64"/>
			</output>
		</layer>
		<layer id="309" name="GlobalAveragePool_162/input_rank/shape_of" type="ShapeOf" version="opset3">
			<data output_type="i64"/>
			<input>
				<port id="0">
					<dim>1</dim>
					<dim>480</dim>
					<dim>6</dim>
					<dim>10</dim>
				</port>
			</input>
			<output>
				<port id="1" precision="I64">
					<dim>4</dim>
				</port>
			</output>
		</layer>
		<layer id="310" name="GlobalAveragePool_162/input_rank/rank_of" type="ShapeOf" version="opset3">
			<data output_type="i64"/>
			<input>
				<port id="0">
					<dim>4</dim>
				</port>
			</input>
			<output>
				<port id="1" precision="I64">
					<dim>1</dim>
				</port>
			</output>
		</layer>
		<layer id="311" name="GlobalAveragePool_162/input_rank/0d_rank_of/value" type="Const" version="opset1">
			<data offset="3124908" size="8" shape="1" element_type="i64"/>
			<output>
				<port id="0" precision="I64">
					<dim>1</dim>
				</port>
			</output>
		</layer>
		<layer id="312" name="GlobalAveragePool_162/input_rank" type="Squeeze" version="opset1">
			<input>
				<port id="0">
					<dim>1</dim>
				</port>
				<port id="1">
					<dim>1</dim>
				</port>
			</input>
			<output>
				<port id="2" precision="I64"/>
			</output>
		</layer>
		<layer id="313" name="GlobalAveragePool_162/global_pooling_reduce_axis" type="Range" version="opset4">
			<data output_type="i64"/>
			<input>
				<port id="0"/>
				<port id="1"/>
				<port id="2"/>
			</input>
			<output>
				<port id="3" precision="I64">
					<dim>2</dim>
				</port>
			</output>
		</layer>
		<layer id="314" name="GlobalAveragePool_162/reduce" type="ReduceMean" version="opset1">
			<data keep_dims="true"/>
			<input>
				<port id="0">
					<dim>1</dim>
					<dim>480</dim>
					<dim>6</dim>
					<dim>10</dim>
				</port>
				<port id="1">
					<dim>2</dim>
				</port>
			</input>
			<output>
				<port id="2" precision="FP32" names="582">
					<dim>1</dim>
					<dim>480</dim>
					<dim>1</dim>
					<dim>1</dim>
				</port>
			</output>
		</layer>
		<layer id="315" name="Conv_163/WithoutBiases" type="Convolution" version="opset1">
			<data auto_pad="explicit" strides="1,1" dilations="1,1" pads_begin="0,0" pads_end="0,0"/>
			<input>
				<port id="0">
					<dim>1</dim>
					<dim>480</dim>
					<dim>1</dim>
					<dim>1</dim>
				</port>
				<port id="1">
					<dim>120</dim>
					<dim>480</dim>
					<dim>1</dim>
					<dim>1</dim>
				</port>
			</input>
			<output>
				<port id="2" precision="FP32">
					<dim>1</dim>
					<dim>120</dim>
					<dim>1</dim>
					<dim>1</dim>
				</port>
			</output>
		</layer>
		<layer id="316" name="Conv_163/Dims7375" type="Const" version="opset1">
			<data offset="4045436" size="480" shape="1,120,1,1" element_type="f32"/>
			<output>
				<port id="0" precision="FP32">
					<dim>1</dim>
					<dim>120</dim>
					<dim>1</dim>
					<dim>1</dim>
				</port>
			</output>
		</layer>
		<layer id="317" name="Conv_163" type="Add" version="opset1">
			<data auto_broadcast="numpy"/>
			<input>
				<port id="0">
					<dim>1</dim>
					<dim>120</dim>
					<dim>1</dim>
					<dim>1</dim>
				</port>
				<port id="1">
					<dim>1</dim>
					<dim>120</dim>
					<dim>1</dim>
					<dim>1</dim>
				</port>
			</input>
			<output>
				<port id="2" precision="FP32" names="583">
					<dim>1</dim>
					<dim>120</dim>
					<dim>1</dim>
					<dim>1</dim>
				</port>
			</output>
		</layer>
		<layer id="318" name="Relu_164" type="ReLU" version="opset1">
			<input>
				<port id="0">
					<dim>1</dim>
					<dim>120</dim>
					<dim>1</dim>
					<dim>1</dim>
				</port>
			</input>
			<output>
				<port id="1" precision="FP32" names="584">
					<dim>1</dim>
					<dim>120</dim>
					<dim>1</dim>
					<dim>1</dim>
				</port>
			</output>
		</layer>
		<layer id="319" name="Conv_165/WithoutBiases" type="Convolution" version="opset1">
			<data auto_pad="explicit" strides="1,1" dilations="1,1" pads_begin="0,0" pads_end="0,0"/>
			<input>
				<port id="0">
					<dim>1</dim>
					<dim>120</dim>
					<dim>1</dim>
					<dim>1</dim>
				</port>
				<port id="1">
					<dim>480</dim>
					<dim>120</dim>
					<dim>1</dim>
					<dim>1</dim>
				</port>
			</input>
			<output>
				<port id="2" precision="FP32">
					<dim>1</dim>
					<dim>480</dim>
					<dim>1</dim>
					<dim>1</dim>
				</port>
			</output>
		</layer>
		<layer id="320" name="Conv_165/Dims7183" type="Const" version="opset1">
			<data offset="4045916" size="1920" shape="1,480,1,1" element_type="f32"/>
			<output>
				<port id="0" precision="FP32">
					<dim>1</dim>
					<dim>480</dim>
					<dim>1</dim>
					<dim>1</dim>
				</port>
			</output>
		</layer>
		<layer id="321" name="Conv_165" type="Add" version="opset1">
			<data auto_broadcast="numpy"/>
			<input>
				<port id="0">
					<dim>1</dim>
					<dim>480</dim>
					<dim>1</dim>
					<dim>1</dim>
				</port>
				<port id="1">
					<dim>1</dim>
					<dim>480</dim>
					<dim>1</dim>
					<dim>1</dim>
				</port>
			</input>
			<output>
				<port id="2" precision="FP32" names="585">
					<dim>1</dim>
					<dim>480</dim>
					<dim>1</dim>
					<dim>1</dim>
				</port>
			</output>
		</layer>
		<layer id="322" name="HardSigmoid_166/HardSigmoid_" type="HardSigmoid" version="opset1">
			<input>
				<port id="0">
					<dim>1</dim>
					<dim>480</dim>
					<dim>1</dim>
					<dim>1</dim>
				</port>
				<port id="1"/>
				<port id="2"/>
			</input>
			<output>
				<port id="3" precision="FP32" names="586">
					<dim>1</dim>
					<dim>480</dim>
					<dim>1</dim>
					<dim>1</dim>
				</port>
			</output>
		</layer>
		<layer id="323" name="Mul_167" type="Multiply" version="opset1">
			<data auto_broadcast="numpy"/>
			<input>
				<port id="0">
					<dim>1</dim>
					<dim>480</dim>
					<dim>1</dim>
					<dim>1</dim>
				</port>
				<port id="1">
					<dim>1</dim>
					<dim>480</dim>
					<dim>6</dim>
					<dim>10</dim>
				</port>
			</input>
			<output>
				<port id="2" precision="FP32" names="587">
					<dim>1</dim>
					<dim>480</dim>
					<dim>6</dim>
					<dim>10</dim>
				</port>
			</output>
		</layer>
		<layer id="324" name="Conv_168/WithoutBiases" type="Convolution" version="opset1">
			<data auto_pad="explicit" strides="1,1" dilations="1,1" pads_begin="0,0" pads_end="0,0"/>
			<input>
				<port id="0">
					<dim>1</dim>
					<dim>480</dim>
					<dim>6</dim>
					<dim>10</dim>
				</port>
				<port id="1">
					<dim>112</dim>
					<dim>480</dim>
					<dim>1</dim>
					<dim>1</dim>
				</port>
			</input>
			<output>
				<port id="2" precision="FP32">
					<dim>1</dim>
					<dim>112</dim>
					<dim>6</dim>
					<dim>10</dim>
				</port>
			</output>
		</layer>
		<layer id="325" name="Conv_168/Dims7393" type="Const" version="opset1">
			<data offset="4047836" size="448" shape="1,112,1,1" element_type="f32"/>
			<output>
				<port id="0" precision="FP32">
					<dim>1</dim>
					<dim>112</dim>
					<dim>1</dim>
					<dim>1</dim>
				</port>
			</output>
		</layer>
		<layer id="326" name="Conv_168" type="Add" version="opset1">
			<data auto_broadcast="numpy"/>
			<input>
				<port id="0">
					<dim>1</dim>
					<dim>112</dim>
					<dim>6</dim>
					<dim>10</dim>
				</port>
				<port id="1">
					<dim>1</dim>
					<dim>112</dim>
					<dim>1</dim>
					<dim>1</dim>
				</port>
			</input>
			<output>
				<port id="2" precision="FP32" names="1039">
					<dim>1</dim>
					<dim>112</dim>
					<dim>6</dim>
					<dim>10</dim>
				</port>
			</output>
		</layer>
		<layer id="327" name="Conv_169/WithoutBiases" type="Convolution" version="opset1">
			<data auto_pad="explicit" strides="1,1" dilations="1,1" pads_begin="0,0" pads_end="0,0"/>
			<input>
				<port id="0">
					<dim>1</dim>
					<dim>112</dim>
					<dim>6</dim>
					<dim>10</dim>
				</port>
				<port id="1">
					<dim>672</dim>
					<dim>112</dim>
					<dim>1</dim>
					<dim>1</dim>
				</port>
			</input>
			<output>
				<port id="2" precision="FP32">
					<dim>1</dim>
					<dim>672</dim>
					<dim>6</dim>
					<dim>10</dim>
				</port>
			</output>
		</layer>
		<layer id="328" name="Conv_169/Dims7099" type="Const" version="opset1">
			<data offset="4048284" size="2688" shape="1,672,1,1" element_type="f32"/>
			<output>
				<port id="0" precision="FP32">
					<dim>1</dim>
					<dim>672</dim>
					<dim>1</dim>
					<dim>1</dim>
				</port>
			</output>
		</layer>
		<layer id="329" name="Conv_169" type="Add" version="opset1">
			<data auto_broadcast="numpy"/>
			<input>
				<port id="0">
					<dim>1</dim>
					<dim>672</dim>
					<dim>6</dim>
					<dim>10</dim>
				</port>
				<port id="1">
					<dim>1</dim>
					<dim>672</dim>
					<dim>1</dim>
					<dim>1</dim>
				</port>
			</input>
			<output>
				<port id="2" precision="FP32" names="1042">
					<dim>1</dim>
					<dim>672</dim>
					<dim>6</dim>
					<dim>10</dim>
				</port>
			</output>
		</layer>
		<layer id="330" name="Constant_175" type="Const" version="opset1">
			<data offset="4050972" size="4" shape="1,1,1,1" element_type="f32"/>
			<output>
				<port id="0" precision="FP32" names="597">
					<dim>1</dim>
					<dim>1</dim>
					<dim>1</dim>
					<dim>1</dim>
				</port>
			</output>
		</layer>
		<layer id="331" name="Constant_170" type="Const" version="opset1">
			<data offset="3081568" size="4" shape="1,1,1,1" element_type="f32"/>
			<output>
				<port id="0" precision="FP32" names="592">
					<dim>1</dim>
					<dim>1</dim>
					<dim>1</dim>
					<dim>1</dim>
				</port>
			</output>
		</layer>
		<layer id="332" name="Add_171" type="Add" version="opset1">
			<data auto_broadcast="numpy"/>
			<input>
				<port id="0">
					<dim>1</dim>
					<dim>672</dim>
					<dim>6</dim>
					<dim>10</dim>
				</port>
				<port id="1">
					<dim>1</dim>
					<dim>1</dim>
					<dim>1</dim>
					<dim>1</dim>
				</port>
			</input>
			<output>
				<port id="2" precision="FP32" names="593">
					<dim>1</dim>
					<dim>672</dim>
					<dim>6</dim>
					<dim>10</dim>
				</port>
			</output>
		</layer>
		<layer id="333" name="Clip_174" type="Clamp" version="opset1">
			<data max="6.0" min="0.0"/>
			<input>
				<port id="0">
					<dim>1</dim>
					<dim>672</dim>
					<dim>6</dim>
					<dim>10</dim>
				</port>
			</input>
			<output>
				<port id="1" precision="FP32" names="596">
					<dim>1</dim>
					<dim>672</dim>
					<dim>6</dim>
					<dim>10</dim>
				</port>
			</output>
		</layer>
		<layer id="334" name="Div_176" type="Multiply" version="opset1">
			<data auto_broadcast="numpy"/>
			<input>
				<port id="0">
					<dim>1</dim>
					<dim>672</dim>
					<dim>6</dim>
					<dim>10</dim>
				</port>
				<port id="1">
					<dim>1</dim>
					<dim>1</dim>
					<dim>1</dim>
					<dim>1</dim>
				</port>
			</input>
			<output>
				<port id="2" precision="FP32" names="598">
					<dim>1</dim>
					<dim>672</dim>
					<dim>6</dim>
					<dim>10</dim>
				</port>
			</output>
		</layer>
		<layer id="335" name="Mul_177" type="Multiply" version="opset1">
			<data auto_broadcast="numpy"/>
			<input>
				<port id="0">
					<dim>1</dim>
					<dim>672</dim>
					<dim>6</dim>
					<dim>10</dim>
				</port>
				<port id="1">
					<dim>1</dim>
					<dim>672</dim>
					<dim>6</dim>
					<dim>10</dim>
				</port>
			</input>
			<output>
				<port id="2" precision="FP32" names="599">
					<dim>1</dim>
					<dim>672</dim>
					<dim>6</dim>
					<dim>10</dim>
				</port>
			</output>
		</layer>
		<layer id="336" name="1046" type="Const" version="opset1">
			<data offset="4050976" size="24192" shape="672,1,1,3,3" element_type="f32"/>
			<output>
				<port id="0" precision="FP32" names="1046">
					<dim>672</dim>
					<dim>1</dim>
					<dim>1</dim>
					<dim>3</dim>
					<dim>3</dim>
				</port>
			</output>
		</layer>
		<layer id="337" name="Conv_178/WithoutBiases" type="GroupConvolution" version="opset1">
			<data auto_pad="explicit" strides="1,1" dilations="1,1" pads_begin="1,1" pads_end="1,1"/>
			<input>
				<port id="0">
					<dim>1</dim>
					<dim>672</dim>
					<dim>6</dim>
					<dim>10</dim>
				</port>
				<port id="1">
					<dim>672</dim>
					<dim>1</dim>
					<dim>1</dim>
					<dim>3</dim>
					<dim>3</dim>
				</port>
			</input>
			<output>
				<port id="2" precision="FP32">
					<dim>1</dim>
					<dim>672</dim>
					<dim>6</dim>
					<dim>10</dim>
				</port>
			</output>
		</layer>
		<layer id="338" name="Conv_178/Dims7063" type="Const" version="opset1">
			<data offset="4075168" size="2688" shape="1,672,1,1" element_type="f32"/>
			<output>
				<port id="0" precision="FP32">
					<dim>1</dim>
					<dim>672</dim>
					<dim>1</dim>
					<dim>1</dim>
				</port>
			</output>
		</layer>
		<layer id="339" name="Conv_178" type="Add" version="opset1">
			<data auto_broadcast="numpy"/>
			<input>
				<port id="0">
					<dim>1</dim>
					<dim>672</dim>
					<dim>6</dim>
					<dim>10</dim>
				</port>
				<port id="1">
					<dim>1</dim>
					<dim>672</dim>
					<dim>1</dim>
					<dim>1</dim>
				</port>
			</input>
			<output>
				<port id="2" precision="FP32" names="1045">
					<dim>1</dim>
					<dim>672</dim>
					<dim>6</dim>
					<dim>10</dim>
				</port>
			</output>
		</layer>
		<layer id="340" name="Constant_184" type="Const" version="opset1">
			<data offset="4050972" size="4" shape="1,1,1,1" element_type="f32"/>
			<output>
				<port id="0" precision="FP32" names="607">
					<dim>1</dim>
					<dim>1</dim>
					<dim>1</dim>
					<dim>1</dim>
				</port>
			</output>
		</layer>
		<layer id="341" name="Constant_179" type="Const" version="opset1">
			<data offset="3081568" size="4" shape="1,1,1,1" element_type="f32"/>
			<output>
				<port id="0" precision="FP32" names="602">
					<dim>1</dim>
					<dim>1</dim>
					<dim>1</dim>
					<dim>1</dim>
				</port>
			</output>
		</layer>
		<layer id="342" name="Add_180" type="Add" version="opset1">
			<data auto_broadcast="numpy"/>
			<input>
				<port id="0">
					<dim>1</dim>
					<dim>672</dim>
					<dim>6</dim>
					<dim>10</dim>
				</port>
				<port id="1">
					<dim>1</dim>
					<dim>1</dim>
					<dim>1</dim>
					<dim>1</dim>
				</port>
			</input>
			<output>
				<port id="2" precision="FP32" names="603">
					<dim>1</dim>
					<dim>672</dim>
					<dim>6</dim>
					<dim>10</dim>
				</port>
			</output>
		</layer>
		<layer id="343" name="Clip_183" type="Clamp" version="opset1">
			<data max="6.0" min="0.0"/>
			<input>
				<port id="0">
					<dim>1</dim>
					<dim>672</dim>
					<dim>6</dim>
					<dim>10</dim>
				</port>
			</input>
			<output>
				<port id="1" precision="FP32" names="606">
					<dim>1</dim>
					<dim>672</dim>
					<dim>6</dim>
					<dim>10</dim>
				</port>
			</output>
		</layer>
		<layer id="344" name="Div_185" type="Multiply" version="opset1">
			<data auto_broadcast="numpy"/>
			<input>
				<port id="0">
					<dim>1</dim>
					<dim>672</dim>
					<dim>6</dim>
					<dim>10</dim>
				</port>
				<port id="1">
					<dim>1</dim>
					<dim>1</dim>
					<dim>1</dim>
					<dim>1</dim>
				</port>
			</input>
			<output>
				<port id="2" precision="FP32" names="608">
					<dim>1</dim>
					<dim>672</dim>
					<dim>6</dim>
					<dim>10</dim>
				</port>
			</output>
		</layer>
		<layer id="345" name="Mul_186" type="Multiply" version="opset1">
			<data auto_broadcast="numpy"/>
			<input>
				<port id="0">
					<dim>1</dim>
					<dim>672</dim>
					<dim>6</dim>
					<dim>10</dim>
				</port>
				<port id="1">
					<dim>1</dim>
					<dim>672</dim>
					<dim>6</dim>
					<dim>10</dim>
				</port>
			</input>
			<output>
				<port id="2" precision="FP32" names="609">
					<dim>1</dim>
					<dim>672</dim>
					<dim>6</dim>
					<dim>10</dim>
				</port>
			</output>
		</layer>
		<layer id="346" name="HardSigmoid_191/HardSigmoid__input_port_1/value" type="Const" version="opset1">
			<data offset="4077856" size="4" shape="" element_type="f32"/>
			<output>
				<port id="0" precision="FP32"/>
			</output>
		</layer>
		<layer id="347" name="HardSigmoid_191/HardSigmoid__input_port_2/value" type="Const" version="opset1">
			<data offset="3111080" size="4" shape="" element_type="f32"/>
			<output>
				<port id="0" precision="FP32"/>
			</output>
		</layer>
		<layer id="348" name="backbone.features.12.block.2.fc2.weight" type="Const" version="opset1">
			<data offset="4077860" size="451584" shape="672,168,1,1" element_type="f32"/>
			<output>
				<port id="0" precision="FP32" names="backbone.features.12.block.2.fc2.weight">
					<dim>672</dim>
					<dim>168</dim>
					<dim>1</dim>
					<dim>1</dim>
				</port>
			</output>
		</layer>
		<layer id="349" name="backbone.features.12.block.2.fc1.weight" type="Const" version="opset1">
			<data offset="4529444" size="451584" shape="168,672,1,1" element_type="f32"/>
			<output>
				<port id="0" precision="FP32" names="backbone.features.12.block.2.fc1.weight">
					<dim>168</dim>
					<dim>672</dim>
					<dim>1</dim>
					<dim>1</dim>
				</port>
			</output>
		</layer>
		<layer id="350" name="707" type="Const" version="opset1">
			<data offset="3081452" size="8" shape="" element_type="i64"/>
			<output>
				<port id="0" precision="I64"/>
			</output>
		</layer>
		<layer id="351" name="709" type="Const" version="opset1">
			<data offset="3081468" size="8" shape="" element_type="i64"/>
			<output>
				<port id="0" precision="I64"/>
			</output>
		</layer>
		<layer id="352" name="GlobalAveragePool_187/input_rank/shape_of" type="ShapeOf" version="opset3">
			<data output_type="i64"/>
			<input>
				<port id="0">
					<dim>1</dim>
					<dim>672</dim>
					<dim>6</dim>
					<dim>10</dim>
				</port>
			</input>
			<output>
				<port id="1" precision="I64">
					<dim>4</dim>
				</port>
			</output>
		</layer>
		<layer id="353" name="GlobalAveragePool_187/input_rank/rank_of" type="ShapeOf" version="opset3">
			<data output_type="i64"/>
			<input>
				<port id="0">
					<dim>4</dim>
				</port>
			</input>
			<output>
				<port id="1" precision="I64">
					<dim>1</dim>
				</port>
			</output>
		</layer>
		<layer id="354" name="GlobalAveragePool_187/input_rank/0d_rank_of/value" type="Const" version="opset1">
			<data offset="3124908" size="8" shape="1" element_type="i64"/>
			<output>
				<port id="0" precision="I64">
					<dim>1</dim>
				</port>
			</output>
		</layer>
		<layer id="355" name="GlobalAveragePool_187/input_rank" type="Squeeze" version="opset1">
			<input>
				<port id="0">
					<dim>1</dim>
				</port>
				<port id="1">
					<dim>1</dim>
				</port>
			</input>
			<output>
				<port id="2" precision="I64"/>
			</output>
		</layer>
		<layer id="356" name="GlobalAveragePool_187/global_pooling_reduce_axis" type="Range" version="opset4">
			<data output_type="i64"/>
			<input>
				<port id="0"/>
				<port id="1"/>
				<port id="2"/>
			</input>
			<output>
				<port id="3" precision="I64">
					<dim>2</dim>
				</port>
			</output>
		</layer>
		<layer id="357" name="GlobalAveragePool_187/reduce" type="ReduceMean" version="opset1">
			<data keep_dims="true"/>
			<input>
				<port id="0">
					<dim>1</dim>
					<dim>672</dim>
					<dim>6</dim>
					<dim>10</dim>
				</port>
				<port id="1">
					<dim>2</dim>
				</port>
			</input>
			<output>
				<port id="2" precision="FP32" names="610">
					<dim>1</dim>
					<dim>672</dim>
					<dim>1</dim>
					<dim>1</dim>
				</port>
			</output>
		</layer>
		<layer id="358" name="Conv_188/WithoutBiases" type="Convolution" version="opset1">
			<data auto_pad="explicit" strides="1,1" dilations="1,1" pads_begin="0,0" pads_end="0,0"/>
			<input>
				<port id="0">
					<dim>1</dim>
					<dim>672</dim>
					<dim>1</dim>
					<dim>1</dim>
				</port>
				<port id="1">
					<dim>168</dim>
					<dim>672</dim>
					<dim>1</dim>
					<dim>1</dim>
				</port>
			</input>
			<output>
				<port id="2" precision="FP32">
					<dim>1</dim>
					<dim>168</dim>
					<dim>1</dim>
					<dim>1</dim>
				</port>
			</output>
		</layer>
		<layer id="359" name="Conv_188/Dims7087" type="Const" version="opset1">
			<data offset="4981028" size="672" shape="1,168,1,1" element_type="f32"/>
			<output>
				<port id="0" precision="FP32">
					<dim>1</dim>
					<dim>168</dim>
					<dim>1</dim>
					<dim>1</dim>
				</port>
			</output>
		</layer>
		<layer id="360" name="Conv_188" type="Add" version="opset1">
			<data auto_broadcast="numpy"/>
			<input>
				<port id="0">
					<dim>1</dim>
					<dim>168</dim>
					<dim>1</dim>
					<dim>1</dim>
				</port>
				<port id="1">
					<dim>1</dim>
					<dim>168</dim>
					<dim>1</dim>
					<dim>1</dim>
				</port>
			</input>
			<output>
				<port id="2" precision="FP32" names="611">
					<dim>1</dim>
					<dim>168</dim>
					<dim>1</dim>
					<dim>1</dim>
				</port>
			</output>
		</layer>
		<layer id="361" name="Relu_189" type="ReLU" version="opset1">
			<input>
				<port id="0">
					<dim>1</dim>
					<dim>168</dim>
					<dim>1</dim>
					<dim>1</dim>
				</port>
			</input>
			<output>
				<port id="1" precision="FP32" names="612">
					<dim>1</dim>
					<dim>168</dim>
					<dim>1</dim>
					<dim>1</dim>
				</port>
			</output>
		</layer>
		<layer id="362" name="Conv_190/WithoutBiases" type="Convolution" version="opset1">
			<data auto_pad="explicit" strides="1,1" dilations="1,1" pads_begin="0,0" pads_end="0,0"/>
			<input>
				<port id="0">
					<dim>1</dim>
					<dim>168</dim>
					<dim>1</dim>
					<dim>1</dim>
				</port>
				<port id="1">
					<dim>672</dim>
					<dim>168</dim>
					<dim>1</dim>
					<dim>1</dim>
				</port>
			</input>
			<output>
				<port id="2" precision="FP32">
					<dim>1</dim>
					<dim>672</dim>
					<dim>1</dim>
					<dim>1</dim>
				</port>
			</output>
		</layer>
		<layer id="363" name="Conv_190/Dims7315" type="Const" version="opset1">
			<data offset="4981700" size="2688" shape="1,672,1,1" element_type="f32"/>
			<output>
				<port id="0" precision="FP32">
					<dim>1</dim>
					<dim>672</dim>
					<dim>1</dim>
					<dim>1</dim>
				</port>
			</output>
		</layer>
		<layer id="364" name="Conv_190" type="Add" version="opset1">
			<data auto_broadcast="numpy"/>
			<input>
				<port id="0">
					<dim>1</dim>
					<dim>672</dim>
					<dim>1</dim>
					<dim>1</dim>
				</port>
				<port id="1">
					<dim>1</dim>
					<dim>672</dim>
					<dim>1</dim>
					<dim>1</dim>
				</port>
			</input>
			<output>
				<port id="2" precision="FP32" names="613">
					<dim>1</dim>
					<dim>672</dim>
					<dim>1</dim>
					<dim>1</dim>
				</port>
			</output>
		</layer>
		<layer id="365" name="HardSigmoid_191/HardSigmoid_" type="HardSigmoid" version="opset1">
			<input>
				<port id="0">
					<dim>1</dim>
					<dim>672</dim>
					<dim>1</dim>
					<dim>1</dim>
				</port>
				<port id="1"/>
				<port id="2"/>
			</input>
			<output>
				<port id="3" precision="FP32" names="614">
					<dim>1</dim>
					<dim>672</dim>
					<dim>1</dim>
					<dim>1</dim>
				</port>
			</output>
		</layer>
		<layer id="366" name="Mul_192" type="Multiply" version="opset1">
			<data auto_broadcast="numpy"/>
			<input>
				<port id="0">
					<dim>1</dim>
					<dim>672</dim>
					<dim>1</dim>
					<dim>1</dim>
				</port>
				<port id="1">
					<dim>1</dim>
					<dim>672</dim>
					<dim>6</dim>
					<dim>10</dim>
				</port>
			</input>
			<output>
				<port id="2" precision="FP32" names="615">
					<dim>1</dim>
					<dim>672</dim>
					<dim>6</dim>
					<dim>10</dim>
				</port>
			</output>
		</layer>
		<layer id="367" name="Conv_193/WithoutBiases" type="Convolution" version="opset1">
			<data auto_pad="explicit" strides="1,1" dilations="1,1" pads_begin="0,0" pads_end="0,0"/>
			<input>
				<port id="0">
					<dim>1</dim>
					<dim>672</dim>
					<dim>6</dim>
					<dim>10</dim>
				</port>
				<port id="1">
					<dim>112</dim>
					<dim>672</dim>
					<dim>1</dim>
					<dim>1</dim>
				</port>
			</input>
			<output>
				<port id="2" precision="FP32">
					<dim>1</dim>
					<dim>112</dim>
					<dim>6</dim>
					<dim>10</dim>
				</port>
			</output>
		</layer>
		<layer id="368" name="Conv_193/Dims7381" type="Const" version="opset1">
			<data offset="4984388" size="448" shape="1,112,1,1" element_type="f32"/>
			<output>
				<port id="0" precision="FP32">
					<dim>1</dim>
					<dim>112</dim>
					<dim>1</dim>
					<dim>1</dim>
				</port>
			</output>
		</layer>
		<layer id="369" name="Conv_193" type="Add" version="opset1">
			<data auto_broadcast="numpy"/>
			<input>
				<port id="0">
					<dim>1</dim>
					<dim>112</dim>
					<dim>6</dim>
					<dim>10</dim>
				</port>
				<port id="1">
					<dim>1</dim>
					<dim>112</dim>
					<dim>1</dim>
					<dim>1</dim>
				</port>
			</input>
			<output>
				<port id="2" precision="FP32" names="1048">
					<dim>1</dim>
					<dim>112</dim>
					<dim>6</dim>
					<dim>10</dim>
				</port>
			</output>
		</layer>
		<layer id="370" name="Add_194" type="Add" version="opset1">
			<data auto_broadcast="numpy"/>
			<input>
				<port id="0">
					<dim>1</dim>
					<dim>112</dim>
					<dim>6</dim>
					<dim>10</dim>
				</port>
				<port id="1">
					<dim>1</dim>
					<dim>112</dim>
					<dim>6</dim>
					<dim>10</dim>
				</port>
			</input>
			<output>
				<port id="2" precision="FP32" names="618">
					<dim>1</dim>
					<dim>112</dim>
					<dim>6</dim>
					<dim>10</dim>
				</port>
			</output>
		</layer>
		<layer id="371" name="Conv_195/WithoutBiases" type="Convolution" version="opset1">
			<data auto_pad="explicit" strides="1,1" dilations="1,1" pads_begin="0,0" pads_end="0,0"/>
			<input>
				<port id="0">
					<dim>1</dim>
					<dim>112</dim>
					<dim>6</dim>
					<dim>10</dim>
				</port>
				<port id="1">
					<dim>672</dim>
					<dim>112</dim>
					<dim>1</dim>
					<dim>1</dim>
				</port>
			</input>
			<output>
				<port id="2" precision="FP32">
					<dim>1</dim>
					<dim>672</dim>
					<dim>6</dim>
					<dim>10</dim>
				</port>
			</output>
		</layer>
		<layer id="372" name="Conv_195/Dims7477" type="Const" version="opset1">
			<data offset="4984836" size="2688" shape="1,672,1,1" element_type="f32"/>
			<output>
				<port id="0" precision="FP32">
					<dim>1</dim>
					<dim>672</dim>
					<dim>1</dim>
					<dim>1</dim>
				</port>
			</output>
		</layer>
		<layer id="373" name="Conv_195" type="Add" version="opset1">
			<data auto_broadcast="numpy"/>
			<input>
				<port id="0">
					<dim>1</dim>
					<dim>672</dim>
					<dim>6</dim>
					<dim>10</dim>
				</port>
				<port id="1">
					<dim>1</dim>
					<dim>672</dim>
					<dim>1</dim>
					<dim>1</dim>
				</port>
			</input>
			<output>
				<port id="2" precision="FP32" names="1051">
					<dim>1</dim>
					<dim>672</dim>
					<dim>6</dim>
					<dim>10</dim>
				</port>
			</output>
		</layer>
		<layer id="374" name="Constant_201" type="Const" version="opset1">
			<data offset="4987524" size="4" shape="1,1,1,1" element_type="f32"/>
			<output>
				<port id="0" precision="FP32" names="626">
					<dim>1</dim>
					<dim>1</dim>
					<dim>1</dim>
					<dim>1</dim>
				</port>
			</output>
		</layer>
		<layer id="375" name="Constant_196" type="Const" version="opset1">
			<data offset="3081568" size="4" shape="1,1,1,1" element_type="f32"/>
			<output>
				<port id="0" precision="FP32" names="621">
					<dim>1</dim>
					<dim>1</dim>
					<dim>1</dim>
					<dim>1</dim>
				</port>
			</output>
		</layer>
…
		<edge from-layer="312" from-port="2" to-layer="313" to-port="1"/>
		<edge from-layer="308" from-port="0" to-layer="313" to-port="2"/>
		<edge from-layer="302" from-port="2" to-layer="314" to-port="0"/>
		<edge from-layer="313" from-port="3" to-layer="314" to-port="1"/>
		<edge from-layer="314" from-port="2" to-layer="315" to-port="0"/>
		<edge from-layer="306" from-port="0" to-layer="315" to-port="1"/>
		<edge from-layer="315" from-port="2" to-layer="317" to-port="0"/>
		<edge from-layer="316" from-port="0" to-layer="317" to-port="1"/>
		<edge from-layer="317" from-port="2" to-layer="318" to-port="0"/>
		<edge from-layer="318" from-port="1" to-layer="319" to-port="0"/>
		<edge from-layer="305" from-port="0" to-layer="319" to-port="1"/>
		<edge from-layer="319" from-port="2" to-layer="321" to-port="0"/>
		<edge from-layer="320" from-port="0" to-layer="321" to-port="1"/>
		<edge from-layer="321" from-port="2" to-layer="322" to-port="0"/>
		<edge from-layer="303" from-port="0" to-layer="322" to-port="1"/>
		<edge from-layer="304" from-port="0" to-layer="322" to-port="2"/>
		<edge from-layer="322" from-port="3" to-layer="323" to-port="0"/>
		<edge from-layer="302" from-port="2" to-layer="323" to-port="1"/>
		<edge from-layer="323" from-port="2" to-layer="324" to-port="0"/>
		<edge from-layer="7" from-port="0" to-layer="324" to-port="1"/>
		<edge from-layer="324" from-port="2" to-layer="326" to-port="0"/>
		<edge from-layer="325" from-port="0" to-layer="326" to-port="1"/>
		<edge from-layer="326" from-port="2" to-layer="327" to-port="0"/>
		<edge from-layer="6" from-port="0" to-layer="327" to-port="1"/>
		<edge from-layer="327" from-port="2" to-layer="329" to-port="0"/>
		<edge from-layer="328" from-port="0" to-layer="329" to-port="1"/>
		<edge from-layer="329" from-port="2" to-layer="332" to-port="0"/>
		<edge from-layer="331" from-port="0" to-layer="332" to-port="1"/>
		<edge from-layer="332" from-port="2" to-layer="333" to-port="0"/>
		<edge from-layer="333" from-port="1" to-layer="334" to-port="0"/>
		<edge from-layer="330" from-port="0" to-layer="334" to-port="1"/>
		<edge from-layer="329" from-port="2" to-layer="335" to-port="0"/>
		<edge from-layer="334" from-port="2" to-layer="335" to-port="1"/>
		<edge from-layer="335" from-port="2" to-layer="337" to-port="0"/>
		<edge from-layer="336" from-port="0" to-layer="337" to-port="1"/>
		<edge from-layer="337" from-port="2" to-layer="339" to-port="0"/>
		<edge from-layer="338" from-port="0" to-layer="339" to-port="1"/>
		<edge from-layer="339" from-port="2" to-layer="342" to-port="0"/>
		<edge from-layer="341" from-port="0" to-layer="342" to-port="1"/>
		<edge from-layer="342" from-port="2" to-layer="343" to-port="0"/>
		<edge from-layer="343" from-port="1" to-layer="344" to-port="0"/>
		<edge from-layer="340" from-port="0" to-layer="344" to-port="1"/>
		<edge from-layer="339" from-port="2" to-layer="345" to-port="0"/>
		<edge from-layer="344" from-port="2" to-layer="345" to-port="1"/>
		<edge from-layer="345" from-port="2" to-layer="352" to-port="0"/>
		<edge from-layer="352" from-port="1" to-layer="353" to-port="0"/>
		<edge from-layer="353" from-port="1" to-layer="355" to-port="0"/>
		<edge from-layer="354" from-port="0" to-layer="355" to-port="1"/>
		<edge from-layer="350" from-port="0" to-layer="356" to-port="0"/>
		<edge from-layer="355" from-port="2" to-layer="356" to-port="1"/>
		<edge from-layer="351" from-port="0" to-layer="356" to-port="2"/>
		<edge from-layer="345" from-port="2" to-layer="357" to-port="0"/>
		<edge from-layer="356" from-port="3" to-layer="357" to-port="1"/>
		<edge from-layer="357" from-port="2" to-layer="358" to-port="0"/>
		<edge from-layer="349" from-port="0" to-layer="358" to-port="1"/>
		<edge from-layer="358" from-port="2" to-layer="360" to-port="0"/>
		<edge from-layer="359" from-port="0" to-layer="360" to-port="1"/>
		<edge from-layer="360" from-port="2" to-layer="361" to-port="0"/>
		<edge from-layer="361" from-port="1" to-layer="362" to-port="0"/>
		<edge from-layer="348" from-port="0" to-layer="362" to-port="1"/>
		<edge from-layer="362" from-port="2" to-layer="364" to-port="0"/>
		<edge from-layer="363" from-port="0" to-layer="364" to-port="1"/>
		<edge from-layer="364" from-port="2" to-layer="365" to-port="0"/>
		<edge from-layer="346" from-port="0" to-layer="365" to-port="1"/>
		<edge from-layer="347" from-port="0" to-layer="365" to-port="2"/>
		<edge from-layer="365" from-port="3" to-layer="366" to-port="0"/>
		<edge from-layer="345" from-port="2" to-layer="366" to-port="1"/>
		<edge from-layer="366" from-port="2" to-layer="367" to-port="0"/>
		<edge from-layer="5" from-port="0" to-layer="367" to-port="1"/>
		<edge from-layer="367" from-port="2" to-layer="369" to-port="0"/>
		<edge from-layer="368" from-port="0" to-layer="369" to-port="1"/>
		<edge from-layer="369" from-port="2" to-layer="370" to-port="0"/>
		<edge from-layer="326" from-port="2" to-layer="370" to-port="1"/>
		<edge from-layer="370" from-port="2" to-layer="371" to-port="0"/>
		<edge from-layer="4" from-port="0" to-layer="371" to-port="1"/>
		<edge from-layer="371" from-port="2" to-layer="373" to-port="0"/>
		<edge from-layer="372" from-port="0" to-layer="373" to-port="1"/>
		<edge from-layer="373" from-port="2" to-layer="376" to-port="0"/>
		<edge from-layer="375" from-port="0" to-layer="376" to-port="1"/>
		<edge from-layer="376" from-port="2" to-layer="377" to-port="0"/>
		<edge from-layer="377" from-port="1" to-layer="378" to-port="0"/>
		<edge from-layer="374" from-port="0" to-layer="378" to-port="1"/>
		<edge from-layer="373" from-port="2" to-layer="379" to-port="0"/>
		<edge from-layer="378" from-port="2" to-layer="379" to-port="1"/>
		<edge from-layer="379" from-port="2" to-layer="381" to-port="0"/>
		<edge from-layer="380" from-port="0" to-layer="381" to-port="1"/>
		<edge from-layer="381" from-port="2" to-layer="383" to-port="0"/>
		<edge from-layer="382" from-port="0" to-layer="383" to-port="1"/>
		<edge from-layer="383" from-port="2" to-layer="386" to-port="0"/>
		<edge from-layer="385" from-port="0" to-layer="386" to-port="1"/>
		<edge from-layer="386" from-port="2" to-layer="387" to-port="0"/>
		<edge from-layer="387" from-port="1" to-layer="388" to-port="0"/>
		<edge from-layer="384" from-port="0" to-layer="388" to-port="1"/>
		<edge from-layer="383" from-port="2" to-layer="389" to-port="0"/>
		<edge from-layer="388" from-port="2" to-layer="389" to-port="1"/>
		<edge from-layer="389" from-port="2" to-layer="396" to-port="0"/>
		<edge from-layer="396" from-port="1" to-layer="397" to-port="0"/>
		<edge from-layer="397" from-port="1" to-layer="399" to-port="0"/>
		<edge from-layer="398" from-port="0" to-layer="399" to-port="1"/>
		<edge from-layer="394" from-port="0" to-layer="400" to-port="0"/>
		<edge from-layer="399" from-port="2" to-layer="400" to-port="1"/>
		<edge from-layer="395" from-port="0" to-layer="400" to-port="2"/>
		<edge from-layer="389" from-port="2" to-layer="401" to-port="0"/>
		<edge from-layer="400" from-port="3" to-layer="401" to-port="1"/>
		<edge from-layer="401" from-port="2" to-layer="402" to-port="0"/>
		<edge from-layer="393" from-port="0" to-layer="402" to-port="1"/>
		<edge from-layer="402" from-port="2" to-layer="404" to-port="0"/>
		<edge from-layer="403" from-port="0" to-layer="404" to-port="1"/>
		<edge from-layer="404" from-port="2" to-layer="405" to-port="0"/>
		<edge from-layer="405" from-port="1" to-layer="406" to-port="0"/>
		<edge from-layer="392" from-port="0" to-layer="406" to-port="1"/>
		<edge from-layer="406" from-port="2" to-layer="408" to-port="0"/>
		<edge from-layer="407" from-port="0" to-layer="408" to-port="1"/>
		<edge from-layer="408" from-port="2" to-layer="409" to-port="0"/>
		<edge from-layer="390" from-port="0" to-layer="409" to-port="1"/>
		<edge from-layer="391" from-port="0" to-layer="409" to-port="2"/>
		<edge from-layer="409" from-port="3" to-layer="410" to-port="0"/>
		<edge from-layer="389" from-port="2" to-layer="410" to-port="1"/>
		<edge from-layer="410" from-port="2" to-layer="411" to-port="0"/>
		<edge from-layer="3" from-port="0" to-layer="411" to-port="1"/>
		<edge from-layer="411" from-port="2" to-layer="413" to-port="0"/>
		<edge from-layer="412" from-port="0" to-layer="413" to-port="1"/>
		<edge from-layer="413" from-port="2" to-layer="416" to-port="0"/>
		<edge from-layer="415" from-port="0" to-layer="416" to-port="1"/>
		<edge from-layer="416" from-port="2" to-layer="418" to-port="0"/>
		<edge from-layer="417" from-port="0" to-layer="418" to-port="1"/>
		<edge from-layer="418" from-port="2" to-layer="421" to-port="0"/>
		<edge from-layer="420" from-port="0" to-layer="421" to-port="1"/>
		<edge from-layer="421" from-port="2" to-layer="422" to-port="0"/>
		<edge from-layer="422" from-port="1" to-layer="423" to-port="0"/>
		<edge from-layer="419" from-port="0" to-layer="423" to-port="1"/>
		<edge from-layer="418" from-port="2" to-layer="424" to-port="0"/>
		<edge from-layer="423" from-port="2" to-layer="424" to-port="1"/>
		<edge from-layer="424" from-port="2" to-layer="426" to-port="0"/>
		<edge from-layer="425" from-port="0" to-layer="426" to-port="1"/>
		<edge from-layer="426" from-port="2" to-layer="428" to-port="0"/>
		<edge from-layer="427" from-port="0" to-layer="428" to-port="1"/>
		<edge from-layer="428" from-port="2" to-layer="431" to-port="0"/>
		<edge from-layer="430" from-port="0" to-layer="431" to-port="1"/>
		<edge from-layer="431" from-port="2" to-layer="432" to-port="0"/>
		<edge from-layer="432" from-port="1" to-layer="433" to-port="0"/>
		<edge from-layer="429" from-port="0" to-layer="433" to-port="1"/>
		<edge from-layer="428" from-port="2" to-layer="434" to-port="0"/>
		<edge from-layer="433" from-port="2" to-layer="434" to-port="1"/>
		<edge from-layer="434" from-port="2" to-layer="441" to-port="0"/>
		<edge from-layer="441" from-port="1" to-layer="442" to-port="0"/>
		<edge from-layer="442" from-port="1" to-layer="444" to-port="0"/>
		<edge from-layer="443" from-port="0" to-layer="444" to-port="1"/>
		<edge from-layer="439" from-port="0" to-layer="445" to-port="0"/>
		<edge from-layer="444" from-port="2" to-layer="445" to-port="1"/>
		<edge from-layer="440" from-port="0" to-layer="445" to-port="2"/>
		<edge from-layer="434" from-port="2" to-layer="446" to-port="0"/>
		<edge from-layer="445" from-port="3" to-layer="446" to-port="1"/>
		<edge from-layer="446" from-port="2" to-layer="447" to-port="0"/>
		<edge from-layer="438" from-port="0" to-layer="447" to-port="1"/>
		<edge from-layer="447" from-port="2" to-layer="449" to-port="0"/>
		<edge from-layer="448" from-port="0" to-layer="449" to-port="1"/>
		<edge from-layer="449" from-port="2" to-layer="450" to-port="0"/>
		<edge from-layer="450" from-port="1" to-layer="451" to-port="0"/>
		<edge from-layer="437" from-port="0" to-layer="451" to-port="1"/>
		<edge from-layer="451" from-port="2" to-layer="453" to-port="0"/>
		<edge from-layer="452" from-port="0" to-layer="453" to-port="1"/>
		<edge from-layer="453" from-port="2" to-layer="454" to-port="0"/>
		<edge from-layer="435" from-port="0" to-layer="454" to-port="1"/>
		<edge from-layer="436" from-port="0" to-layer="454" to-port="2"/>
		<edge from-layer="454" from-port="3" to-layer="455" to-port="0"/>
		<edge from-layer="434" from-port="2" to-layer="455" to-port="1"/>
		<edge from-layer="455" from-port="2" to-layer="456" to-port="0"/>
		<edge from-layer="414" from-port="0" to-layer="456" to-port="1"/>
		<edge from-layer="456" from-port="2" to-layer="458" to-port="0"/>
		<edge from-layer="457" from-port="0" to-layer="458" to-port="1"/>
		<edge from-layer="458" from-port="2" to-layer="459" to-port="0"/>
		<edge from-layer="413" from-port="2" to-layer="459" to-port="1"/>
		<edge from-layer="459" from-port="2" to-layer="462" to-port="0"/>
		<edge from-layer="461" from-port="0" to-layer="462" to-port="1"/>
		<edge from-layer="462" from-port="2" to-layer="464" to-port="0"/>
		<edge from-layer="463" from-port="0" to-layer="464" to-port="1"/>
		<edge from-layer="464" from-port="2" to-layer="467" to-port="0"/>
		<edge from-layer="466" from-port="0" to-layer="467" to-port="1"/>
		<edge from-layer="467" from-port="2" to-layer="468" to-port="0"/>
		<edge from-layer="468" from-port="1" to-layer="469" to-port="0"/>
		<edge from-layer="465" from-port="0" to-layer="469" to-port="1"/>
		<edge from-layer="464" from-port="2" to-layer="470" to-port="0"/>
		<edge from-layer="469" from-port="2" to-layer="470" to-port="1"/>
		<edge from-layer="470" from-port="2" to-layer="472" to-port="0"/>
		<edge from-layer="471" from-port="0" to-layer="472" to-port="1"/>
		<edge from-layer="472" from-port="2" to-layer="474" to-port="0"/>
		<edge from-layer="473" from-port="0" to-layer="474" to-port="1"/>
		<edge from-layer="474" from-port="2" to-layer="477" to-port="0"/>
		<edge from-layer="476" from-port="0" to-layer="477" to-port="1"/>
		<edge from-layer="477" from-port="2" to-layer="478" to-port="0"/>
		<edge from-layer="478" from-port="1" to-layer="479" to-port="0"/>
		<edge from-layer="475" from-port="0" to-layer="479" to-port="1"/>
		<edge from-layer="474" from-port="2" to-layer="480" to-port="0"/>
		<edge from-layer="479" from-port="2" to-layer="480" to-port="1"/>
		<edge from-layer="480" from-port="2" to-layer="487" to-port="0"/>
		<edge from-layer="487" from-port="1" to-layer="488" to-port="0"/>
		<edge from-layer="488" from-port="1" to-layer="490" to-port="0"/>
		<edge from-layer="489" from-port="0" to-layer="490" to-port="1"/>
		<edge from-layer="485" from-port="0" to-layer="491" to-port="0"/>
		<edge from-layer="490" from-port="2" to-layer="491" to-port="1"/>
		<edge from-layer="486" from-port="0" to-layer="491" to-port="2"/>
		<edge from-layer="480" from-port="2" to-layer="492" to-port="0"/>
		<edge from-layer="491" from-port="3" to-layer="492" to-port="1"/>
		<edge from-layer="492" from-port="2" to-layer="493" to-port="0"/>
		<edge from-layer="484" from-port="0" to-layer="493" to-port="1"/>
		<edge from-layer="493" from-port="2" to-layer="495" to-port="0"/>
		<edge from-layer="494" from-port="0" to-layer="495" to-port="1"/>
		<edge from-layer="495" from-port="2" to-layer="496" to-port="0"/>
		<edge from-layer="496" from-port="1" to-layer="497" to-port="0"/>
		<edge from-layer="483" from-port="0" to-layer="497" to-port="1"/>
		<edge from-layer="497" from-port="2" to-layer="499" to-port="0"/>
		<edge from-layer="498" from-port="0" to-layer="499" to-port="1"/>
		<edge from-layer="499" from-port="2" to-layer="500" to-port="0"/>
		<edge from-layer="481" from-port="0" to-layer="500" to-port="1"/>
		<edge from-layer="482" from-port="0" to-layer="500" to-port="2"/>
		<edge from-layer="500" from-port="3" to-layer="501" to-port="0"/>
		<edge from-layer="480" from-port="2" to-layer="501" to-port="1"/>
		<edge from-layer="501" from-port="2" to-layer="502" to-port="0"/>
		<edge from-layer="460" from-port="0" to-layer="502" to-port="1"/>
		<edge from-layer="502" from-port="2" to-layer="504" to-port="0"/>
		<edge from-layer="503" from-port="0" to-layer="504" to-port="1"/>
		<edge from-layer="504" from-port="2" to-layer="505" to-port="0"/>
		<edge from-layer="459" from-port="2" to-layer="505" to-port="1"/>
		<edge from-layer="505" from-port="2" to-layer="506" to-port="0"/>
		<edge from-layer="2" from-port="0" to-layer="506" to-port="1"/>
		<edge from-layer="506" from-port="2" to-layer="508" to-port="0"/>
		<edge from-layer="507" from-port="0" to-layer="508" to-port="1"/>
		<edge from-layer="508" from-port="2" to-layer="511" to-port="0"/>
		<edge from-layer="510" from-port="0" to-layer="511" to-port="1"/>
		<edge from-layer="511" from-port="2" to-layer="512" to-port="0"/>
		<edge from-layer="512" from-port="1" to-layer="513" to-port="0"/>
		<edge from-layer="509" from-port="0" to-layer="513" to-port="1"/>
		<edge from-layer="508" from-port="2" to-layer="514" to-port="0"/>
		<edge from-layer="513" from-port="2" to-layer="514" to-port="1"/>
		<edge from-layer="514" from-port="2" to-layer="515" to-port="0"/>
		<edge from-layer="1" from-port="0" to-layer="515" to-port="1"/>
		<edge from-layer="515" from-port="2" to-layer="517" to-port="0"/>
		<edge from-layer="516" from-port="0" to-layer="517" to-port="1"/>
		<edge from-layer="517" from-port="2" to-layer="518" to-port="0"/>
		<edge from-layer="514" from-port="2" to-layer="522" to-port="0"/>
		<edge from-layer="522" from-port="1" to-layer="523" to-port="0"/>
		<edge from-layer="523" from-port="1" to-layer="525" to-port="0"/>
		<edge from-layer="524" from-port="0" to-layer="525" to-port="1"/>
		<edge from-layer="520" from-port="0" to-layer="526" to-port="0"/>
		<edge from-layer="525" from-port="2" to-layer="526" to-port="1"/>
		<edge from-layer="521" from-port="0" to-layer="526" to-port="2"/>
		<edge from-layer="514" from-port="2" to-layer="527" to-port="0"/>
		<edge from-layer="526" from-port="3" to-layer="527" to-port="1"/>
		<edge from-layer="527" from-port="2" to-layer="528" to-port="0"/>
		<edge from-layer="519" from-port="0" to-layer="528" to-port="1"/>
		<edge from-layer="528" from-port="2" to-layer="529" to-port="0"/>
		<edge from-layer="518" from-port="1" to-layer="530" to-port="0"/>
		<edge from-layer="529" from-port="1" to-layer="530" to-port="1"/>
		<edge from-layer="530" from-port="2" to-layer="533" to-port="0"/>
		<edge from-layer="531" from-port="0" to-layer="533" to-port="1"/>
		<edge from-layer="532" from-port="0" to-layer="533" to-port="2"/>
		<edge from-layer="533" from-port="4" to-layer="534" to-port="0"/>
		<edge from-layer="0" from-port="0" to-layer="535" to-port="0"/>
		<edge from-layer="534" from-port="1" to-layer="535" to-port="1"/>
		<edge from-layer="533" from-port="4" to-layer="538" to-port="0"/>
		<edge from-layer="535" from-port="2" to-layer="538" to-port="1"/>
		<edge from-layer="538" from-port="2" to-layer="539" to-port="0"/>
		<edge from-layer="537" from-port="0" to-layer="539" to-port="1"/>
		<edge from-layer="539" from-port="2" to-layer="541" to-port="0"/>
		<edge from-layer="540" from-port="0" to-layer="541" to-port="1"/>
		<edge from-layer="541" from-port="2" to-layer="542" to-port="0"/>
		<edge from-layer="542" from-port="1" to-layer="545" to-port="0"/>
		<edge from-layer="543" from-port="0" to-layer="545" to-port="1"/>
		<edge from-layer="544" from-port="0" to-layer="545" to-port="2"/>
		<edge from-layer="536" from-port="0" to-layer="546" to-port="0"/>
		<edge from-layer="545" from-port="4" to-layer="546" to-port="1"/>
		<edge from-layer="546" from-port="2" to-layer="547" to-port="0"/>
		<edge from-layer="535" from-port="2" to-layer="547" to-port="1"/>
		<edge from-layer="545" from-port="3" to-layer="549" to-port="0"/>
		<edge from-layer="535" from-port="2" to-layer="549" to-port="1"/>
		<edge from-layer="533" from-port="4" to-layer="550" to-port="0"/>
		<edge from-layer="549" from-port="2" to-layer="550" to-port="1"/>
		<edge from-layer="550" from-port="2" to-layer="551" to-port="0"/>
		<edge from-layer="548" from-port="0" to-layer="551" to-port="1"/>
		<edge from-layer="551" from-port="2" to-layer="553" to-port="0"/>
		<edge from-layer="552" from-port="0" to-layer="553" to-port="1"/>
		<edge from-layer="553" from-port="2" to-layer="554" to-port="0"/>
		<edge from-layer="545" from-port="4" to-layer="555" to-port="0"/>
		<edge from-layer="554" from-port="1" to-layer="555" to-port="1"/>
		<edge from-layer="547" from-port="2" to-layer="556" to-port="0"/>
		<edge from-layer="555" from-port="2" to-layer="556" to-port="1"/>
		<edge from-layer="556" from-port="2" to-layer="557" to-port="0"/>
		<edge from-layer="33" from-port="4" to-layer="560" to-port="0"/>
		<edge from-layer="560" from-port="1" to-layer="561" to-port="0"/>
		<edge from-layer="561" from-port="1" to-layer="562" to-port="0"/>
		<edge from-layer="533" from-port="3" to-layer="565" to-port="0"/>
		<edge from-layer="556" from-port="2" to-layer="565" to-port="1"/>
		<edge from-layer="565" from-port="2" to-layer="567" to-port="0"/>
		<edge from-layer="567" from-port="1" to-layer="568" to-port="0"/>
		<edge from-layer="568" from-port="1" to-layer="570" to-port="0"/>
		<edge from-layer="569" from-port="0" to-layer="570" to-port="1"/>
		<edge from-layer="570" from-port="2" to-layer="571" to-port="0"/>
		<edge from-layer="566" from-port="0" to-layer="571" to-port="1"/>
		<edge from-layer="571" from-port="2" to-layer="572" to-port="0"/>
		<edge from-layer="572" from-port="1" to-layer="573" to-port="0"/>
		<edge from-layer="573" from-port="1" to-layer="577" to-port="0"/>
		<edge from-layer="574" from-port="0" to-layer="577" to-port="1"/>
		<edge from-layer="575" from-port="0" to-layer="577" to-port="2"/>
		<edge from-layer="576" from-port="0" to-layer="577" to-port="3"/>
		<edge from-layer="565" from-port="2" to-layer="578" to-port="0"/>
		<edge from-layer="577" from-port="4" to-layer="578" to-port="1"/>
		<edge from-layer="564" from-port="0" to-layer="578" to-port="2"/>
		<edge from-layer="563" from-port="0" to-layer="578" to-port="3"/>
		<edge from-layer="562" from-port="1" to-layer="583" to-port="0"/>
		<edge from-layer="583" from-port="1" to-layer="587" to-port="0"/>
		<edge from-layer="584" from-port="0" to-layer="587" to-port="1"/>
		<edge from-layer="585" from-port="0" to-layer="587" to-port="2"/>
		<edge from-layer="586" from-port="0" to-layer="587" to-port="3"/>
		<edge from-layer="587" from-port="4" to-layer="588" to-port="0"/>
		<edge from-layer="588" from-port="1" to-layer="589" to-port="0"/>
		<edge from-layer="581" from-port="0" to-layer="589" to-port="1"/>
		<edge from-layer="582" from-port="0" to-layer="589" to-port="2"/>
		<edge from-layer="588" from-port="1" to-layer="592" to-port="0"/>
		<edge from-layer="590" from-port="0" to-layer="592" to-port="1"/>
		<edge from-layer="591" from-port="0" to-layer="592" to-port="2"/>
		<edge from-layer="593" from-port="0" to-layer="595" to-port="0"/>
		<edge from-layer="594" from-port="0" to-layer="595" to-port="1"/>
		<edge from-layer="589" from-port="3" to-layer="595" to-port="2"/>
		<edge from-layer="592" from-port="3" to-layer="595" to-port="3"/>
		<edge from-layer="578" from-port="4" to-layer="596" to-port="0"/>
		<edge from-layer="579" from-port="0" to-layer="596" to-port="1"/>
		<edge from-layer="595" from-port="4" to-layer="596" to-port="2"/>
		<edge from-layer="580" from-port="0" to-layer="596" to-port="3"/>
		<edge from-layer="596" from-port="4" to-layer="597" to-port="0"/>
		<edge from-layer="188" from-port="2" to-layer="597" to-port="1"/>
		<edge from-layer="562" from-port="1" to-layer="597" to-port="2"/>
		<edge from-layer="597" from-port="3" to-layer="598" to-port="0"/>
		<edge from-layer="559" from-port="0" to-layer="598" to-port="1"/>
		<edge from-layer="598" from-port="2" to-layer="600" to-port="0"/>
		<edge from-layer="599" from-port="0" to-layer="600" to-port="1"/>
		<edge from-layer="600" from-port="2" to-layer="601" to-port="0"/>
		<edge from-layer="601" from-port="1" to-layer="604" to-port="0"/>
		<edge from-layer="602" from-port="0" to-layer="604" to-port="1"/>
		<edge from-layer="603" from-port="0" to-layer="604" to-port="2"/>
		<edge from-layer="604" from-port="4" to-layer="605" to-port="0"/>
		<edge from-layer="558" from-port="0" to-layer="606" to-port="0"/>
		<edge from-layer="605" from-port="1" to-layer="606" to-port="1"/>
		<edge from-layer="604" from-port="4" to-layer="609" to-port="0"/>
		<edge from-layer="606" from-port="2" to-layer="609" to-port="1"/>
		<edge from-layer="609" from-port="2" to-layer="610" to-port="0"/>
		<edge from-layer="608" from-port="0" to-layer="610" to-port="1"/>
		<edge from-layer="610" from-port="2" to-layer="612" to-port="0"/>
		<edge from-layer="611" from-port="0" to-layer="612" to-port="1"/>
		<edge from-layer="612" from-port="2" to-layer="613" to-port="0"/>
		<edge from-layer="613" from-port="1" to-layer="616" to-port="0"/>
		<edge from-layer="614" from-port="0" to-layer="616" to-port="1"/>
		<edge from-layer="615" from-port="0" to-layer="616" to-port="2"/>
		<edge from-layer="607" from-port="0" to-layer="617" to-port="0"/>
		<edge from-layer="616" from-port="4" to-layer="617" to-port="1"/>
		<edge from-layer="617" from-port="2" to-layer="618" to-port="0"/>
		<edge from-layer="606" from-port="2" to-layer="618" to-port="1"/>
		<edge from-layer="616" from-port="3" to-layer="620" to-port="0"/>
		<edge from-layer="606" from-port="2" to-layer="620" to-port="1"/>
		<edge from-layer="604" from-port="4" to-layer="621" to-port="0"/>
		<edge from-layer="620" from-port="2" to-layer="621" to-port="1"/>
		<edge from-layer="621" from-port="2" to-layer="622" to-port="0"/>
		<edge from-layer="619" from-port="0" to-layer="622" to-port="1"/>
		<edge from-layer="622" from-port="2" to-layer="624" to-port="0"/>
		<edge from-layer="623" from-port="0" to-layer="624" to-port="1"/>
		<edge from-layer="624" from-port="2" to-layer="625" to-port="0"/>
		<edge from-layer="616" from-port="4" to-layer="626" to-port="0"/>
		<edge from-layer="625" from-port="1" to-layer="626" to-port="1"/>
		<edge from-layer="618" from-port="2" to-layer="627" to-port="0"/>
		<edge from-layer="626" from-port="2" to-layer="627" to-port="1"/>
		<edge from-layer="627" from-port="2" to-layer="628" to-port="0"/>
		<edge from-layer="604" from-port="3" to-layer="633" to-port="0"/>
		<edge from-layer="627" from-port="2" to-layer="633" to-port="1"/>
		<edge from-layer="633" from-port="2" to-layer="635" to-port="0"/>
		<edge from-layer="635" from-port="1" to-layer="636" to-port="0"/>
		<edge from-layer="636" from-port="1" to-layer="638" to-port="0"/>
		<edge from-layer="637" from-port="0" to-layer="638" to-port="1"/>
		<edge from-layer="638" from-port="2" to-layer="639" to-port="0"/>
		<edge from-layer="634" from-port="0" to-layer="639" to-port="1"/>
		<edge from-layer="639" from-port="2" to-layer="640" to-port="0"/>
		<edge from-layer="640" from-port="1" to-layer="641" to-port="0"/>
		<edge from-layer="641" from-port="1" to-layer="645" to-port="0"/>
		<edge from-layer="642" from-port="0" to-layer="645" to-port="1"/>
		<edge from-layer="643" from-port="0" to-layer="645" to-port="2"/>
		<edge from-layer="644" from-port="0" to-layer="645" to-port="3"/>
		<edge from-layer="633" from-port="2" to-layer="646" to-port="0"/>
		<edge from-layer="645" from-port="4" to-layer="646" to-port="1"/>
		<edge from-layer="632" from-port="0" to-layer="646" to-port="2"/>
		<edge from-layer="631" from-port="0" to-layer="646" to-port="3"/>
		<edge from-layer="561" from-port="1" to-layer="651" to-port="0"/>
		<edge from-layer="651" from-port="1" to-layer="655" to-port="0"/>
		<edge from-layer="652" from-port="0" to-layer="655" to-port="1"/>
		<edge from-layer="653" from-port="0" to-layer="655" to-port="2"/>
		<edge from-layer="654" from-port="0" to-layer="655" to-port="3"/>
		<edge from-layer="655" from-port="4" to-layer="656" to-port="0"/>
		<edge from-layer="656" from-port="1" to-layer="657" to-port="0"/>
		<edge from-layer="649" from-port="0" to-layer="657" to-port="1"/>
		<edge from-layer="650" from-port="0" to-layer="657" to-port="2"/>
		<edge from-layer="656" from-port="1" to-layer="660" to-port="0"/>
		<edge from-layer="658" from-port="0" to-layer="660" to-port="1"/>
		<edge from-layer="659" from-port="0" to-layer="660" to-port="2"/>
		<edge from-layer="661" from-port="0" to-layer="663" to-port="0"/>
		<edge from-layer="662" from-port="0" to-layer="663" to-port="1"/>
		<edge from-layer="657" from-port="3" to-layer="663" to-port="2"/>
		<edge from-layer="660" from-port="3" to-layer="663" to-port="3"/>
		<edge from-layer="646" from-port="4" to-layer="664" to-port="0"/>
		<edge from-layer="647" from-port="0" to-layer="664" to-port="1"/>
		<edge from-layer="663" from-port="4" to-layer="664" to-port="2"/>
		<edge from-layer="648" from-port="0" to-layer="664" to-port="3"/>
		<edge from-layer="664" from-port="4" to-layer="665" to-port="0"/>
		<edge from-layer="83" from-port="2" to-layer="665" to-port="1"/>
		<edge from-layer="561" from-port="1" to-layer="665" to-port="2"/>
		<edge from-layer="665" from-port="3" to-layer="666" to-port="0"/>
		<edge from-layer="630" from-port="0" to-layer="666" to-port="1"/>
		<edge from-layer="666" from-port="2" to-layer="668" to-port="0"/>
		<edge from-layer="667" from-port="0" to-layer="668" to-port="1"/>
		<edge from-layer="668" from-port="2" to-layer="669" to-port="0"/>
		<edge from-layer="669" from-port="1" to-layer="672" to-port="0"/>
		<edge from-layer="670" from-port="0" to-layer="672" to-port="1"/>
		<edge from-layer="671" from-port="0" to-layer="672" to-port="2"/>
		<edge from-layer="672" from-port="4" to-layer="673" to-port="0"/>
		<edge from-layer="629" from-port="0" to-layer="674" to-port="0"/>
		<edge from-layer="673" from-port="1" to-layer="674" to-port="1"/>
		<edge from-layer="672" from-port="4" to-layer="677" to-port="0"/>
		<edge from-layer="674" from-port="2" to-layer="677" to-port="1"/>
		<edge from-layer="677" from-port="2" to-layer="678" to-port="0"/>
		<edge from-layer="676" from-port="0" to-layer="678" to-port="1"/>
		<edge from-layer="678" from-port="2" to-layer="680" to-port="0"/>
		<edge from-layer="679" from-port="0" to-layer="680" to-port="1"/>
		<edge from-layer="680" from-port="2" to-layer="681" to-port="0"/>
		<edge from-layer="681" from-port="1" to-layer="684" to-port="0"/>
		<edge from-layer="682" from-port="0" to-layer="684" to-port="1"/>
		<edge from-layer="683" from-port="0" to-layer="684" to-port="2"/>
		<edge from-layer="675" from-port="0" to-layer="685" to-port="0"/>
		<edge from-layer="684" from-port="4" to-layer="685" to-port="1"/>
		<edge from-layer="685" from-port="2" to-layer="686" to-port="0"/>
		<edge from-layer="674" from-port="2" to-layer="686" to-port="1"/>
		<edge from-layer="684" from-port="3" to-layer="688" to-port="0"/>
		<edge from-layer="674" from-port="2" to-layer="688" to-port="1"/>
		<edge from-layer="672" from-port="4" to-layer="689" to-port="0"/>
		<edge from-layer="688" from-port="2" to-layer="689" to-port="1"/>
		<edge from-layer="689" from-port="2" to-layer="690" to-port="0"/>
		<edge from-layer="687" from-port="0" to-layer="690" to-port="1"/>
		<edge from-layer="690" from-port="2" to-layer="692" to-port="0"/>
		<edge from-layer="691" from-port="0" to-layer="692" to-port="1"/>
		<edge from-layer="692" from-port="2" to-layer="693" to-port="0"/>
		<edge from-layer="684" from-port="4" to-layer="694" to-port="0"/>
		<edge from-layer="693" from-port="1" to-layer="694" to-port="1"/>
		<edge from-layer="686" from-port="2" to-layer="695" to-port="0"/>
		<edge from-layer="694" from-port="2" to-layer="695" to-port="1"/>
		<edge from-layer="695" from-port="2" to-layer="696" to-port="0"/>
		<edge from-layer="672" from-port="3" to-layer="701" to-port="0"/>
		<edge from-layer="695" from-port="2" to-layer="701" to-port="1"/>
		<edge from-layer="701" from-port="2" to-layer="703" to-port="0"/>
		<edge from-layer="703" from-port="1" to-layer="704" to-port="0"/>
		<edge from-layer="704" from-port="1" to-layer="706" to-port="0"/>
		<edge from-layer="705" from-port="0" to-layer="706" to-port="1"/>
		<edge from-layer="706" from-port="2" to-layer="707" to-port="0"/>
		<edge from-layer="702" from-port="0" to-layer="707" to-port="1"/>
		<edge from-layer="707" from-port="2" to-layer="708" to-port="0"/>
		<edge from-layer="708" from-port="1" to-layer="709" to-port="0"/>
		<edge from-layer="709" from-port="1" to-layer="713" to-port="0"/>
		<edge from-layer="710" from-port="0" to-layer="713" to-port="1"/>
		<edge from-layer="711" from-port="0" to-layer="713" to-port="2"/>
		<edge from-layer="712" from-port="0" to-layer="713" to-port="3"/>
		<edge from-layer="701" from-port="2" to-layer="714" to-port="0"/>
		<edge from-layer="713" from-port="4" to-layer="714" to-port="1"/>
		<edge from-layer="700" from-port="0" to-layer="714" to-port="2"/>
		<edge from-layer="699" from-port="0" to-layer="714" to-port="3"/>
		<edge from-layer="560" from-port="1" to-layer="719" to-port="0"/>
		<edge from-layer="719" from-port="1" to-layer="723" to-port="0"/>
		<edge from-layer="720" from-port="0" to-layer="723" to-port="1"/>
		<edge from-layer="721" from-port="0" to-layer="723" to-port="2"/>
		<edge from-layer="722" from-port="0" to-layer="723" to-port="3"/>
		<edge from-layer="723" from-port="4" to-layer="724" to-port="0"/>
		<edge from-layer="724" from-port="1" to-layer="725" to-port="0"/>
		<edge from-layer="717" from-port="0" to-layer="725" to-port="1"/>
		<edge from-layer="718" from-port="0" to-layer="725" to-port="2"/>
		<edge from-layer="724" from-port="1" to-layer="728" to-port="0"/>
		<edge from-layer="726" from-port="0" to-layer="728" to-port="1"/>
		<edge from-layer="727" from-port="0" to-layer="728" to-port="2"/>
		<edge from-layer="729" from-port="0" to-layer="731" to-port="0"/>
		<edge from-layer="730" from-port="0" to-layer="731" to-port="1"/>
		<edge from-layer="725" from-port="3" to-layer="731" to-port="2"/>
		<edge from-layer="728" from-port="3" to-layer="731" to-port="3"/>
		<edge from-layer="714" from-port="4" to-layer="732" to-port="0"/>
		<edge from-layer="715" from-port="0" to-layer="732" to-port="1"/>
		<edge from-layer="731" from-port="4" to-layer="732" to-port="2"/>
		<edge from-layer="716" from-port="0" to-layer="732" to-port="3"/>
		<edge from-layer="732" from-port="4" to-layer="733" to-port="0"/>
		<edge from-layer="56" from-port="2" to-layer="733" to-port="1"/>
		<edge from-layer="560" from-port="1" to-layer="733" to-port="2"/>
		<edge from-layer="733" from-port="3" to-layer="734" to-port="0"/>
		<edge from-layer="698" from-port="0" to-layer="734" to-port="1"/>
		<edge from-layer="734" from-port="2" to-layer="736" to-port="0"/>
		<edge from-layer="735" from-port="0" to-layer="736" to-port="1"/>
		<edge from-layer="736" from-port="2" to-layer="737" to-port="0"/>
		<edge from-layer="737" from-port="1" to-layer="740" to-port="0"/>
		<edge from-layer="738" from-port="0" to-layer="740" to-port="1"/>
		<edge from-layer="739" from-port="0" to-layer="740" to-port="2"/>
		<edge from-layer="740" from-port="4" to-layer="741" to-port="0"/>
		<edge from-layer="697" from-port="0" to-layer="742" to-port="0"/>
		<edge from-layer="741" from-port="1" to-layer="742" to-port="1"/>
		<edge from-layer="740" from-port="4" to-layer="745" to-port="0"/>
		<edge from-layer="742" from-port="2" to-layer="745" to-port="1"/>
		<edge from-layer="745" from-port="2" to-layer="746" to-port="0"/>
		<edge from-layer="744" from-port="0" to-layer="746" to-port="1"/>
		<edge from-layer="746" from-port="2" to-layer="748" to-port="0"/>
		<edge from-layer="747" from-port="0" to-layer="748" to-port="1"/>
		<edge from-layer="748" from-port="2" to-layer="749" to-port="0"/>
		<edge from-layer="749" from-port="1" to-layer="752" to-port="0"/>
		<edge from-layer="750" from-port="0" to-layer="752" to-port="1"/>
		<edge from-layer="751" from-port="0" to-layer="752" to-port="2"/>
		<edge from-layer="743" from-port="0" to-layer="753" to-port="0"/>
		<edge from-layer="752" from-port="4" to-layer="753" to-port="1"/>
		<edge from-layer="753" from-port="2" to-layer="754" to-port="0"/>
		<edge from-layer="742" from-port="2" to-layer="754" to-port="1"/>
		<edge from-layer="752" from-port="3" to-layer="756" to-port="0"/>
		<edge from-layer="742" from-port="2" to-layer="756" to-port="1"/>
		<edge from-layer="740" from-port="4" to-layer="757" to-port="0"/>
		<edge from-layer="756" from-port="2" to-layer="757" to-port="1"/>
		<edge from-layer="757" from-port="2" to-layer="758" to-port="0"/>
		<edge from-layer="755" from-port="0" to-layer="758" to-port="1"/>
		<edge from-layer="758" from-port="2" to-layer="760" to-port="0"/>
		<edge from-layer="759" from-port="0" to-layer="760" to-port="1"/>
		<edge from-layer="760" from-port="2" to-layer="761" to-port="0"/>
		<edge from-layer="752" from-port="4" to-layer="762" to-port="0"/>
		<edge from-layer="761" from-port="1" to-layer="762" to-port="1"/>
		<edge from-layer="754" from-port="2" to-layer="763" to-port="0"/>
		<edge from-layer="762" from-port="2" to-layer="763" to-port="1"/>
		<edge from-layer="763" from-port="2" to-layer="764" to-port="0"/>
		<edge from-layer="20" from-port="0" to-layer="766" to-port="0"/>
		<edge from-layer="765" from-port="0" to-layer="766" to-port="1"/>
		<edge from-layer="20" from-port="0" to-layer="767" to-port="0"/>
		<edge from-layer="766" from-port="2" to-layer="767" to-port="1"/>
		<edge from-layer="740" from-port="3" to-layer="777" to-port="0"/>
		<edge from-layer="763" from-port="2" to-layer="777" to-port="1"/>
		<edge from-layer="777" from-port="2" to-layer="779" to-port="0"/>
		<edge from-layer="779" from-port="1" to-layer="780" to-port="0"/>
		<edge from-layer="780" from-port="1" to-layer="782" to-port="0"/>
		<edge from-layer="781" from-port="0" to-layer="782" to-port="1"/>
		<edge from-layer="782" from-port="2" to-layer="783" to-port="0"/>
		<edge from-layer="778" from-port="0" to-layer="783" to-port="1"/>
		<edge from-layer="783" from-port="2" to-layer="784" to-port="0"/>
		<edge from-layer="784" from-port="1" to-layer="785" to-port="0"/>
		<edge from-layer="785" from-port="1" to-layer="789" to-port="0"/>
		<edge from-layer="786" from-port="0" to-layer="789" to-port="1"/>
		<edge from-layer="787" from-port="0" to-layer="789" to-port="2"/>
		<edge from-layer="788" from-port="0" to-layer="789" to-port="3"/>
		<edge from-layer="777" from-port="2" to-layer="790" to-port="0"/>
		<edge from-layer="789" from-port="4" to-layer="790" to-port="1"/>
		<edge from-layer="776" from-port="0" to-layer="790" to-port="2"/>
		<edge from-layer="775" from-port="0" to-layer="790" to-port="3"/>
		<edge from-layer="33" from-port="4" to-layer="795" to-port="0"/>
		<edge from-layer="795" from-port="1" to-layer="799" to-port="0"/>
		<edge from-layer="796" from-port="0" to-layer="799" to-port="1"/>
		<edge from-layer="797" from-port="0" to-layer="799" to-port="2"/>
		<edge from-layer="798" from-port="0" to-layer="799" to-port="3"/>
		<edge from-layer="799" from-port="4" to-layer="800" to-port="0"/>
		<edge from-layer="800" from-port="1" to-layer="801" to-port="0"/>
		<edge from-layer="793" from-port="0" to-layer="801" to-port="1"/>
		<edge from-layer="794" from-port="0" to-layer="801" to-port="2"/>
		<edge from-layer="800" from-port="1" to-layer="804" to-port="0"/>
		<edge from-layer="802" from-port="0" to-layer="804" to-port="1"/>
		<edge from-layer="803" from-port="0" to-layer="804" to-port="2"/>
		<edge from-layer="805" from-port="0" to-layer="807" to-port="0"/>
		<edge from-layer="806" from-port="0" to-layer="807" to-port="1"/>
		<edge from-layer="801" from-port="3" to-layer="807" to-port="2"/>
		<edge from-layer="804" from-port="3" to-layer="807" to-port="3"/>
		<edge from-layer="790" from-port="4" to-layer="808" to-port="0"/>
		<edge from-layer="791" from-port="0" to-layer="808" to-port="1"/>
		<edge from-layer="807" from-port="4" to-layer="808" to-port="2"/>
		<edge from-layer="792" from-port="0" to-layer="808" to-port="3"/>
		<edge from-layer="808" from-port="4" to-layer="809" to-port="0"/>
		<edge from-layer="33" from-port="4" to-layer="809" to-port="1"/>
		<edge from-layer="809" from-port="2" to-layer="810" to-port="0"/>
		<edge from-layer="774" from-port="0" to-layer="810" to-port="1"/>
		<edge from-layer="810" from-port="2" to-layer="812" to-port="0"/>
		<edge from-layer="811" from-port="0" to-layer="812" to-port="1"/>
		<edge from-layer="812" from-port="2" to-layer="813" to-port="0"/>
		<edge from-layer="813" from-port="1" to-layer="814" to-port="0"/>
		<edge from-layer="773" from-port="0" to-layer="814" to-port="1"/>
		<edge from-layer="814" from-port="2" to-layer="816" to-port="0"/>
		<edge from-layer="815" from-port="0" to-layer="816" to-port="1"/>
		<edge from-layer="816" from-port="2" to-layer="817" to-port="0"/>
		<edge from-layer="33" from-port="4" to-layer="819" to-port="0"/>
		<edge from-layer="818" from-port="0" to-layer="819" to-port="1"/>
		<edge from-layer="33" from-port="4" to-layer="820" to-port="0"/>
		<edge from-layer="819" from-port="2" to-layer="820" to-port="1"/>
		<edge from-layer="817" from-port="1" to-layer="824" to-port="0"/>
		<edge from-layer="823" from-port="0" to-layer="824" to-port="1"/>
		<edge from-layer="824" from-port="2" to-layer="826" to-port="0"/>
		<edge from-layer="825" from-port="0" to-layer="826" to-port="1"/>
		<edge from-layer="826" from-port="2" to-layer="827" to-port="0"/>
		<edge from-layer="821" from-port="0" to-layer="827" to-port="1"/>
		<edge from-layer="822" from-port="0" to-layer="827" to-port="2"/>
		<edge from-layer="827" from-port="3" to-layer="828" to-port="0"/>
		<edge from-layer="827" from-port="4" to-layer="828" to-port="1"/>
		<edge from-layer="820" from-port="2" to-layer="829" to-port="0"/>
		<edge from-layer="828" from-port="2" to-layer="829" to-port="1"/>
		<edge from-layer="829" from-port="2" to-layer="831" to-port="0"/>
		<edge from-layer="830" from-port="0" to-layer="831" to-port="1"/>
		<edge from-layer="820" from-port="2" to-layer="833" to-port="0"/>
		<edge from-layer="832" from-port="0" to-layer="833" to-port="1"/>
		<edge from-layer="828" from-port="2" to-layer="835" to-port="0"/>
		<edge from-layer="834" from-port="0" to-layer="835" to-port="1"/>
		<edge from-layer="833" from-port="2" to-layer="836" to-port="0"/>
		<edge from-layer="835" from-port="2" to-layer="836" to-port="1"/>
		<edge from-layer="831" from-port="2" to-layer="837" to-port="0"/>
		<edge from-layer="836" from-port="2" to-layer="837" to-port="1"/>
		<edge from-layer="820" from-port="2" to-layer="838" to-port="0"/>
		<edge from-layer="820" from-port="2" to-layer="838" to-port="1"/>
		<edge from-layer="838" from-port="2" to-layer="840" to-port="0"/>
		<edge from-layer="839" from-port="0" to-layer="840" to-port="1"/>
		<edge from-layer="833" from-port="2" to-layer="841" to-port="0"/>
		<edge from-layer="833" from-port="2" to-layer="841" to-port="1"/>
		<edge from-layer="840" from-port="2" to-layer="842" to-port="0"/>
		<edge from-layer="841" from-port="2" to-layer="842" to-port="1"/>
		<edge from-layer="837" from-port="2" to-layer="843" to-port="0"/>
		<edge from-layer="842" from-port="2" to-layer="843" to-port="1"/>
		<edge from-layer="817" from-port="1" to-layer="843" to-port="2"/>
		<edge from-layer="843" from-port="3" to-layer="844" to-port="0"/>
		<edge from-layer="772" from-port="0" to-layer="844" to-port="1"/>
		<edge from-layer="844" from-port="2" to-layer="846" to-port="0"/>
		<edge from-layer="845" from-port="0" to-layer="846" to-port="1"/>
		<edge from-layer="846" from-port="2" to-layer="847" to-port="0"/>
		<edge from-layer="847" from-port="1" to-layer="848" to-port="0"/>
		<edge from-layer="771" from-port="0" to-layer="848" to-port="1"/>
		<edge from-layer="848" from-port="2" to-layer="850" to-port="0"/>
		<edge from-layer="849" from-port="0" to-layer="850" to-port="1"/>
		<edge from-layer="850" from-port="2" to-layer="851" to-port="0"/>
		<edge from-layer="851" from-port="1" to-layer="852" to-port="0"/>
		<edge from-layer="770" from-port="0" to-layer="852" to-port="1"/>
		<edge from-layer="852" from-port="2" to-layer="854" to-port="0"/>
		<edge from-layer="853" from-port="0" to-layer="854" to-port="1"/>
		<edge from-layer="854" from-port="2" to-layer="855" to-port="0"/>
		<edge from-layer="855" from-port="1" to-layer="859" to-port="0"/>
		<edge from-layer="856" from-port="0" to-layer="859" to-port="1"/>
		<edge from-layer="857" from-port="0" to-layer="859" to-port="2"/>
		<edge from-layer="858" from-port="0" to-layer="859" to-port="3"/>
		<edge from-layer="20" from-port="0" to-layer="860" to-port="0"/>
		<edge from-layer="860" from-port="1" to-layer="864" to-port="0"/>
		<edge from-layer="861" from-port="0" to-layer="864" to-port="1"/>
		<edge from-layer="862" from-port="0" to-layer="864" to-port="2"/>
		<edge from-layer="863" from-port="0" to-layer="864" to-port="3"/>
		<edge from-layer="859" from-port="4" to-layer="865" to-port="0"/>
		<edge from-layer="864" from-port="4" to-layer="865" to-port="1"/>
		<edge from-layer="865" from-port="2" to-layer="866" to-port="0"/>
		<edge from-layer="854" from-port="2" to-layer="867" to-port="0"/>
		<edge from-layer="867" from-port="1" to-layer="868" to-port="0"/>
		<edge from-layer="866" from-port="1" to-layer="869" to-port="0"/>
		<edge from-layer="868" from-port="1" to-layer="869" to-port="1"/>
		<edge from-layer="869" from-port="2" to-layer="870" to-port="0"/>
		<edge from-layer="769" from-port="0" to-layer="870" to-port="1"/>
		<edge from-layer="870" from-port="2" to-layer="874" to-port="0"/>
		<edge from-layer="871" from-port="0" to-layer="874" to-port="1"/>
		<edge from-layer="872" from-port="0" to-layer="874" to-port="2"/>
		<edge from-layer="873" from-port="0" to-layer="874" to-port="3"/>
		<edge from-layer="865" from-port="2" to-layer="878" to-port="0"/>
		<edge from-layer="875" from-port="0" to-layer="878" to-port="1"/>
		<edge from-layer="876" from-port="0" to-layer="878" to-port="2"/>
		<edge from-layer="877" from-port="0" to-layer="878" to-port="3"/>
		<edge from-layer="854" from-port="2" to-layer="879" to-port="0"/>
		<edge from-layer="878" from-port="4" to-layer="879" to-port="1"/>
		<edge from-layer="874" from-port="4" to-layer="879" to-port="2"/>
		<edge from-layer="768" from-port="0" to-layer="879" to-port="3"/>
		<edge from-layer="879" from-port="4" to-layer="880" to-port="0"/>
		<edge from-layer="767" from-port="2" to-layer="880" to-port="1"/>
		<edge from-layer="854" from-port="2" to-layer="883" to-port="0"/>
		<edge from-layer="833" from-port="2" to-layer="883" to-port="1"/>
		<edge from-layer="835" from-port="2" to-layer="884" to-port="0"/>
		<edge from-layer="883" from-port="2" to-layer="884" to-port="1"/>
		<edge from-layer="884" from-port="2" to-layer="885" to-port="0"/>
		<edge from-layer="885" from-port="1" to-layer="889" to-port="0"/>
		<edge from-layer="886" from-port="0" to-layer="889" to-port="1"/>
		<edge from-layer="887" from-port="0" to-layer="889" to-port="2"/>
		<edge from-layer="888" from-port="0" to-layer="889" to-port="3"/>
		<edge from-layer="20" from-port="0" to-layer="890" to-port="0"/>
		<edge from-layer="890" from-port="1" to-layer="894" to-port="0"/>
		<edge from-layer="891" from-port="0" to-layer="894" to-port="1"/>
		<edge from-layer="892" from-port="0" to-layer="894" to-port="2"/>
		<edge from-layer="893" from-port="0" to-layer="894" to-port="3"/>
		<edge from-layer="889" from-port="4" to-layer="895" to-port="0"/>
		<edge from-layer="894" from-port="4" to-layer="895" to-port="1"/>
		<edge from-layer="895" from-port="2" to-layer="896" to-port="0"/>
		<edge from-layer="884" from-port="2" to-layer="897" to-port="0"/>
		<edge from-layer="897" from-port="1" to-layer="898" to-port="0"/>
		<edge from-layer="896" from-port="1" to-layer="899" to-port="0"/>
		<edge from-layer="898" from-port="1" to-layer="899" to-port="1"/>
		<edge from-layer="899" from-port="2" to-layer="900" to-port="0"/>
		<edge from-layer="882" from-port="0" to-layer="900" to-port="1"/>
		<edge from-layer="900" from-port="2" to-layer="904" to-port="0"/>
		<edge from-layer="901" from-port="0" to-layer="904" to-port="1"/>
		<edge from-layer="902" from-port="0" to-layer="904" to-port="2"/>
		<edge from-layer="903" from-port="0" to-layer="904" to-port="3"/>
		<edge from-layer="895" from-port="2" to-layer="908" to-port="0"/>
		<edge from-layer="905" from-port="0" to-layer="908" to-port="1"/>
		<edge from-layer="906" from-port="0" to-layer="908" to-port="2"/>
		<edge from-layer="907" from-port="0" to-layer="908" to-port="3"/>
		<edge from-layer="884" from-port="2" to-layer="909" to-port="0"/>
		<edge from-layer="908" from-port="4" to-layer="909" to-port="1"/>
		<edge from-layer="904" from-port="4" to-layer="909" to-port="2"/>
		<edge from-layer="881" from-port="0" to-layer="909" to-port="3"/>
		<edge from-layer="880" from-port="2" to-layer="910" to-port="0"/>
		<edge from-layer="909" from-port="4" to-layer="910" to-port="1"/>
		<edge from-layer="910" from-port="2" to-layer="913" to-port="0"/>
		<edge from-layer="911" from-port="0" to-layer="913" to-port="1"/>
		<edge from-layer="912" from-port="0" to-layer="913" to-port="2"/>
		<edge from-layer="913" from-port="3" to-layer="914" to-port="0"/>
		<edge from-layer="20" from-port="0" to-layer="914" to-port="1"/>
		<edge from-layer="914" from-port="2" to-layer="915" to-port="0"/>
		<edge from-layer="915" from-port="1" to-layer="916" to-port="0"/>
		<edge from-layer="913" from-port="4" to-layer="917" to-port="0"/>
		<edge from-layer="917" from-port="1" to-layer="918" to-port="0"/>
	</edges>
	<meta_data>
		<MO_version value="2021.4.2-3974-e2a469a3450-releases/2021/4"/>
		<cli_parameters>
			<data_type value="float"/>
			<disable_resnet_optimization value="False"/>
			<disable_weights_compression value="False"/>
			<enable_concat_optimization value="False"/>
			<extensions value="DIR"/>
			<framework value="onnx"/>
			<freeze_placeholder_with_value value="{}"/>
			<generate_deprecated_IR_V7 value="False"/>
			<input value="src,1,2,3,4"/>
			<input_model value="DIR\automatic_5_resetri.onnx"/>
			<keep_shape_ops value="True"/>
			<legacy_ir_generation value="False"/>
			<log_level value="ERROR"/>
			<mean_scale_values value="{}"/>
			<mean_values value="()"/>
			<model_name value="automatic_5_resetri"/>
			<output_dir value="DIR"/>
			<placeholder_data_types value="{}"/>
			<placeholder_shapes value="{'src': array([  1,   3, 180, 320], dtype=int64), '1': array([ 1, 16, 45, 80], dtype=int64), '2': array([ 1, 20, 23, 40], dtype=int64), '3': array([ 1, 40, 12, 20], dtype=int64), '4': array([ 1, 64,  6, 10], dtype=int64)}"/>
			<progress value="False"/>
			<reverse_input_channels value="False"/>
			<scale_values value="()"/>
			<silent value="False"/>
			<static_shape value="False"/>
			<stream_output value="False"/>
			<transform value=""/>
			<unset unset_cli_parameters="batch, disable_fusing, disable_gfusing, finegrain_fusing, input_shape, move_to_preprocess, output, scale, transformations_config"/>
		</cli_parameters>
	</meta_data>
</net>
